…
  phase: TRAIN
}
layer {
  name: "frames_input_layer"
  type: "MemoryData"
  top: "frames"
  top: "dummy1"
  memory_data_param {
    batch_size: 32
    channels: 4
    height: 84
    width: 84
  }
}
layer {
  name: "target_input_layer"
  type: "MemoryData"
  top: "target"
  top: "dummy2"
  memory_data_param {
    batch_size: 32
    channels: 5
    height: 1
    width: 1
  }
}
layer {
  name: "filter_input_layer"
  type: "MemoryData"
  top: "filter"
  top: "dummy3"
  memory_data_param {
    batch_size: 32
    channels: 5
    height: 1
    width: 1
  }
}
layer {
  name: "silence_layer"
  type: "Silence"
  bottom: "dummy1"
  bottom: "dummy2"
  bottom: "dummy3"
}
layer {
  name: "conv1_layer"
  type: "Convolution"
  bottom: "frames"
  top: "conv1"
  convolution_param {
    num_output: 16
    kernel_size: 8
    stride: 4
    weight_filler {
      type: "gaussian"
      std: 0.01
    }
  }
}
layer {
  name: "conv1_relu_layer"
  type: "ReLU"
  bottom: "conv1"
  top: "conv1"
  relu_param {
    negative_slope: 0.01
  }
}
layer {
  name: "conv2_layer"
  type: "Convolution"
  bottom: "conv1"
  top: "conv2"
  convolution_param {
    num_output: 32
    kernel_size: 4
    stride: 2
    weight_filler {
      type: "gaussian"
      std: 0.01
    }
  }
}
layer {
  name: "conv2_relu_layer"
  type: "ReLU"
  bottom: "conv2"
  top: "conv2"
  relu_param {
    negative_slope: 0.01
  }
}
layer {
  name: "ip1_layer"
  type: "InnerProduct"
  bottom: "conv2"
  top: "ip1"
  inner_product_param {
    num_output: 256
    weight_filler {
      type: "gaussian"
      std: 0.01
    }
  }
}
layer {
  name: "ip1_relu_layer"
  type: "ReLU"
  bottom: "ip1"
  top: "ip1"
  relu_param {
    negative_slope: 0.01
  }
}
layer {
  name: "ip2_layer"
  type: "InnerProduct"
  bottom: "ip1"
  top: "q_values"
  inner_product_param {
    num_output: 5
    weight_filler {
      type: "gaussian"
      std: 0.01
    }
  }
}
layer {
  name: "flaten_filter"
  type: "Flatten"
  bottom: "filter"
  top: "flaten_filter"
}
layer {
  name: "eltwise_layer"
  type: "Eltwise"
  bottom: "q_values"
  bottom: "flaten_filter"
  top: "filtered_q_values"
  eltwise_param {
    operation: PROD
  }
}
layer {
  name: "loss"
  type: "EuclideanLoss"
  bottom: "filtered_q_values"
  bottom: "target"
  top: "loss"
}
I0419 14:41:59.580530 11702 layer_factory.hpp:77] Creating layer frames_input_layer
I0419 14:41:59.593175 11702 net.cpp:106] Creating Layer frames_input_layer
I0419 14:41:59.594710 11702 net.cpp:411] frames_input_layer -> frames
I0419 14:41:59.606374 11702 net.cpp:411] frames_input_layer -> dummy1
I0419 14:41:59.879520 11702 net.cpp:150] Setting up frames_input_layer
I0419 14:41:59.885975 11702 net.cpp:157] Top shape: 32 4 84 84 (903168)
I0419 14:41:59.887091 11702 net.cpp:157] Top shape: 32 (32)
I0419 14:41:59.887365 11702 net.cpp:165] Memory required for data: 3612800
I0419 14:41:59.888814 11702 layer_factory.hpp:77] Creating layer target_input_layer
I0419 14:41:59.889598 11702 net.cpp:106] Creating Layer target_input_layer
I0419 14:41:59.889781 11702 net.cpp:411] target_input_layer -> target
I0419 14:41:59.890724 11702 net.cpp:411] target_input_layer -> dummy2
I0419 14:41:59.892765 11702 net.cpp:150] Setting up target_input_layer
I0419 14:41:59.892982 11702 net.cpp:157] Top shape: 32 5 1 1 (160)
I0419 14:41:59.893677 11702 net.cpp:157] Top shape: 32 (32)
I0419 14:41:59.893785 11702 net.cpp:165] Memory required for data: 3613568
I0419 14:41:59.894220 11702 layer_factory.hpp:77] Creating layer filter_input_layer
I0419 14:41:59.894476 11702 net.cpp:106] Creating Layer filter_input_layer
I0419 14:41:59.894621 11702 net.cpp:411] filter_input_layer -> filter
I0419 14:41:59.894829 11702 net.cpp:411] filter_input_layer -> dummy3
I0419 14:41:59.896127 11702 net.cpp:150] Setting up filter_input_layer
I0419 14:41:59.896302 11702 net.cpp:157] Top shape: 32 5 1 1 (160)
I0419 14:41:59.896466 11702 net.cpp:157] Top shape: 32 (32)
I0419 14:41:59.896579 11702 net.cpp:165] Memory required for data: 3614336
I0419 14:41:59.896685 11702 layer_factory.hpp:77] Creating layer silence_layer
I0419 14:41:59.897775 11702 net.cpp:106] Creating Layer silence_layer
I0419 14:41:59.899081 11702 net.cpp:454] silence_layer <- dummy1
I0419 14:41:59.903367 11702 net.cpp:454] silence_layer <- dummy2
I0419 14:41:59.904057 11702 net.cpp:454] silence_layer <- dummy3
I0419 14:41:59.905006 11702 net.cpp:150] Setting up silence_layer
I0419 14:41:59.905130 11702 net.cpp:165] Memory required for data: 3614336
I0419 14:41:59.905261 11702 layer_factory.hpp:77] Creating layer conv1_layer
I0419 14:41:59.907166 11702 net.cpp:106] Creating Layer conv1_layer
I0419 14:41:59.907327 11702 net.cpp:454] conv1_layer <- frames
I0419 14:41:59.908244 11702 net.cpp:411] conv1_layer -> conv1
I0419 14:41:59.960264 11702 net.cpp:150] Setting up conv1_layer
I0419 14:41:59.960501 11702 net.cpp:157] Top shape: 32 16 20 20 (204800)
I0419 14:41:59.960609 11702 net.cpp:165] Memory required for data: 4433536
I0419 14:41:59.969596 11702 layer_factory.hpp:77] Creating layer conv1_relu_layer
I0419 14:41:59.970911 11702 net.cpp:106] Creating Layer conv1_relu_layer
I0419 14:41:59.971223 11702 net.cpp:454] conv1_relu_layer <- conv1
I0419 14:41:59.972667 11702 net.cpp:397] conv1_relu_layer -> conv1 (in-place)
I0419 14:41:59.974189 11702 net.cpp:150] Setting up conv1_relu_layer
I0419 14:41:59.974757 11702 net.cpp:157] Top shape: 32 16 20 20 (204800)
I0419 14:41:59.974918 11702 net.cpp:165] Memory required for data: 5252736
I0419 14:41:59.975040 11702 layer_factory.hpp:77] Creating layer conv2_layer
I0419 14:41:59.975230 11702 net.cpp:106] Creating Layer conv2_layer
I0419 14:41:59.975347 11702 net.cpp:454] conv2_layer <- conv1
I0419 14:41:59.975558 11702 net.cpp:411] conv2_layer -> conv2
I0419 14:41:59.986847 11702 net.cpp:150] Setting up conv2_layer
I0419 14:41:59.987115 11702 net.cpp:157] Top shape: 32 32 9 9 (82944)
I0419 14:41:59.987239 11702 net.cpp:165] Memory required for data: 5584512
I0419 14:41:59.988679 11702 layer_factory.hpp:77] Creating layer conv2_relu_layer
I0419 14:41:59.988884 11702 net.cpp:106] Creating Layer conv2_relu_layer
I0419 14:41:59.988997 11702 net.cpp:454] conv2_relu_layer <- conv2
I0419 14:41:59.989176 11702 net.cpp:397] conv2_relu_layer -> conv2 (in-place)
I0419 14:41:59.989372 11702 net.cpp:150] Setting up conv2_relu_layer
I0419 14:41:59.989533 11702 net.cpp:157] Top shape: 32 32 9 9 (82944)
I0419 14:41:59.989642 11702 net.cpp:165] Memory required for data: 5916288
I0419 14:41:59.989774 11702 layer_factory.hpp:77] Creating layer ip1_layer
I0419 14:41:59.990919 11702 net.cpp:106] Creating Layer ip1_layer
I0419 14:41:59.991140 11702 net.cpp:454] ip1_layer <- conv2
I0419 14:41:59.991389 11702 net.cpp:411] ip1_layer -> ip1
I0419 14:42:00.539872 11702 net.cpp:150] Setting up ip1_layer
I0419 14:42:00.540700 11702 net.cpp:157] Top shape: 32 256 (8192)
I0419 14:42:00.541084 11702 net.cpp:165] Memory required for data: 5949056
I0419 14:42:00.542721 11702 layer_factory.hpp:77] Creating layer ip1_relu_layer
I0419 14:42:00.542961 11702 net.cpp:106] Creating Layer ip1_relu_layer
I0419 14:42:00.543090 11702 net.cpp:454] ip1_relu_layer <- ip1
I0419 14:42:00.543309 11702 net.cpp:397] ip1_relu_layer -> ip1 (in-place)
I0419 14:42:00.543515 11702 net.cpp:150] Setting up ip1_relu_layer
I0419 14:42:00.543700 11702 net.cpp:157] Top shape: 32 256 (8192)
I0419 14:42:00.543820 11702 net.cpp:165] Memory required for data: 5981824
I0419 14:42:00.543992 11702 layer_factory.hpp:77] Creating layer ip2_layer
I0419 14:42:00.544189 11702 net.cpp:106] Creating Layer ip2_layer
I0419 14:42:00.544355 11702 net.cpp:454] ip2_layer <- ip1
I0419 14:42:00.544548 11702 net.cpp:411] ip2_layer -> q_values
I0419 14:42:00.547366 11702 net.cpp:150] Setting up ip2_layer
I0419 14:42:00.547600 11702 net.cpp:157] Top shape: 32 5 (160)
I0419 14:42:00.547709 11702 net.cpp:165] Memory required for data: 5982464
I0419 14:42:00.548007 11702 layer_factory.hpp:77] Creating layer flaten_filter
I0419 14:42:00.548912 11702 net.cpp:106] Creating Layer flaten_filter
I0419 14:42:00.549077 11702 net.cpp:454] flaten_filter <- filter
I0419 14:42:00.549293 11702 net.cpp:411] flaten_filter -> flaten_filter
I0419 14:42:00.553730 11702 net.cpp:150] Setting up flaten_filter
I0419 14:42:00.553947 11702 net.cpp:157] Top shape: 32 5 (160)
I0419 14:42:00.554059 11702 net.cpp:165] Memory required for data: 5983104
I0419 14:42:00.554193 11702 layer_factory.hpp:77] Creating layer eltwise_layer
I0419 14:42:00.555099 11702 net.cpp:106] Creating Layer eltwise_layer
I0419 14:42:00.555222 11702 net.cpp:454] eltwise_layer <- q_values
I0419 14:42:00.555390 11702 net.cpp:454] eltwise_layer <- flaten_filter
I0419 14:42:00.555577 11702 net.cpp:411] eltwise_layer -> filtered_q_values
I0419 14:42:00.558553 11702 net.cpp:150] Setting up eltwise_layer
I0419 14:42:00.558732 11702 net.cpp:157] Top shape: 32 5 (160)
I0419 14:42:00.558861 11702 net.cpp:165] Memory required for data: 5983744
I0419 14:42:00.559046 11702 layer_factory.hpp:77] Creating layer loss
I0419 14:42:00.559984 11702 net.cpp:106] Creating Layer loss
I0419 14:42:00.560106 11702 net.cpp:454] loss <- filtered_q_values
I0419 14:42:00.560293 11702 net.cpp:454] loss <- target
I0419 14:42:00.561091 11702 net.cpp:411] loss -> loss
I0419 14:42:00.565668 11702 net.cpp:150] Setting up loss
…
