…
9:28.011493 23304 caffe.cpp:270] Use GPU with device ID 0
I0203 12:09:28.051942 23304 caffe.cpp:274] GPU device name: TITAN Xp
I0203 12:09:28.606180 23304 net.cpp:58] Initializing net from parameters: 
name: "ENet"
state {
  phase: TEST
  level: 0
  stage: ""
}
layer {
  name: "data"
  type: "DenseImageData"
  top: "data"
  top: "label"
  dense_image_data_param {
    source: "/home/newuser/carmen_lcad/src/road_mapper/voltadaufes_test.txt"
    batch_size: 16
    shuffle: false
    new_height: 120
    new_width: 120
    label_divide_factor: 1
  }
}
layer {
  name: "conv0_1"
  type: "Convolution"
  bottom: "data"
  top: "conv0_1"
  convolution_param {
    num_output: 13
    bias_term: true
    pad: 1
    kernel_size: 3
    stride: 2
    weight_filler {
      type: "msra"
    }
  }
}
layer {
  name: "pool0_1"
  type: "Pooling"
  bottom: "data"
  top: "pool0_1"
  pooling_param {
    pool: MAX
    kernel_size: 2
    stride: 2
  }
}
layer {
  name: "concat0_1"
  type: "Concat"
  bottom: "conv0_1"
  bottom: "pool0_1"
  top: "concat0_1"
  concat_param {
    axis: 1
  }
}
layer {
  name: "bn0_1"
  type: "BN"
  bottom: "concat0_1"
  top: "bn0_1"
  param {
    lr_mult: 1
    decay_mult: 1
  }
  param {
    lr_mult: 1
    decay_mult: 0
  }
  bn_param {
    scale_filler {
      type: "constant"
      value: 1
    }
    shift_filler {
      type: "constant"
      value: 0.001
    }
    bn_mode: INFERENCE
  }
}
layer {
  name: "prelu0_1"
  type: "PReLU"
  bottom: "bn0_1"
  top: "prelu0_1"
}
layer {
  name: "conv1_0_0"
  type: "Convolution"
  bottom: "prelu0_1"
  top: "conv1_0_0"
  convolution_param {
    num_output: 16
    bias_term: true
    kernel_size: 2
    stride: 2
    weight_filler {
      type: "msra"
    }
    bias_filler {
      type: "constant"
      value: 0
    }
  }
}
layer {
  name: "prelu1_0_0"
  type: "PReLU"
  bottom: "conv1_0_0"
  top: "prelu1_0_0"
}
layer {
  name: "conv1_0_1"
  type: "Convolution"
  bottom: "prelu1_0_0"
  top: "conv1_0_1"
  convolution_param {
    num_output: 16
    bias_term: true
    pad: 1
    kernel_size: 3
    stride: 1
    weight_filler {
      type: "msra"
    }
  }
}
layer {
  name: "prelu1_0_1"
  type: "PReLU"
  bottom: "conv1_0_1"
  top: "prelu1_0_1"
}
layer {
  name: "conv1_0_2"
  type: "Convolution"
  bottom: "prelu1_0_1"
  top: "conv1_0_2"
  convolution_param {
    num_output: 64
    bias_term: true
    kernel_size: 1
    stride: 1
    weight_filler {
      type: "msra"
    }
    bias_filler {
      type: "constant"
      value: 0
    }
  }
}
layer {
  name: "pool1_0_4"
  type: "Pooling"
  bottom: "prelu0_1"
  top: "pool1_0_4"
  top: "pool1_0_4_mask"
  pooling_param {
    pool: MAX
    kernel_size: 2
    stride: 2
  }
}
layer {
  name: "conv1_0_4"
  type: "Convolution"
  bottom: "pool1_0_4"
  top: "conv1_0_4"
  convolution_param {
    num_output: 64
    bias_term: true
    kernel_size: 1
    stride: 1
    weight_filler {
      type: "msra"
    }
    bias_filler {
      type: "constant"
      value: 0
    }
  }
}
layer {
  name: "eltwise1_0_4"
  type: "Eltwise"
  bottom: "conv1_0_4"
  bottom: "conv1_0_2"
  top: "eltwise1_0_4"
}
layer {
  name: "prelu1_0_4"
  type: "PReLU"
  bottom: "eltwise1_0_4"
  top: "prelu1_0_4"
}
layer {
  name: "conv1_1_0"
  type: "Convolution"
  bottom: "prelu1_0_4"
  top: "conv1_1_0"
  convolution_param {
    num_output: 16
    bias_term: true
    kernel_size: 1
    stride: 1
    weight_filler {
      type: "msra"
    }
    bias_filler {
      type: "constant"
      value: 0
    }
  }
}
layer {
  name: "prelu1_1_0"
  type: "PReLU"
  bottom: "conv1_1_0"
  top: "prelu1_1_0"
}
layer {
  name: "conv1_1_1"
  type: "Convolution"
  bottom: "prelu1_1_0"
  top: "conv1_1_1"
  convolution_param {
    num_output: 16
    bias_term: true
    pad: 1
    kernel_size: 3
    stride: 1
    weight_filler {
      type: "msra"
    }
  }
}
layer {
  name: "prelu1_1_1"
  type: "PReLU"
  bottom: "conv1_1_1"
  top: "prelu1_1_1"
}
layer {
  name: "conv1_1_2"
  type: "Convolution"
  bottom: "prelu1_1_1"
  top: "conv1_1_2"
  convolution_param {
    num_output: 64
    bias_term: true
    kernel_size: 1
    stride: 1
    weight_filler {
      type: "msra"
    }
    bias_filler {
      type: "constant"
      value: 0
    }
  }
}
layer {
  name: "eltwise1_1_4"
  type: "Eltwise"
  bottom: "prelu1_0_4"
  bottom: "conv1_1_2"
  top: "eltwise1_1_4"
}
layer {
  name: "prelu1_1_4"
  type: "PReLU"
  bottom: "eltwise1_1_4"
  top: "prelu1_1_4"
}
layer {
  name: "conv1_2_0"
  type: "Convolution"
  bottom: "prelu1_1_4"
  top: "conv1_2_0"
  convolution_param {
    num_output: 16
    bias_term: true
    kernel_size: 1
    stride: 1
    weight_filler {
      type: "msra"
    }
    bias_filler {
      type: "constant"
      value: 0
    }
  }
}
layer {
  name: "prelu1_2_0"
  type: "PReLU"
  bottom: "conv1_2_0"
  top: "prelu1_2_0"
}
layer {
  name: "conv1_2_1"
  type: "Convolution"
  bottom: "prelu1_2_0"
  top: "conv1_2_1"
  convolution_param {
    num_output: 16
    bias_term: true
    pad: 1
    kernel_size: 3
    stride: 1
    weight_filler {
      type: "msra"
    }
  }
}
layer {
  name: "prelu1_2_1"
  type: "PReLU"
  bottom: "conv1_2_1"
  top: "prelu1_2_1"
}
layer {
  name: "conv1_2_2"
  type: "Convolution"
  bottom: "prelu1_2_1"
  top: "conv1_2_2"
  convolution_param {
    num_output: 64
    bias_term: true
    kernel_size: 1
    stride: 1
    weight_filler {
      type: "msra"
    }
    bias_filler {
      type: "constant"
      value: 0
    }
  }
}
layer {
  name: "eltwise1_2_4"
  type: "Eltwise"
  bottom: "prelu1_1_4"
  bottom: "conv1_2_2"
  top: "eltwise1_2_4"
}
layer {
  name: "prelu1_2_4"
  type: "PReLU"
  bottom: "eltwise1_2_4"
  top: "prelu1_2_4"
}
layer {
  name: "conv1_3_0"
  type: "Convolution"
  bottom: "prelu1_2_4"
  top: "conv1_3_0"
  convolution_param {
    num_output: 16
    bias_term: true
    kernel_size: 1
    stride: 1
    weight_filler {
      type: "msra"
    }
    bias_filler {
      type: "constant"
      value: 0
    }
  }
}
layer {
  name: "prelu1_3_0"
  type: "PReLU"
  bottom: "conv1_3_0"
  top: "prelu1_3_0"
}
layer {
  name: "conv1_3_1"
  type: "Convolution"
  bottom: "prelu1_3_0"
  top: "conv1_3_1"
  convolution_param {
    num_output: 16
    bias_term: true
    pad: 1
    kernel_size: 3
    stride: 1
    weight_filler {
      type: "msra"
    }
  }
}
layer {
  name: "prelu1_3_1"
  type: "PReLU"
  bottom: "conv1_3_1"
  top: "prelu1_3_1"
}
layer {
  name: "conv1_3_2"
  type: "Convolution"
  bottom: "prelu1_3_1"
  top: "conv1_3_2"
  convolution_param {
    num_output: 64
    bias_term: true
    kernel_size: 1
    stride: 1
    weight_filler {
      type: "msra"
    }
    bias_filler {
      type: "constant"
      value: 0
    }
  }
}
layer {
  name: "eltwise1_3_4"
  type: "Eltwise"
  bottom: "prelu1_2_4"
  bottom: "conv1_3_2"
  top: "eltwise1_3_4"
}
layer {
  name: "prelu1_3_4"
  type: "PReLU"
  bottom: "eltwise1_3_4"
  top: "prelu1_3_4"
}
layer {
  name: "conv1_4_0"
  type: "Convolution"
  bottom: "prelu1_3_4"
  top: "conv1_4_0"
  convolution_param {
    num_output: 16
    bias_term: true
    kernel_size: 1
    stride: 1
    weight_filler {
      type: "msra"
    }
    bias_filler {
      type: "constant"
      value: 0
    }
  }
}
layer {
  name: "prelu1_4_0"
  type: "PReLU"
  bottom: "conv1_4_0"
  top: "prelu1_4_0"
}
layer {
  name: "conv1_4_1"
  type: "Convolution"
  bottom: "prelu1_4_0"
  top: "conv1_4_1"
  convolution_param {
    num_output: 16
    bias_term: true
    pad: 1
    kernel_size: 3
    stride: 1
    weight_filler {
      type: "msra"
    }
  }
}
layer {
  name: "prelu1_4_1"
  type: "PReLU"
  bottom: "conv1_4_1"
  top: "prelu1_4_1"
}
layer {
  name: "conv1_4_2"
  type: "Convolution"
  bottom: "prelu1_4_1"
  top: "conv1_4_2"
  convolution_param {
    num_output: 64
    bias_term: true
    kernel_size: 1
    stride: 1
    weight_filler {
      type: "msra"
    }
    bias_filler {
      type: "constant"
      value: 0
    }
  }
}
layer {
  name: "eltwise1_4_4"
  type: "Eltwise"
  bottom: "prelu1_3_4"
  bottom: "conv1_4_2"
  top: "eltwise1_4_4"
}
layer {
  name: "prelu1_4_4"
  type: "PReLU"
  bottom: "eltwise1_4_4"
  top: "prelu1_4_4"
}
layer {
  name: "conv2_0_0"
  type: "Convolution"
  bottom: "prelu1_4_4"
  top: "conv2_0_0"
  convolution_param {
    num_output: 32
    bias_term: true
    kernel_size: 2
    stride: 2
    weight_filler {
      type: "msra"
    }
    bias_filler {
      type: "constant"
      value: 0
    }
  }
}
layer {
  name: "prelu2_0_0"
  type: "PReLU"
  bottom: "conv2_0_0"
  top: "prelu2_0_0"
}
layer {
  name: "conv2_0_1"
  type: "Convolution"
  bottom: "prelu2_0_0"
  top: "conv2_0_1"
  convolution_param {
    num_output: 32
    bias_term: true
    pad: 1
    kernel_size: 3
    stride: 1
    weight_filler {
      type: "msra"
    }
  }
}
layer {
  name: "prelu2_0_1"
  type: "PReLU"
  bottom: "conv2_0_1"
  top: "prelu2_0_1"
}
layer {
  name: "conv2_0_2"
  type: "Convolution"
  bottom: "prelu2_0_1"
  top: "conv2_0_2"
  convolution_param {
    num_output: 128
    bias_term: true
    kernel_size: 1
    stride: 1
    weight_filler {
      type: "msra"
    }
    bias_filler {
      type: "constant"
      value: 0
    }
  }
}
layer {
  name: "pool2_0_4"
  type: "Pooling"
  bottom: "prelu1_4_4"
  top: "pool2_0_4"
  top: "pool2_0_4_mask"
  pooling_param {
    pool: MAX
    kernel_size: 2
    stride: 2
  }
}
layer {
  name: "conv2_0_4"
  type: "Convolution"
  bottom: "pool2_0_4"
  top: "conv2_0_4"
  convolution_param {
    num_output: 128
    bias_term: true
    kernel_size: 1
    stride: 1
    weight_filler {
      type: "msra"
    }
    bias_filler {
      type: "constant"
      value: 0
    }
  }
}
layer {
  name: "eltwise2_0_4"
  type: "Eltwise"
  bottom: "conv2_0_4"
  bottom: "conv2_0_2"
  top: "eltwise2_0_4"
}
layer {
  name: "prelu2_0_4"
  type: "PReLU"
  bottom: "eltwise2_0_4"
  top: "prelu2_0_4"
}
layer {
  name: "conv2_1_0"
  type: "Convolution"
  bottom: "prelu2_0_4"
  top: "conv2_1_0"
  convolution_param {
    num_output: 32
    bias_term: true
    kernel_size: 1
    stride: 1
    weight_filler {
      type: "msra"
    }
    bias_filler {
      type: "constant"
      value: 0
    }
  }
}
layer {
  name: "prelu2_1_0"
  type: "PReLU"
  bottom: "conv2_1_0"
  top: "prelu2_1_0"
}
layer {
  name: "conv2_1_1"
  type: "Convolution"
  bottom: "prelu2_1_0"
  top: "conv2_1_1"
  convolution_param {
    num_output: 32
    bias_term: true
    pad: 1
    kernel_size: 3
    stride: 1
    weight_filler {
      type: "msra"
    }
  }
}
layer {
  name: "prelu2_1_1"
  type: "PReLU"
  bottom: "conv2_1_1"
  top: "prelu2_1_1"
}
layer {
  name: "conv2_1_2"
  type: "Convolution"
  bottom: "prelu2_1_1"
  top: "conv2_1_2"
  convolution_param {
    num_output: 128
    bias_term: true
    kernel_size: 1
    stride: 1
    weight_filler {
      type: "msra"
    }
    bias_filler {
      type: "constant"
      value: 0
    }
  }
}
layer {
  name: "eltwise2_1_4"
  type: "Eltwise"
  bottom: "prelu2_0_4"
  bottom: "conv2_1_2"
  top: "eltwise2_1_4"
}
layer {
  name: "prelu2_1_4"
  type: "PReLU"
  bottom: "eltwise2_1_4"
  top: "prelu2_1_4"
}
layer {
  name: "conv2_2_0"
  type: "Convolution"
  bottom: "prelu2_1_4"
  top: "conv2_2_0"
  convolution_param {
    num_output: 32
    bias_term: true
    kernel_size: 1
    stride: 1
    weight_filler {
      type: "msra"
    }
    bias_filler {
      type: "constant"
      value: 0
    }
  }
}
layer {
  name: "prelu2_2_0"
  type: "PReLU"
  bottom: "conv2_2_0"
  top: "prelu2_2_0"
}
layer {
  name: "conv2_2_1"
  type: "Convolution"
  bottom: "prelu2_2_0"
  top: "conv2_2_1"
  convolution_param {
    num_output: 32
    bias_term: true
    pad: 2
    kernel_size: 3
    stride: 1
    weight_filler {
      type: "msra"
    }
    dilation: 2
  }
}
layer {
  name: "prelu2_2_1"
  type: "PReLU"
  bottom: "conv2_2_1"
  top: "prelu2_2_1"
}
layer {
  name: "conv2_2_2"
  type: "Convolution"
  bottom: "prelu2_2_1"
  top: "conv2_2_2"
  convolution_param {
    num_output: 128
    bias_term: true
    kernel_size: 1
    stride: 1
    weight_filler {
      type: "msra"
    }
    bias_filler {
      type: "constant"
      value: 0
    }
  }
}
layer {
  name: "eltwise2_2_4"
  type: "Eltwise"
  bottom: "prelu2_1_4"
  bottom: "conv2_2_2"
  top: "eltwise2_2_4"
}
layer {
  name: "prelu2_2_4"
  type: "PReLU"
  bottom: "eltwise2_2_4"
  top: "prelu2_2_4"
}
layer {
  name: "conv2_3_0"
  type: "Convolution"
  bottom: "prelu2_2_4"
  top: "conv2_3_0"
  convolution_param {
    num_output: 32
    bias_term: true
    kernel_size: 1
    stride: 1
    weight_filler {
      type: "msra"
    }
    bias_filler {
      type: "constant"
      value: 0
    }
  }
}
layer {
  name: "prelu2_3_0"
  type: "PReLU"
  bottom: "conv2_3_0"
  top: "prelu2_3_0"
}
layer {
  name: "conv2_3_1_a"
  type: "Convolution"
  bottom: "prelu2_3_0"
  top: "conv2_3_1_a"
  convolution_param {
    num_output: 32
    bias_term: true
    pad: 1
    stride: 1
    weight_filler {
      type: "msra"
    }
    bias_filler {
      type: "constant"
      value: 0
    }
    kernel_h: 5
    kernel_w: 1
  }
}
layer {
  name: "conv2_3_1"
  type: "Convolution"
  bottom: "conv2_3_1_a"
  top: "conv2_3_1"
  convolution_param {
    num_output: 32
    bias_term: true
    pad: 1
    stride: 1
    weight_filler {
      type: "msra"
    }
    kernel_h: 1
    kernel_w: 5
  }
}
layer {
  name: "prelu2_3_1"
  type: "PReLU"
  bottom: "conv2_3_1"
  top: "prelu2_3_1"
}
layer {
  name: "conv2_3_2"
  type: "Convolution"
  bottom: "prelu2_3_1"
  top: "conv2_3_2"
  convolution_param {
    num_output: 128
    bias_term: true
    kernel_size: 1
    stride: 1
    weight_filler {
      type: "msra"
    }
    bias_filler {
      type: "constant"
      value: 0
    }
  }
}
layer {
  name: "eltwise2_3_4"
  type: "Eltwise"
  bottom: "prelu2_2_4"
  bottom: "conv2_3_2"
  top: "eltwise2_3_4"
}
layer {
  name: "prelu2_3_4"
  type: "PReLU"
  bottom: "eltwise2_3_4"
  top: "prelu2_3_4"
}
layer {
  name: "conv2_4_0"
  type: "Convolution"
  bottom: "prelu2_3_4"
  top: "conv2_4_0"
  convolution_param {
    num_output: 32
    bias_term: true
    kernel_size: 1
    stride: 1
    weight_filler {
      type: "msra"
    }
    bias_filler {
      type: "constant"
      value: 0
    }
  }
}
layer {
  name: "prelu2_4_0"
  type: "PReLU"
  bottom: "conv2_4_0"
  top: "prelu2_4_0"
}
layer {
  name: "conv2_4_1"
  type: "Convolution"
  bottom: "prelu2_4_0"
  top: "conv2_4_1"
  convolution_param {
    num_output: 32
    bias_term: true
    pad: 4
    kernel_size: 3
    stride: 1
    weight_filler {
      type: "msra"
    }
    dilation: 4
  }
}
layer {
  name: "prelu2_4_1"
  type: "PReLU"
  bottom: "conv2_4_1"
  top: "prelu2_4_1"
}
layer {
  name: "conv2_4_2"
  type: "Convolution"
  bottom: "prelu2_4_1"
  top: "conv2_4_2"
  convolution_param {
    num_output: 128
    bias_term: true
    kernel_size: 1
    stride: 1
    weight_filler {
      type: "msra"
    }
    bias_filler {
      type: "constant"
      value: 0
    }
  }
}
layer {
  name: "eltwise2_4_4"
  type: "Eltwise"
  bottom: "prelu2_3_4"
  bottom: "conv2_4_2"
  top: "eltwise2_4_4"
}
layer {
  name: "prelu2_4_4"
  type: "PReLU"
  bottom: "eltwise2_4_4"
  top: "prelu2_4_4"
}
layer {
  name: "conv2_5_0"
  type: "Convolution"
  bottom: "prelu2_4_4"
  top: "conv2_5_0"
  convolution_param {
    num_output: 32
    bias_term: true
    kernel_size: 1
    stride: 1
    weight_filler {
      type: "msra"
    }
    bias_filler {
      type: "constant"
      value: 0
    }
  }
}
layer {
  name: "prelu2_5_0"
  type: "PReLU"
  bottom: "conv2_5_0"
  top: "prelu2_5_0"
}
layer {
  name: "conv2_5_1"
  type: "Convolution"
  bottom: "prelu2_5_0"
  top: "conv2_5_1"
  convolution_param {
    num_output: 32
    bias_term: true
    pad: 1
    kernel_size: 3
    stride: 1
    weight_filler {
      type: "msra"
    }
  }
}
layer {
  name: "prelu2_5_1"
  type: "PReLU"
  bottom: "conv2_5_1"
  top: "prelu2_5_1"
}
layer {
  name: "conv2_5_2"
  type: "Convolution"
  bottom: "prelu2_5_1"
  top: "conv2_5_2"
  convolution_param {
    num_output: 128
    bias_term: true
    kernel_size: 1
    stride: 1
    weight_filler {
      type: "msra"
    }
    bias_filler {
      type: "constant"
      value: 0
    }
  }
}
layer {
  name: "eltwise2_5_4"
  type: "Eltwise"
  bottom: "prelu2_4_4"
  bottom: "conv2_5_2"
  top: "eltwise2_5_4"
}
layer {
  name: "prelu2_5_4"
  type: "PReLU"
  bottom: "eltwise2_5_4"
  top: "prelu2_5_4"
}
layer {
  name: "conv2_6_0"
  type: "Convolution"
  bottom: "prelu2_5_4"
  top: "conv2_6_0"
  convolution_param {
    num_output: 32
    bias_term: true
    kernel_size: 1
    stride: 1
    weight_filler {
      type: "msra"
    }
    bias_filler {
      type: "constant"
      value: 0
    }
  }
}
layer {
  name: "prelu2_6_0"
  type: "PReLU"
  bottom: "conv2_6_0"
  top: "prelu2_6_0"
}
layer {
  name: "conv2_6_1"
  type: "Convolution"
  bottom: "prelu2_6_0"
  top: "conv2_6_1"
  convolution_param {
    num_output: 32
    bias_term: true
    pad: 8
    kernel_size: 3
    stride: 1
    weight_filler {
      type: "msra"
    }
    dilation: 8
  }
}
layer {
  name: "prelu2_6_1"
  type: "PReLU"
  bottom: "conv2_6_1"
  top: "prelu2_6_1"
}
layer {
  name: "conv2_6_2"
  type: "Convolution"
  bottom: "prelu2_6_1"
  top: "conv2_6_2"
  convolution_param {
    num_output: 128
    bias_term: true
    kernel_size: 1
    stride: 1
    weight_filler {
      type: "msra"
    }
    bias_filler {
      type: "constant"
      value: 0
    }
  }
}
layer {
  name: "eltwise2_6_4"
  type: "Eltwise"
  bottom: "prelu2_5_4"
  bottom: "conv2_6_2"
  top: "eltwise2_6_4"
}
layer {
  name: "prelu2_6_4"
  type: "PReLU"
  bottom: "eltwise2_6_4"
  top: "prelu2_6_4"
}
layer {
  name: "conv2_7_0"
  type: "Convolution"
  bottom: "prelu2_6_4"
  top: "conv2_7_0"
  convolution_param {
    num_output: 32
    bias_term: true
    kernel_size: 1
    stride: 1
    weight_filler {
      type: "msra"
    }
    bias_filler {
      type: "constant"
      value: 0
    }
  }
}
layer {
  name: "prelu2_7_0"
  type: "PReLU"
  bottom: "conv2_7_0"
  top: "prelu2_7_0"
}
layer {
  name: "conv2_7_1_a"
  type: "Convolution"
  bottom: "prelu2_7_0"
  top: "conv2_7_1_a"
  convolution_param {
    num_output: 32
    bias_term: true
    pad: 1
    stride: 1
    weight_filler {
      type: "msra"
    }
    bias_filler {
      type: "constant"
      value: 0
    }
    kernel_h: 5
    kernel_w: 1
  }
}
layer {
  name: "conv2_7_1"
  type: "Convolution"
  bottom: "conv2_7_1_a"
  top: "conv2_7_1"
  convolution_param {
    num_output: 32
    bias_term: true
    pad: 1
    stride: 1
    weight_filler {
      type: "msra"
    }
    kernel_h: 1
    kernel_w: 5
  }
}
layer {
  name: "prelu2_7_1"
  type: "PReLU"
  bottom: "conv2_7_1"
  top: "prelu2_7_1"
}
layer {
  name: "conv2_7_2"
  type: "Convolution"
  bottom: "prelu2_7_1"
  top: "conv2_7_2"
  convolution_param {
    num_output: 128
    bias_term: true
    kernel_size: 1
    stride: 1
    weight_filler {
      type: "msra"
    }
    bias_filler {
      type: "constant"
      value: 0
    }
  }
}
layer {
  name: "eltwise2_7_4"
  type: "Eltwise"
  bottom: "prelu2_6_4"
  bottom: "conv2_7_2"
  top: "eltwise2_7_4"
}
layer {
  name: "prelu2_7_4"
  type: "PReLU"
  bottom: "eltwise2_7_4"
  top: "prelu2_7_4"
}
layer {
  name: "conv2_8_0"
  type: "Convolution"
  bottom: "prelu2_7_4"
  top: "conv2_8_0"
  convolution_param {
    num_output: 32
    bias_term: true
    kernel_size: 1
    stride: 1
    weight_filler {
      type: "msra"
    }
    bias_filler {
      type: "constant"
      value: 0
    }
  }
}
layer {
  name: "prelu2_8_0"
  type: "PReLU"
  bottom: "conv2_8_0"
  top: "prelu2_8_0"
}
layer {
  name: "conv2_8_1"
  type: "Convolution"
  bottom: "prelu2_8_0"
  top: "conv2_8_1"
  convolution_param {
    num_output: 32
    bias_term: true
    pad: 16
    kernel_size: 3
    stride: 1
    weight_filler {
      type: "msra"
    }
    dilation: 16
  }
}
layer {
  name: "prelu2_8_1"
  type: "PReLU"
  bottom: "conv2_8_1"
  top: "prelu2_8_1"
}
layer {
  name: "conv2_8_2"
  type: "Convolution"
  bottom: "prelu2_8_1"
  top: "conv2_8_2"
  convolution_param {
    num_output: 128
    bias_term: true
    kernel_size: 1
    stride: 1
    weight_filler {
      type: "msra"
    }
    bias_filler {
      type: "constant"
      value: 0
    }
  }
}
layer {
  name: "eltwise2_8_4"
  type: "Eltwise"
  bottom: "prelu2_7_4"
  bottom: "conv2_8_2"
  top: "eltwise2_8_4"
}
layer {
  name: "prelu2_8_4"
  type: "PReLU"
  bottom: "eltwise2_8_4"
  top: "prelu2_8_4"
}
layer {
  name: "conv3_1_0"
  type: "Convolution"
  bottom: "prelu2_8_4"
  top: "conv3_1_0"
  convolution_param {
    num_output: 32
    bias_term: true
    kernel_size: 1
    stride: 1
    weight_filler {
      type: "msra"
    }
    bias_filler {
      type: "constant"
      value: 0
    }
  }
}
layer {
  name: "prelu3_1_0"
  type: "PReLU"
  bottom: "conv3_1_0"
  top: "prelu3_1_0"
}
layer {
  name: "conv3_1_1"
  type: "Convolution"
  bottom: "prelu3_1_0"
  top: "conv3_1_1"
  convolution_param {
    num_output: 32
    bias_term: true
    pad: 1
    kernel_size: 3
    stride: 1
    weight_filler {
      type: "msra"
    }
  }
}
layer {
  name: "prelu3_1_1"
  type: "PReLU"
  bottom: "conv3_1_1"
  top: "prelu3_1_1"
}
layer {
  name: "conv3_1_2"
  type: "Convolution"
  bottom: "prelu3_1_1"
  top: "conv3_1_2"
  convolution_param {
    num_output: 128
    bias_term: true
    kernel_size: 1
    stride: 1
    weight_filler {
      type: "msra"
    }
    bias_filler {
      type: "constant"
      value: 0
    }
  }
}
layer {
  name: "eltwise3_1_4"
  type: "Eltwise"
  bottom: "prelu2_8_4"
  bottom: "conv3_1_2"
  top: "eltwise3_1_4"
}
layer {
  name: "prelu3_1_4"
  type: "PReLU"
  bottom: "eltwise3_1_4"
  top: "prelu3_1_4"
}
layer {
  name: "conv3_2_0"
  type: "Convolution"
  bottom: "prelu3_1_4"
  top: "conv3_2_0"
  convolution_param {
    num_output: 32
    bias_term: true
    kernel_size: 1
    stride: 1
    weight_filler {
      type: "msra"
    }
    bias_filler {
      type: "constant"
      value: 0
    }
  }
}
layer {
  name: "prelu3_2_0"
  type: "PReLU"
  bottom: "conv3_2_0"
  top: "prelu3_2_0"
}
layer {
  name: "conv3_2_1"
  type: "Convolution"
  bottom: "prelu3_2_0"
  top: "conv3_2_1"
  convolution_param {
    num_output: 32
    bias_term: true
    pad: 2
    kernel_size: 3
    stride: 1
    weight_filler {
      type: "msra"
    }
    dilation: 2
  }
}
layer {
  name: "prelu3_2_1"
  type: "PReLU"
  bottom: "conv3_2_1"
  top: "prelu3_2_1"
}
layer {
  name: "conv3_2_2"
  type: "Convolution"
  bottom: "prelu3_2_1"
  top: "conv3_2_2"
  convolution_param {
    num_output: 128
    bias_term: true
    kernel_size: 1
    stride: 1
    weight_filler {
      type: "msra"
    }
    bias_filler {
      type: "constant"
      value: 0
    }
  }
}
layer {
  name: "eltwise3_2_4"
  type: "Eltwise"
  bottom: "prelu3_1_4"
  bottom: "conv3_2_2"
  top: "eltwise3_2_4"
}
layer {
  name: "prelu3_2_4"
  type: "PReLU"
  bottom: "eltwise3_2_4"
  top: "prelu3_2_4"
}
layer {
  name: "conv3_3_0"
  type: "Convolution"
  bottom: "prelu3_2_4"
  top: "conv3_3_0"
  convolution_param {
    num_output: 32
    bias_term: true
    kernel_size: 1
    stride: 1
    weight_filler {
      type: "msra"
    }
    bias_filler {
      type: "constant"
      value: 0
    }
  }
}
layer {
  name: "prelu3_3_0"
  type: "PReLU"
  bottom: "conv3_3_0"
  top: "prelu3_3_0"
}
layer {
  name: "conv3_3_1_a"
  type: "Convolution"
  bottom: "prelu3_3_0"
  top: "conv3_3_1_a"
  convolution_param {
    num_output: 32
    bias_term: true
    pad: 1
    stride: 1
    weight_filler {
      type: "msra"
    }
    bias_filler {
      type: "constant"
      value: 0
    }
    kernel_h: 5
    kernel_w: 1
  }
}
layer {
  name: "conv3_3_1"
  type: "Convolution"
  bottom: "conv3_3_1_a"
  top: "conv3_3_1"
  convolution_param {
    num_output: 32
    bias_term: true
    pad: 1
    stride: 1
    weight_filler {
      type: "msra"
    }
    kernel_h: 1
    kernel_w: 5
  }
}
layer {
  name: "prelu3_3_1"
  type: "PReLU"
  bottom: "conv3_3_1"
  top: "prelu3_3_1"
}
layer {
  name: "conv3_3_2"
  type: "Convolution"
  bottom: "prelu3_3_1"
  top: "conv3_3_2"
  convolution_param {
    num_output: 128
    bias_term: true
    kernel_size: 1
    stride: 1
    weight_filler {
      type: "msra"
    }
    bias_filler {
      type: "constant"
      value: 0
    }
  }
}
layer {
  name: "eltwise3_3_4"
  type: "Eltwise"
  bottom: "prelu3_2_4"
  bottom: "conv3_3_2"
  top: "eltwise3_3_4"
}
layer {
  name: "prelu3_3_4"
  type: "PReLU"
  bottom: "eltwise3_3_4"
  top: "prelu3_3_4"
}
layer {
  name: "conv3_4_0"
  type: "Convolution"
  bottom: "prelu3_3_4"
  top: "conv3_4_0"
  convolution_param {
    num_output: 32
    bias_term: true
    kernel_size: 1
    stride: 1
    weight_filler {
      type: "msra"
    }
    bias_filler {
      type: "constant"
      value: 0
    }
  }
}
layer {
  name: "prelu3_4_0"
  type: "PReLU"
  bottom: "conv3_4_0"
  top: "prelu3_4_0"
}
layer {
  name: "conv3_4_1"
  type: "Convolution"
  bottom: "prelu3_4_0"
  top: "conv3_4_1"
  convolution_param {
    num_output: 32
    bias_term: true
    pad: 4
    kernel_size: 3
    stride: 1
    weight_filler {
      type: "msra"
    }
    dilation: 4
  }
}
layer {
  name: "prelu3_4_1"
  type: "PReLU"
  bottom: "conv3_4_1"
  top: "prelu3_4_1"
}
layer {
  name: "conv3_4_2"
  type: "Convolution"
  bottom: "prelu3_4_1"
  top: "conv3_4_2"
  convolution_param {
    num_output: 128
    bias_term: true
    kernel_size: 1
    stride: 1
    weight_filler {
      type: "msra"
    }
    bias_filler {
      type: "constant"
      value: 0
    }
  }
}
layer {
  name: "eltwise3_4_4"
  type: "Eltwise"
  bottom: "prelu3_3_4"
  bottom: "conv3_4_2"
  top: "eltwise3_4_4"
}
layer {
  name: "prelu3_4_4"
  type: "PReLU"
  bottom: "eltwise3_4_4"
  top: "prelu3_4_4"
}
layer {
  name: "conv3_5_0"
  type: "Convolution"
  bottom: "prelu3_4_4"
  top: "conv3_5_0"
  convolution_param {
    num_output: 32
    bias_term: true
    kernel_size: 1
    stride: 1
    weight_filler {
      type: "msra"
    }
    bias_filler {
      type: "constant"
      value: 0
    }
  }
}
layer {
  name: "prelu3_5_0"
  type: "PReLU"
  bottom: "conv3_5_0"
  top: "prelu3_5_0"
}
layer {
  name: "conv3_5_1"
  type: "Convolution"
  bottom: "prelu3_5_0"
  top: "conv3_5_1"
  convolution_param {
    num_output: 32
    bias_term: true
    pad: 1
    kernel_size: 3
    stride: 1
    weight_filler {
      type: "msra"
    }
  }
}
layer {
  name: "prelu3_5_1"
  type: "PReLU"
  bottom: "conv3_5_1"
  top: "prelu3_5_1"
}
layer {
  name: "conv3_5_2"
  type: "Convolution"
  bottom: "prelu3_5_1"
  top: "conv3_5_2"
  convolution_param {
    num_output: 128
    bias_term: true
    kernel_size: 1
    stride: 1
    weight_filler {
      type: "msra"
    }
    bias_filler {
      type: "constant"
      value: 0
    }
  }
}
layer {
  name: "eltwise3_5_4"
  type: "Eltwise"
  bottom: "prelu3_4_4"
  bottom: "conv3_5_2"
  top: "eltwise3_5_4"
}
layer {
  name: "prelu3_5_4"
  type: "PReLU"
  bottom: "eltwise3_5_4"
  top: "prelu3_5_4"
}
layer {
  name: "conv3_6_0"
  type: "Convolution"
  bottom: "prelu3_5_4"
  top: "conv3_6_0"
  convolution_param {
    num_output: 32
    bias_term: true
    kernel_size: 1
    stride: 1
    weight_filler {
      type: "msra"
    }
    bias_filler {
      type: "constant"
      value: 0
    }
  }
}
layer {
  name: "prelu3_6_0"
  type: "PReLU"
  bottom: "conv3_6_0"
  top: "prelu3_6_0"
}
layer {
  name: "conv3_6_1"
  type: "Convolution"
  bottom: "prelu3_6_0"
  top: "conv3_6_1"
  convolution_param {
    num_output: 32
    bias_term: true
    pad: 8
    kernel_size: 3
    stride: 1
    weight_filler {
      type: "msra"
    }
    dilation: 8
  }
}
layer {
  name: "prelu3_6_1"
  type: "PReLU"
  bottom: "conv3_6_1"
  top: "prelu3_6_1"
}
layer {
  name: "conv3_6_2"
  type: "Convolution"
  bottom: "prelu3_6_1"
  top: "conv3_6_2"
  convolution_param {
    num_output: 128
    bias_term: true
    kernel_size: 1
    stride: 1
    weight_filler {
      type: "msra"
    }
    bias_filler {
      type: "constant"
      value: 0
    }
  }
}
layer {
  name: "eltwise3_6_4"
  type: "Eltwise"
  bottom: "prelu3_5_4"
  bottom: "conv3_6_2"
  top: "eltwise3_6_4"
}
layer {
  name: "prelu3_6_4"
  type: "PReLU"
  bottom: "eltwise3_6_4"
  top: "prelu3_6_4"
}
layer {
  name: "conv3_7_0"
  type: "Convolution"
  bottom: "prelu3_6_4"
  top: "conv3_7_0"
  convolution_param {
    num_output: 32
    bias_term: true
    kernel_size: 1
    stride: 1
    weight_filler {
      type: "msra"
    }
    bias_filler {
      type: "constant"
      value: 0
    }
  }
}
layer {
  name: "prelu3_7_0"
  type: "PReLU"
  bottom: "conv3_7_0"
  top: "prelu3_7_0"
}
layer {
  name: "conv3_7_1_a"
  type: "Convolution"
  bottom: "prelu3_7_0"
  top: "conv3_7_1_a"
  convolution_param {
    num_output: 32
    bias_term: true
    pad: 1
    stride: 1
    weight_filler {
      type: "msra"
    }
    bias_filler {
      type: "constant"
      value: 0
    }
    kernel_h: 5
    kernel_w: 1
  }
}
layer {
  name: "conv3_7_1"
  type: "Convolution"
  bottom: "conv3_7_1_a"
  top: "conv3_7_1"
  convolution_param {
    num_output: 32
    bias_term: true
    pad: 1
    stride: 1
    weight_filler {
      type: "msra"
    }
    kernel_h: 1
    kernel_w: 5
  }
}
layer {
  name: "prelu3_7_1"
  type: "PReLU"
  bottom: "conv3_7_1"
  top: "prelu3_7_1"
}
layer {
  name: "conv3_7_2"
  type: "Convolution"
  bottom: "prelu3_7_1"
  top: "conv3_7_2"
  convolution_param {
    num_output: 128
    bias_term: true
    kernel_size: 1
    stride: 1
    weight_filler {
      type: "msra"
    }
    bias_filler {
      type: "constant"
      value: 0
    }
  }
}
layer {
  name: "eltwise3_7_4"
  type: "Eltwise"
  bottom: "prelu3_6_4"
  bottom: "conv3_7_2"
  top: "eltwise3_7_4"
}
layer {
  name: "prelu3_7_4"
  type: "PReLU"
  bottom: "eltwise3_7_4"
  top: "prelu3_7_4"
}
layer {
  name: "conv3_8_0"
  type: "Convolution"
  bottom: "prelu3_7_4"
  top: "conv3_8_0"
  convolution_param {
    num_output: 32
    bias_term: true
    kernel_size: 1
    stride: 1
    weight_filler {
      type: "msra"
    }
    bias_filler {
      type:
I0203 12:09:28.607599 23304 layer_factory.hpp:77] Creating layer data
I0203 12:09:28.607650 23304 net.cpp:100] Creating Layer data
I0203 12:09:28.607666 23304 net.cpp:408] data -> data
I0203 12:09:28.607700 23304 net.cpp:408] data -> label
I0203 12:09:28.607734 23304 dense_image_data_layer.cpp:50] Opening file /home/newuser/carmen_lcad/src/road_mapper/voltadaufes_test.txt
I0203 12:09:28.640614 23304 dense_image_data_layer.cpp:65] A total of 22176 examples.
I0203 12:09:28.903880 23304 dense_image_data_layer.cpp:118] output data size top[0]: 16,3,120,120
I0203 12:09:28.903944 23304 dense_image_data_layer.cpp:121] output data size top[1]: 16,1,120,120
I0203 12:09:28.907634 23304 net.cpp:150] Setting up data
I0203 12:09:28.907685 23304 net.cpp:157] Top shape: 16 3 120 120 (691200)
I0203 12:09:28.907699 23304 net.cpp:157] Top shape: 16 1 120 120 (230400)
I0203 12:09:28.907708 23304 net.cpp:165] Memory required for data: 3686400
I0203 12:09:28.907727 23304 layer_factory.hpp:77] Creating layer data_data_0_split
I0203 12:09:28.907886 23304 net.cpp:100] Creating Layer data_data_0_split
I0203 12:09:28.907954 23304 net.cpp:434] data_data_0_split <- data
I0203 12:09:28.907999 23304 net.cpp:408] data_data_0_split -> data_data_0_split_0
I0203 12:09:28.908027 23304 net.cpp:408] data_data_0_split -> data_data_0_split_1
I0203 12:09:28.908269 23304 net.cpp:150] Setting up data_data_0_split
I0203 12:09:28.908315 23304 net.cpp:157] Top shape: 16 3 120 120 (691200)
I0203 12:09:28.908332 23304 net.cpp:157] Top shape: 16 3 120 120 (691200)
I0203 12:09:28.908344 23304 net.cpp:165] Memory required for data: 9216000
I0203 12:09:28.908358 23304 layer_factory.hpp:77] Creating layer conv0_1
I0203 12:09:28.908397 23304 net.cpp:100] Creating Layer conv0_1
I0203 12:09:28.908412 23304 net.cpp:434] conv0_1 <- data_data_0_split_0
I0203 12:09:28.908430 23304 net.cpp:408] conv0_1 -> conv0_1
I0203 12:09:29.323316 23304 net.cpp:150] Setting up conv0_1
I0203 12:09:29.323392 23304 net.cpp:157] Top shape: 16 13 60 60 (748800)
I0203 12:09:29.323405 23304 net.cpp:165] Memory required for data: 12211200
I0203 12:09:29.323439 23304 layer_factory.hpp:77] Creating layer pool0_1
I0203 12:09:29.323465 23304 net.cpp:100] Creating Layer pool0_1
I0203 12:09:29.323477 23304 net.cpp:434] pool0_1 <- data_data_0_split_1
I0203 12:09:29.323493 23304 net.cpp:408] pool0_1 -> pool0_1
I0203 12:09:29.323582 23304 net.cpp:150] Setting up pool0_1
I0203 12:09:29.323601 23304 net.cpp:157] Top shape: 16 3 60 60 (172800)
I0203 12:09:29.323611 23304 net.cpp:165] Memory required for data: 12902400
I0203 12:09:29.323621 23304 layer_factory.hpp:77] Creating layer concat0_1
I0203 12:09:29.323654 23304 net.cpp:100] Creating Layer concat0_1
I0203 12:09:29.323680 23304 net.cpp:434] concat0_1 <- conv0_1
I0203 12:09:29.323691 23304 net.cpp:434] concat0_1 <- pool0_1
I0203 12:09:29.323704 23304 net.cpp:408] concat0_1 -> concat0_1
I0203 12:09:29.323755 23304 net.cpp:150] Setting up concat0_1
I0203 12:09:29.323771 23304 net.cpp:157] Top shape: 16 16 60 60 (921600)
I0203 12:09:29.323781 23304 net.cpp:165] Memory required for data: 16588800
I0203 12:09:29.323791 23304 layer_factory.hpp:77] Creating layer bn0_1
I0203 12:09:29.323817 23304 net.cpp:100] Creating Layer bn0_1
I0203 12:09:29.323827 23304 net.cpp:434] bn0_1 <- concat0_1
I0203 12:09:29.323840 23304 net.cpp:408] bn0_1 -> bn0_1
I0203 12:09:29.324184 23304 net.cpp:150] Setting up bn0_1
I0203 12:09:29.324205 23304 net.cpp:157] Top shape: 16 16 60 60 (921600)
I0203 12:09:29.324214 23304 net.cpp:165] Memory required for data: 20275200
I0203 12:09:29.324231 23304 layer_factory.hpp:77] Creating layer prelu0_1
I0203 12:09:29.324252 23304 net.cpp:100] Creating Layer prelu0_1
I0203 12:09:29.324262 23304 net.cpp:434] prelu0_1 <- bn0_1
I0203 12:09:29.324275 23304 net.cpp:408] prelu0_1 -> prelu0_1
I0203 12:09:29.325887 23304 net.cpp:150] Setting up prelu0_1
I0203 12:09:29.325917 23304 net.cpp:157] Top shape: 16 16 60 60 (921600)
I0203 12:09:29.325927 23304 net.cpp:165] Memory required for data: 23961600
I0203 12:09:29.325942 23304 layer_factory.hpp:77] Creating layer prelu0_1_prelu0_1_0_split
I0203 12:09:29.325958 23304 net.cpp:100] Creating Layer prelu0_1_prelu0_1_0_split
I0203 12:09:29.325968 23304 net.cpp:434] prelu0_1_prelu0_1_0_split <- prelu0_1
I0203 12:09:29.325980 23304 net.cpp:408] prelu0_1_prelu0_1_0_split -> prelu0_1_prelu0_1_0_split_0
I0203 12:09:29.325995 23304 net.cpp:408] prelu0_1_prelu0_1_0_split -> prelu0_1_prelu0_1_0_split_1
I0203 12:09:29.326061 23304 net.cpp:150] Setting up prelu0_1_prelu0_1_0_split
I0203 12:09:29.326077 23304 net.cpp:157] Top shape: 16 16 60 60 (921600)
I0203 12:09:29.326088 23304 net.cpp:157] Top shape: 16 16 60 60 (921600)
I0203 12:09:29.326097 23304 net.cpp:165] Memory required for data: 31334400
I0203 12:09:29.326107 23304 layer_factory.hpp:77] Creating layer conv1_0_0
I0203 12:09:29.326129 23304 net.cpp:100] Creating Layer conv1_0_0
I0203 12:09:29.326139 23304 net.cpp:434] conv1_0_0 <- prelu0_1_prelu0_1_0_split_0
I0203 12:09:29.326153 23304 net.cpp:408] conv1_0_0 -> conv1_0_0
I0203 12:09:29.328754 23304 net.cpp:150] Setting up conv1_0_0
I0203 12:09:29.328781 23304 net.cpp:157] Top shape: 16 16 30 30 (230400)
I0203 12:09:29.328791 23304 net.cpp:165] Memory required for data: 32256000
I0203 12:09:29.328807 23304 layer_factory.hpp:77] Creating layer prelu1_0_0
I0203 12:09:29.328821 23304 net.cpp:100] Creating Layer prelu1_0_0
I0203 12:09:29.328832 23304 net.cpp:434] prelu1_0_0 <- conv1_0_0
I0203 12:09:29.328845 23304 net.cpp:408] prelu1_0_0 -> prelu1_0_0
I0203 12:09:29.330415 23304 net.cpp:150] Setting up prelu1_0_0
I0203 12:09:29.330446 23304 net.cpp:157] Top shape: 16 16 30 30 (230400)
I0203 12:09:29.330456 23304 net.cpp:165] Memory required for data: 33177600
I0203 12:09:29.330469 23304 layer_factory.hpp:77] Creating layer conv1_0_1
I0203 12:09:29.330489 23304 net.cpp:100] Creating Layer conv1_0_1
I0203 12:09:29.330500 23304 net.cpp:434] conv1_0_1 <- prelu1_0_0
I0203 12:09:29.330516 23304 net.cpp:408] conv1_0_1 -> conv1_0_1
I0203 12:09:29.332494 23304 net.cpp:150] Setting up conv1_0_1
I0203 12:09:29.332520 23304 net.cpp:157] Top shape: 16 16 30 30 (230400)
I0203 12:09:29.332530 23304 net.cpp:165] Memory required for data: 34099200
I0203 12:09:29.332551 23304 layer_factory.hpp:77] Creating layer prelu1_0_1
I0203 12:09:29.332566 23304 net.cpp:100] Creating Layer prelu1_0_1
I0203 12:09:29.332576 23304 net.cpp:434] prelu1_0_1 <- conv1_0_1
I0203 12:09:29.332589 23304 net.cpp:408] prelu1_0_1 -> prelu1_0_1
I0203 12:09:29.332764 23304 net.cpp:150] Setting up prelu1_0_1
I0203 12:09:29.332787 23304 net.cpp:157] Top shape: 16 16 30 30 (230400)
I0203 12:09:29.332797 23304 net.cpp:165] Memory required for data: 35020800
I0203 12:09:29.332819 23304 layer_factory.hpp:77] Creating layer conv1_0_2
I0203 12:09:29.332850 23304 net.cpp:100] Creating Layer conv1_0_2
I0203 12:09:29.332861 23304 net.cpp:434] conv1_0_2 <- prelu1_0_1
I0203 12:09:29.332875 23304 net.cpp:408] conv1_0_2 -> conv1_0_2
I0203 12:09:29.334741 23304 net.cpp:150] Setting up conv1_0_2
I0203 12:09:29.334771 23304 net.cpp:157] Top shape: 16 64 30 30 (921600)
I0203 12:09:29.334782 23304 net.cpp:165] Memory required for data: 38707200
I0203 12:09:29.334797 23304 layer_factory.hpp:77] Creating layer pool1_0_4
I0203 12:09:29.334808 23304 layer_factory.cpp:91] cuDNN does not support multiple tops. Using Caffe's own pooling layer.
I0203 12:09:29.334821 23304 net.cpp:100] Creating Layer pool1_0_4
I0203 12:09:29.334830 23304 net.cpp:434] pool1_0_4 <- prelu0_1_prelu0_1_0_split_1
I0203 12:09:29.334844 23304 net.cpp:408] pool1_0_4 -> pool1_0_4
I0203 12:09:29.334862 23304 net.cpp:408] pool1_0_4 -> pool1_0_4_mask
I0203 12:09:29.334934 23304 net.cpp:150] Setting up pool1_0_4
I0203 12:09:29.334954 23304 net.cpp:157] Top shape: 16 16 30 30 (230400)
I0203 12:09:29.334964 23304 net.cpp:157] Top shape: 16 16 30 30 (230400)
I0203 12:09:29.334974 23304 net.cpp:165] Memory required for data: 40550400
I0203 12:09:29.334982 23304 layer_factory.hpp:77] Creating layer conv1_0_4
I0203 12:09:29.335000 23304 net.cpp:100] Creating Layer conv1_0_4
I0203 12:09:29.335011 23304 net.cpp:434] conv1_0_4 <- pool1_0_4
I0203 12:09:29.335024 23304 net.cpp:408] conv1_0_4 -> conv1_0_4
I0203 12:09:29.336920 23304 net.cpp:150] Setting up conv1_0_4
I0203 12:09:29.336946 23304 net.cpp:157] Top shape: 16 64 30 30 (921600)
I0203 12:09:29.336956 23304 net.cpp:165] Memory required for data: 44236800
I0203 12:09:29.336971 23304 layer_factory.hpp:77] Creating layer eltwise1_0_4
I0203 12:09:29.336987 23304 net.cpp:100] Creating Layer eltwise1_0_4
I0203 12:09:29.336997 23304 net.cpp:434] eltwise1_0_4 <- conv1_0_4
I0203 12:09:29.337008 23304 net.cpp:434] eltwise1_0_4 <- conv1_0_2
I0203 12:09:29.337021 23304 net.cpp:408] eltwise1_0_4 -> eltwise1_0_4
I0203 12:09:29.337074 23304 net.cpp:150] Setting up eltwise1_0_4
I0203 12:09:29.337092 23304 net.cpp:157] Top shape: 16 64 30 30 (921600)
I0203 12:09:29.337101 23304 net.cpp:165] Memory required for data: 47923200
I0203 12:09:29.337110 23304 layer_factory.hpp:77] Creating layer prelu1_0_4
I0203 12:09:29.337127 23304 net.cpp:100] Creating Layer prelu1_0_4
I0203 12:09:29.337136 23304 net.cpp:434] prelu1_0_4 <- eltwise1_0_4
I0203 12:09:29.337149 23304 net.cpp:408] prelu1_0_4 -> prelu1_0_4
I0203 12:09:29.337338 23304 net.cpp:150] Setting up prelu1_0_4
I0203 12:09:29.337360 23304 net.cpp:157] Top shape: 16 64 30 30 (921600)
I0203 12:09:29.337370 23304 net.cpp:165] Memory required for data: 51609600
I0203 12:09:29.337383 23304 layer_factory.hpp:77] Creating layer prelu1_0_4_prelu1_0_4_0_split
I0203 12:09:29.337397 23304 net.cpp:100] Creating Layer prelu1_0_4_prelu1_0_4_0_split
I0203 12:09:29.337406 23304 net.cpp:434] prelu1_0_4_prelu1_0_4_0_split <- prelu1_0_4
I0203 12:09:29.337419 23304 net.cpp:408] prelu1_0_4_prelu1_0_4_0_split -> prelu1_0_4_prelu1_0_4_0_split_0
I0203 12:09:29.337435 23304 net.cpp:408] prelu1_0_4_prelu1_0_4_0_split -> prelu1_0_4_prelu1_0_4_0_split_1
I0203 12:09:29.337499 23304 net.cpp:150] Setting up prelu1_0_4_prelu1_0_4_0_split
I0203 12:09:29.337517 23304 net.cpp:157] Top shape: 16 64 30 30 (921600)
I0203 12:09:29.337527 23304 net.cpp:157] Top shape: 16 64 30 30 (921600)
I0203 12:09:29.337537 23304 net.cpp:165] Memory required for data: 58982400
I0203 12:09:29.337545 23304 layer_factory.hpp:77] Creating layer conv1_1_0
I0203 12:09:29.337563 23304 net.cpp:100] Creating Layer conv1_1_0
I0203 12:09:29.337574 23304 net.cpp:434] conv1_1_0 <- prelu1_0_4_prelu1_0_4_0_split_0
I0203 12:09:29.337589 23304 net.cpp:408] conv1_1_0 -> conv1_1_0
I0203 12:09:29.339474 23304 net.cpp:150] Setting up conv1_1_0
I0203 12:09:29.339500 23304 net.cpp:157] Top shape: 16 16 30 30 (230400)
I0203 12:09:29.339510 23304 net.cpp:165] Memory required for data: 59904000
I0203 12:09:29.339530 23304 layer_factory.hpp:77] Creating layer prelu1_1_0
I0203 12:09:29.339552 23304 net.cpp:100] Creating Layer prelu1_1_0
I0203 12:09:29.339573 23304 net.cpp:434] prelu1_1_0 <- conv1_1_0
I0203 12:09:29.339587 23304 net.cpp:408] prelu1_1_0 -> prelu1_1_0
I0203 12:09:29.339747 23304 net.cpp:150] Setting up prelu1_1_0
I0203 12:09:29.339768 23304 net.cpp:157] Top shape: 16 16 30 30 (230400)
I0203 12:09:29.339777 23304 net.cpp:165] Memory required for data: 60825600
I0203 12:09:29.339790 23304 layer_factory.hpp:77] Creating layer conv1_1_1
I0203 12:09:29.339808 23304 net.cpp:100] Creating Layer conv1_1_1
I0203 12:09:29.339818 23304 net.cpp:434] conv1_1_1 <- prelu1_1_0
I0203 12:09:29.339833 23304 net.cpp:408] conv1_1_1 -> conv1_1_1
I0203 12:09:29.341823 23304 net.cpp:150] Setting up conv1_1_1
I0203 12:09:29.341851 23304 net.cpp:157] Top shape: 16 16 30 30 (230400)
I0203 12:09:29.341861 23304 net.cpp:165] Memory required for data: 61747200
I0203 12:09:29.341876 23304 layer_factory.hpp:77] Creating layer prelu1_1_1
I0203 12:09:29.341891 23304 net.cpp:100] Creating Layer prelu1_1_1
I0203 12:09:29.341900 23304 net.cpp:434] prelu1_1_1 <- conv1_1_1
I0203 12:09:29.341913 23304 net.cpp:408] prelu1_1_1 -> prelu1_1_1
I0203 12:09:29.342072 23304 net.cpp:150] Setting up prelu1_1_1
I0203 12:09:29.342093 23304 net.cpp:157] Top shape: 16 16 30 30 (230400)
I0203 12:09:29.342103 23304 net.cpp:165] Memory required for data: 62668800
I0203 12:09:29.342115 23304 layer_factory.hpp:77] Creating layer conv1_1_2
I0203 12:09:29.342133 23304 net.cpp:100] Creating Layer conv1_1_2
I0203 12:09:29.342144 23304 net.cpp:434] conv1_1_2 <- prelu1_1_1
I0203 12:09:29.342157 23304 net.cpp:408] conv1_1_2 -> conv1_1_2
I0203 12:09:29.344028 23304 net.cpp:150] Setting up conv1_1_2
I0203 12:09:29.344054 23304 net.cpp:157] Top shape: 16 64 30 30 (921600)
I0203 12:09:29.344064 23304 net.cpp:165] Memory required for data: 66355200
I0203 12:09:29.344079 23304 layer_factory.hpp:77] Creating layer eltwise1_1_4
I0203 12:09:29.344094 23304 net.cpp:100] Creating Layer eltwise1_1_4
I0203 12:09:29.344103 23304 net.cpp:434] eltwise1_1_4 <- prelu1_0_4_prelu1_0_4_0_split_1
I0203 12:09:29.344115 23304 net.cpp:434] eltwise1_1_4 <- conv1_1_2
I0203 12:09:29.344128 23304 net.cpp:408] eltwise1_1_4 -> eltwise1_1_4
I0203 12:09:29.344175 23304 net.cpp:150] Setting up eltwise1_1_4
I0203 12:09:29.344192 23304 net.cpp:157] Top shape: 16 64 30 30 (921600)
I0203 12:09:29.344202 23304 net.cpp:165] Memory required for data: 70041600
I0203 12:09:29.344211 23304 layer_factory.hpp:77] Creating layer prelu1_1_4
I0203 12:09:29.344223 23304 net.cpp:100] Creating Layer prelu1_1_4
I0203 12:09:29.344233 23304 net.cpp:434] prelu1_1_4 <- eltwise1_1_4
I0203 12:09:29.344246 23304 net.cpp:408] prelu1_1_4 -> prelu1_1_4
I0203 12:09:29.344442 23304 net.cpp:150] Setting up prelu1_1_4
I0203 12:09:29.344465 23304 net.cpp:157] Top shape: 16 64 30 30 (921600)
I0203 12:09:29.344475 23304 net.cpp:165] Memory required for data: 73728000
I0203 12:09:29.344486 23304 layer_factory.hpp:77] Creating layer prelu1_1_4_prelu1_1_4_0_split
I0203 12:09:29.344501 23304 net.cpp:100] Creating Layer prelu1_1_4_prelu1_1_4_0_split
I0203 12:09:29.344511 23304 net.cpp:434] prelu1_1_4_prelu1_1_4_0_split <- prelu1_1_4
I0203 12:09:29.344522 23304 net.cpp:408] prelu1_1_4_prelu1_1_4_0_split -> prelu1_1_4_prelu1_1_4_0_split_0
I0203 12:09:29.344537 23304 net.cpp:408] prelu1_1_4_prelu1_1_4_0_split -> prelu1_1_4_prelu1_1_4_0_split_1
I0203 12:09:29.344604 23304 net.cpp:150] Setting up prelu1_1_4_prelu1_1_4_0_split
I0203 12:09:29.344620 23304 net.cpp:157] Top shape: 16 64 30 30 (921600)
I0203 12:09:29.344645 23304 net.cpp:157] Top shape: 16 64 30 30 (921600)
I0203 12:09:29.344655 23304 net.cpp:165] Memory required for data: 81100800
I0203 12:09:29.344666 23304 layer_factory.hpp:77] Creating layer conv1_2_0
I0203 12:09:29.344683 23304 net.cpp:100] Creating Layer conv1_2_0
I0203 12:09:29.344693 23304 net.cpp:434] conv1_2_0 <- prelu1_1_4_prelu1_1_4_0_split_0
I0203 12:09:29.344708 23304 net.cpp:408] conv1_2_0 -> conv1_2_0
I0203 12:09:29.346628 23304 net.cpp:150] Setting up conv1_2_0
I0203 12:09:29.346668 23304 net.cpp:157] Top shape: 16 16 30 30 (230400)
I0203 12:09:29.346689 23304 net.cpp:165] Memory required for data: 82022400
I0203 12:09:29.346705 23304 layer_factory.hpp:77] Creating layer prelu1_2_0
I0203 12:09:29.346719 23304 net.cpp:100] Creating Layer prelu1_2_0
I0203 12:09:29.346730 23304 net.cpp:434] prelu1_2_0 <- conv1_2_0
I0203 12:09:29.346743 23304 net.cpp:408] prelu1_2_0 -> prelu1_2_0
I0203 12:09:29.346909 23304 net.cpp:150] Setting up prelu1_2_0
I0203 12:09:29.346930 23304 net.cpp:157] Top shape: 16 16 30 30 (230400)
I0203 12:09:29.346938 23304 net.cpp:165] Memory required for data: 82944000
I0203 12:09:29.346951 23304 layer_factory.hpp:77] Creating layer conv1_2_1
I0203 12:09:29.346969 23304 net.cpp:100] Creating Layer conv1_2_1
I0203 12:09:29.346981 23304 net.cpp:434] conv1_2_1 <- prelu1_2_0
I0203 12:09:29.346994 23304 net.cpp:408] conv1_2_1 -> conv1_2_1
I0203 12:09:29.349010 23304 net.cpp:150] Setting up conv1_2_1
I0203 12:09:29.349037 23304 net.cpp:157] Top shape: 16 16 30 30 (230400)
I0203 12:09:29.349047 23304 net.cpp:165] Memory required for data: 83865600
I0203 12:09:29.349062 23304 layer_factory.hpp:77] Creating layer prelu1_2_1
I0203 12:09:29.349076 23304 net.cpp:100] Creating Layer prelu1_2_1
I0203 12:09:29.349086 23304 net.cpp:434] prelu1_2_1 <- conv1_2_1
I0203 12:09:29.349099 23304 net.cpp:408] prelu1_2_1 -> prelu1_2_1
I0203 12:09:29.349270 23304 net.cpp:150] Setting up prelu1_2_1
I0203 12:09:29.349292 23304 net.cpp:157] Top shape: 16 16 30 30 (230400)
I0203 12:09:29.349300 23304 net.cpp:165] Memory required for data: 84787200
I0203 12:09:29.349313 23304 layer_factory.hpp:77] Creating layer conv1_2_2
I0203 12:09:29.349333 23304 net.cpp:100] Creating Layer conv1_2_2
I0203 12:09:29.349342 23304 net.cpp:434] conv1_2_2 <- prelu1_2_1
I0203 12:09:29.349356 23304 net.cpp:408] conv1_2_2 -> conv1_2_2
I0203 12:09:29.351236 23304 net.cpp:150] Setting up conv1_2_2
I0203 12:09:29.351261 23304 net.cpp:157] Top shape: 16 64 30 30 (921600)
I0203 12:09:29.351272 23304 net.cpp:165] Memory required for data: 88473600
I0203 12:09:29.351294 23304 layer_factory.hpp:77] Creating layer eltwise1_2_4
I0203 12:09:29.351310 23304 net.cpp:100] Creating Layer eltwise1_2_4
I0203 12:09:29.351320 23304 net.cpp:434] eltwise1_2_4 <- prelu1_1_4_prelu1_1_4_0_split_1
I0203 12:09:29.351330 23304 net.cpp:434] eltwise1_2_4 <- conv1_2_2
I0203 12:09:29.351343 23304 net.cpp:408] eltwise1_2_4 -> eltwise1_2_4
I0203 12:09:29.351393 23304 net.cpp:150] Setting up eltwise1_2_4
I0203 12:09:29.351411 23304 net.cpp:157] Top shape: 16 64 30 30 (921600)
I0203 12:09:29.351420 23304 net.cpp:165] Memory required for data: 92160000
I0203 12:09:29.351429 23304 layer_factory.hpp:77] Creating layer prelu1_2_4
I0203 12:09:29.351446 23304 net.cpp:100] Creating Layer prelu1_2_4
I0203 12:09:29.351456 23304 net.cpp:434] prelu1_2_4 <- eltwise1_2_4
I0203 12:09:29.351469 23304 net.cpp:408] prelu1_2_4 -> prelu1_2_4
I0203 12:09:29.351671 23304 net.cpp:150] Setting up prelu1_2_4
I0203 12:09:29.351694 23304 net.cpp:157] Top shape: 16 64 30 30 (921600)
I0203 12:09:29.351703 23304 net.cpp:165] Memory required for data: 95846400
I0203 12:09:29.351716 23304 layer_factory.hpp:77] Creating layer prelu1_2_4_prelu1_2_4_0_split
I0203 12:09:29.351730 23304 net.cpp:100] Creating Layer prelu1_2_4_prelu1_2_4_0_split
I0203 12:09:29.351739 23304 net.cpp:434] prelu1_2_4_prelu1_2_4_0_split <- prelu1_2_4
I0203 12:09:29.351752 23304 net.cpp:408] prelu1_2_4_prelu1_2_4_0_split -> prelu1_2_4_prelu1_2_4_0_split_0
I0203 12:09:29.351768 23304 net.cpp:408] prelu1_2_4_prelu1_2_4_0_split -> prelu1_2_4_prelu1_2_4_0_split_1
I0203 12:09:29.351835 23304 net.cpp:150] Setting up prelu1_2_4_prelu1_2_4_0_split
I0203 12:09:29.351851 23304 net.cpp:157] Top shape: 16 64 30 30 (921600)
I0203 12:09:29.351862 23304 net.cpp:157] Top shape: 16 64 30 30 (921600)
I0203 12:09:29.351871 23304 net.cpp:165] Memory required for data: 103219200
I0203 12:09:29.351881 23304 layer_factory.hpp:77] Creating layer conv1_3_0
I0203 12:09:29.351898 23304 net.cpp:100] Creating Layer conv1_3_0
I0203 12:09:29.351915 23304 net.cpp:434] conv1_3_0 <- prelu1_2_4_prelu1_2_4_0_split_0
I0203 12:09:29.351941 23304 net.cpp:408] conv1_3_0 -> conv1_3_0
I0203 12:09:29.353902 23304 net.cpp:150] Setting up conv1_3_0
I0203 12:09:29.353930 23304 net.cpp:157] Top shape: 16 16 30 30 (230400)
I0203 12:09:29.353940 23304 net.cpp:165] Memory required for data: 104140800
I0203 12:09:29.353955 23304 layer_factory.hpp:77] Creating layer prelu1_3_0
I0203 12:09:29.353968 23304 net.cpp:100] Creating Layer prelu1_3_0
I0203 12:09:29.353978 23304 net.cpp:434] prelu1_3_0 <- conv1_3_0
I0203 12:09:29.353991 23304 net.cpp:408] prelu1_3_0 -> prelu1_3_0
I0203 12:09:29.354161 23304 net.cpp:150] Setting up prelu1_3_0
I0203 12:09:29.354182 23304 net.cpp:157] Top shape: 16 16 30 30 (230400)
I0203 12:09:29.354190 23304 net.cpp:165] Memory required for data: 105062400
I0203 12:09:29.354202 23304 layer_factory.hpp:77] Creating layer conv1_3_1
I0203 12:09:29.354220 23304 net.cpp:100] Creating Layer conv1_3_1
I0203 12:09:29.354230 23304 net.cpp:434] conv1_3_1 <- prelu1_3_0
I0203 12:09:29.354244 23304 net.cpp:408] conv1_3_1 -> conv1_3_1
I0203 12:09:29.355559 23304 net.cpp:150] Setting up conv1_3_1
I0203 12:09:29.355584 23304 net.cpp:157] Top shape: 16 16 30 30 (230400)
I0203 12:09:29.355594 23304 net.cpp:165] Memory required for data: 105984000
I0203 12:09:29.355608 23304 layer_factory.hpp:77] Creating layer prelu1_3_1
I0203 12:09:29.355623 23304 net.cpp:100] Creating Layer prelu1_3_1
I0203 12:09:29.355633 23304 net.cpp:434] prelu1_3_1 <- conv1_3_1
I0203 12:09:29.355645 23304 net.cpp:408] prelu1_3_1 -> prelu1_3_1
I0203 12:09:29.355818 23304 net.cpp:150] Setting up prelu1_3_1
I0203 12:09:29.355837 23304 net.cpp:157] Top shape: 16 16 30 30 (230400)
I0203 12:09:29.355846 23304 net.cpp:165] Memory required for data: 106905600
I0203 12:09:29.355859 23304 layer_factory.hpp:77] Creating layer conv1_3_2
I0203 12:09:29.355878 23304 net.cpp:100] Creating Layer conv1_3_2
I0203 12:09:29.355888 23304 net.cpp:434] conv1_3_2 <- prelu1_3_1
I0203 12:09:29.355902 23304 net.cpp:408] conv1_3_2 -> conv1_3_2
I0203 12:09:29.357794 23304 net.cpp:150] Setting up conv1_3_2
I0203 12:09:29.357825 23304 net.cpp:157] Top shape: 16 64 30 30 (921600)
I0203 12:09:29.357836 23304 net.cpp:165] Memory required for data: 110592000
I0203 12:09:29.357851 23304 layer_factory.hpp:77] Creating layer eltwise1_3_4
I0203 12:09:29.357864 23304 net.cpp:100] Creating Layer eltwise1_3_4
I0203 12:09:29.357875 23304 net.cpp:434] eltwise1_3_4 <- prelu1_2_4_prelu1_2_4_0_split_1
I0203 12:09:29.357887 23304 net.cpp:434] eltwise1_3_4 <- conv1_3_2
I0203 12:09:29.357899 23304 net.cpp:408] eltwise1_3_4 -> eltwise1_3_4
I0203 12:09:29.357949 23304 net.cpp:150] Setting up eltwise1_3_4
I0203 12:09:29.357967 23304 net.cpp:157] Top shape: 16 64 30 30 (921600)
I0203 12:09:29.357976 23304 net.cpp:165] Memory required for data: 114278400
I0203 12:09:29.357985 23304 layer_factory.hpp:77] Creating layer prelu1_3_4
I0203 12:09:29.357998 23304 net.cpp:100] Creating Layer prelu1_3_4
I0203 12:09:29.358008 23304 net.cpp:434] prelu1_3_4 <- eltwise1_3_4
I0203 12:09:29.358021 23304 net.cpp:408] prelu1_3_4 -> prelu1_3_4
I0203 12:09:29.358219 23304 net.cpp:150] Setting up prelu1_3_4
I0203 12:09:29.358242 23304 net.cpp:157] Top shape: 16 64 30 30 (921600)
I0203 12:09:29.358252 23304 net.cpp:165] Memory required for data: 117964800
I0203 12:09:29.358263 23304 layer_factory.hpp:77] Creating layer prelu1_3_4_prelu1_3_4_0_split
I0203 12:09:29.358278 23304 net.cpp:100] Creating Layer prelu1_3_4_prelu1_3_4_0_split
I0203 12:09:29.358288 23304 net.cpp:434] prelu1_3_4_prelu1_3_4_0_split <- prelu1_3_4
I0203 12:09:29.358300 23304 net.cpp:408] prelu1_3_4_prelu1_3_4_0_split -> prelu1_3_4_prelu1_3_4_0_split_0
I0203 12:09:29.358315 23304 net.cpp:408] prelu1_3_4_prelu1_3_4_0_split -> prelu1_3_4_prelu1_3_4_0_split_1
I0203 12:09:29.358382 23304 net.cpp:150] Setting up prelu1_3_4_prelu1_3_4_0_split
I0203 12:09:29.358399 23304 net.cpp:157] Top shape: 16 64 30 30 (921600)
I0203 12:09:29.358410 23304 net.cpp:157] Top shape: 16 64 30 30 (921600)
I0203 12:09:29.358418 23304 net.cpp:165] Memory required for data: 125337600
I0203 12:09:29.358444 23304 layer_factory.hpp:77] Creating layer conv1_4_0
I0203 12:09:29.358464 23304 net.cpp:100] Creating Layer conv1_4_0
I0203 12:09:29.358474 23304 net.cpp:434] conv1_4_0 <- prelu1_3_4_prelu1_3_4_0_split_0
I0203 12:09:29.358489 23304 net.cpp:408] conv1_4_0 -> conv1_4_0
I0203 12:09:29.360388 23304 net.cpp:150] Setting up conv1_4_0
I0203 12:09:29.360414 23304 net.cpp:157] Top shape: 16 16 30 30 (230400)
I0203 12:09:29.360424 23304 net.cpp:165] Memory required for data: 126259200
I0203 12:09:29.360440 23304 layer_factory.hpp:77] Creating layer prelu1_4_0
I0203 12:09:29.360453 23304 net.cpp:100] Creating Layer prelu1_4_0
I0203 12:09:29.360463 23304 net.cpp:434] prelu1_4_0 <- conv1_4_0
I0203 12:09:29.360476 23304 net.cpp:408] prelu1_4_0 -> prelu1_4_0
I0203 12:09:29.360658 23304 net.cpp:150] Setting up prelu1_4_0
I0203 12:09:29.360682 23304 net.cpp:157] Top shape: 16 16 30 30 (230400)
I0203 12:09:29.360690 23304 net.cpp:165] Memory required for data: 127180800
I0203 12:09:29.360703 23304 layer_factory.hpp:77] Creating layer conv1_4_1
I0203 12:09:29.360721 23304 net.cpp:100] Creating Layer conv1_4_1
I0203 12:09:29.360731 23304 net.cpp:434] conv1_4_1 <- prelu1_4_0
I0203 12:09:29.360746 23304 net.cpp:408] conv1_4_1 -> conv1_4_1
I0203 12:09:29.362675 23304 net.cpp:150] Setting up conv1_4_1
I0203 12:09:29.362701 23304 net.cpp:157] Top shape: 16 16 30 30 (230400)
I0203 12:09:29.362711 23304 net.cpp:165] Memory required for data: 128102400
I0203 12:09:29.362726 23304 layer_factory.hpp:77] Creating layer prelu1_4_1
I0203 12:09:29.362740 23304 net.cpp:100] Creating Layer prelu1_4_1
I0203 12:09:29.362751 23304 net.cpp:434] prelu1_4_1 <- conv1_4_1
I0203 12:09:29.362763 23304 net.cpp:408] prelu1_4_1 -> prelu1_4_1
I0203 12:09:29.362937 23304 net.cpp:150] Setting up prelu1_4_1
I0203 12:09:29.362958 23304 net.cpp:157] Top shape: 16 16 30 30 (230400)
I0203 12:09:29.362967 23304 net.cpp:165] Memory required for data: 129024000
I0203 12:09:29.362980 23304 layer_factory.hpp:77] Creating layer conv1_4_2
I0203 12:09:29.362999 23304 net.cpp:100] Creating Layer conv1_4_2
I0203 12:09:29.363009 23304 net.cpp:434] conv1_4_2 <- prelu1_4_1
I0203 12:09:29.363023 23304 net.cpp:408] conv1_4_2 -> conv1_4_2
I0203 12:09:29.364960 23304 net.cpp:150] Setting up conv1_4_2
I0203 12:09:29.364989 23304 net.cpp:157] Top shape: 16 64 30 30 (921600)
I0203 12:09:29.364998 23304 net.cpp:165] Memory required for data: 132710400
I0203 12:09:29.365013 23304 layer_factory.hpp:77] Creating layer eltwise1_4_4
I0203 12:09:29.365027 23304 net.cpp:100] Creating Layer eltwise1_4_4
I0203 12:09:29.365038 23304 net.cpp:434] eltwise1_4_4 <- prelu1_3_4_prelu1_3_4_0_split_1
I0203 12:09:29.365051 23304 net.cpp:434] eltwise1_4_4 <- conv1_4_2
I0203 12:09:29.365062 23304 net.cpp:408] eltwise1_4_4 -> eltwise1_4_4
I0203 12:09:29.365113 23304 net.cpp:150] Setting up eltwise1_4_4
I0203 12:09:29.365129 23304 net.cpp:157] Top shape: 16 64 30 30 (921600)
I0203 12:09:29.365139 23304 net.cpp:165] Memory required for data: 136396800
I0203 12:09:29.365149 23304 layer_factory.hpp:77] Creating layer prelu1_4_4
I0203 12:09:29.365161 23304 net.cpp:100] Creating Layer prelu1_4_4
I0203 12:09:29.365171 23304 net.cpp:434] prelu1_4_4 <- eltwise1_4_4
I0203 12:09:29.365185 23304 net.cpp:408] prelu1_4_4 -> prelu1_4_4
I0203 12:09:29.365383 23304 net.cpp:150] Setting up prelu1_4_4
I0203 12:09:29.365406 23304 net.cpp:157] Top shape: 16 64 30 30 (921600)
I0203 12:09:29.365416 23304 net.cpp:165] Memory required for data: 140083200
I0203 12:09:29.365427 23304 layer_factory.hpp:77] Creating layer prelu1_4_4_prelu1_4_4_0_split
I0203 12:09:29.365440 23304 net.cpp:100] Creating Layer prelu1_4_4_prelu1_4_4_0_split
I0203 12:09:29.365450 23304 net.cpp:434] prelu1_4_4_prelu1_4_4_0_split <- prelu1_4_4
I0203 12:09:29.365463 23304 net.cpp:408] prelu1_4_4_prelu1_4_4_0_split -> prelu1_4_4_prelu1_4_4_0_split_0
I0203 12:09:29.365478 23304 net.cpp:408] prelu1_4_4_prelu1_4_4_0_split -> prelu1_4_4_prelu1_4_4_0_split_1
I0203 12:09:29.365543 23304 net.cpp:150] Setting up prelu1_4_4_prelu1_4_4_0_split
I0203 12:09:29.365568 23304 net.cpp:157] Top shape: 16 64 30 30 (921600)
I0203 12:09:29.365589 23304 net.cpp:157] Top shape: 16 64 30 30 (921600)
I0203 12:09:29.365598 23304 net.cpp:165] Memory required for data: 147456000
I0203 12:09:29.365608 23304 layer_factory.hpp:77] Creating layer conv2_0_0
I0203 12:09:29.365627 23304 net.cpp:100] Creating Layer conv2_0_0
I0203 12:09:29.365636 23304 net.cpp:434] conv2_0_0 <- prelu1_4_4_prelu1_4_4_0_split_0
I0203 12:09:29.365651 23304 net.cpp:408] conv2_0_0 -> conv2_0_0
I0203 12:09:29.368564 23304 net.cpp:150] Setting up conv2_0_0
I0203 12:09:29.368594 23304 net.cpp:157] Top shape: 16 32 15 15 (115200)
I0203 12:09:29.368605 23304 net.cpp:165] Memory required for data: 147916800
I0203 12:09:29.368620 23304 layer_factory.hpp:77] Creating layer prelu2_0_0
I0203 12:09:29.368645 23304 net.cpp:100] Creating Layer prelu2_0_0
I0203 12:09:29.368659 23304 net.cpp:434] prelu2_0_0 <- conv2_0_0
I0203 12:09:29.368674 23304 net.cpp:408] prelu2_0_0 -> prelu2_0_0
I0203 12:09:29.368835 23304 net.cpp:150] Setting up prelu2_0_0
I0203 12:09:29.368855 23304 net.cpp:157] Top shape: 16 32 15 15 (115200)
I0203 12:09:29.368865 23304 net.cpp:165] Memory required for data: 148377600
I0203 12:09:29.368877 23304 layer_factory.hpp:77] Creating layer conv2_0_1
I0203 12:09:29.368896 23304 net.cpp:100] Creating Layer conv2_0_1
I0203 12:09:29.368906 23304 net.cpp:434] conv2_0_1 <- prelu2_0_0
I0203 12:09:29.368921 23304 net.cpp:408] conv2_0_1 -> conv2_0_1
I0203 12:09:29.371246 23304 net.cpp:150] Setting up conv2_0_1
I0203 12:09:29.371273 23304 net.cpp:157] Top shape: 16 32 15 15 (115200)
I0203 12:09:29.371282 23304 net.cpp:165] Memory required for data: 148838400
I0203 12:09:29.371297 23304 layer_factory.hpp:77] Creating layer prelu2_0_1
I0203 12:09:29.371311 23304 net.cpp:100] Creating Layer prelu2_0_1
I0203 12:09:29.371321 23304 net.cpp:434] prelu2_0_1 <- conv2_0_1
I0203 12:09:29.371335 23304 net.cpp:408] prelu2_0_1 -> prelu2_0_1
I0203 12:09:29.371491 23304 net.cpp:150] Setting up prelu2_0_1
I0203 12:09:29.371511 23304 net.cpp:157] Top shape: 16 32 15 15 (115200)
I0203 12:09:29.371520 23304 net.cpp:165] Memory required for data: 149299200
I0203 12:09:29.371533 23304 layer_factory.hpp:77] Creating layer conv2_0_2
I0203 12:09:29.371552 23304 net.cpp:100] Creating Layer conv2_0_2
I0203 12:09:29.371562 23304 net.cpp:434] conv2_0_2 <- prelu2_0_1
I0203 12:09:29.371577 23304 net.cpp:408] conv2_0_2 -> conv2_0_2
I0203 12:09:29.373627 23304 net.cpp:150] Setting up conv2_0_2
I0203 12:09:29.373654 23304 net.cpp:157] Top shape: 16 128 15 15 (460800)
I0203 12:09:29.373664 23304 net.cpp:165] Memory required for data: 151142400
I0203 12:09:29.373679 23304 layer_factory.hpp:77] Creating layer pool2_0_4
I0203 12:09:29.373689 23304 layer_factory.cpp:91] cuDNN does not support multiple tops. Using Caffe's own pooling layer.
I0203 12:09:29.373703 23304 net.cpp:100] Creating Layer pool2_0_4
I0203 12:09:29.373713 23304 net.cpp:434] pool2_0_4 <- prelu1_4_4_prelu1_4_4_0_split_1
I0203 12:09:29.373728 23304 net.cpp:408] pool2_0_4 -> pool2_0_4
I0203 12:09:29.373751 23304 net.cpp:408] pool2_0_4 -> pool2_0_4_mask
I0203 12:09:29.373827 23304 net.cpp:150] Setting up pool2_0_4
I0203 12:09:29.373848 23304 net.cpp:157] Top shape: 16 64 15 15 (230400)
I0203 12:09:29.373859 23304 net.cpp:157] Top shape: 16 64 15 15 (230400)
I0203 12:09:29.373867 23304 net.cpp:165] Memory required for data: 152985600
I0203 12:09:29.373878 23304 layer_factory.hpp:77] Creating layer conv2_0_4
I0203 12:09:29.373895 23304 net.cpp:100] Creating Layer conv2_0_4
I0203 12:09:29.373906 23304 net.cpp:434] conv2_0_4 <- pool2_0_4
I0203 12:09:29.373920 23304 net.cpp:408] conv2_0_4 -> conv2_0_4
I0203 12:09:29.376132 23304 net.cpp:150] Setting up conv2_0_4
I0203 12:09:29.376157 23304 net.cpp:157] Top shape: 16 128 15 15 (460800)
I0203 12:09:29.376168 23304 net.cpp:165] Memory required for data: 154828800
I0203 12:09:29.376183 23304 layer_factory.hpp:77] Creating layer eltwise2_0_4
I0203 12:09:29.376196 23304 net.cpp:100] Creating Layer eltwise2_0_4
I0203 12:09:29.376214 23304 net.cpp:434] eltwise2_0_4 <- conv2_0_4
I0203 12:09:29.376238 23304 net.cpp:434] eltwise2_0_4 <- conv2_0_2
I0203 12:09:29.376252 23304 net.cpp:408] eltwise2_0_4 -> eltwise2_0_4
I0203 12:09:29.376303 23304 net.cpp:150] Setting up eltwise2_0_4
I0203 12:09:29.376322 23304 net.cpp:157] Top shape: 16 128 15 15 (460800)
I0203 12:09:29.376330 23304 net.cpp:165] Memory required for data: 156672000
I0203 12:09:29.376339 23304 layer_factory.hpp:77] Creating layer prelu2_0_4
I0203 12:09:29.376353 23304 net.cpp:100] Creating Layer prelu2_0_4
I0203 12:09:29.376363 23304 net.cpp:434] prelu2_0_4 <- eltwise2_0_4
I0203 12:09:29.376375 23304 net.cpp:408] prelu2_0_4 -> prelu2_0_4
I0203 12:09:29.376543 23304 net.cpp:150] Setting up prelu2_0_4
I0203 12:09:29.376565 23304 net.cpp:157] Top shape: 16 128 15 15 (460800)
I0203 12:09:29.376574 23304 net.cpp:165] Memory required for data: 158515200
I0203 12:09:29.376587 23304 layer_factory.hpp:77] Creating layer prelu2_0_4_prelu2_0_4_0_split
I0203 12:09:29.376600 23304 net.cpp:100] Creating Layer prelu2_0_4_prelu2_0_4_0_split
I0203 12:09:29.376610 23304 net.cpp:434] prelu2_0_4_prelu2_0_4_0_split <- prelu2_0_4
I0203 12:09:29.376623 23304 net.cpp:408] prelu2_0_4_prelu2_0_4_0_split -> prelu2_0_4_prelu2_0_4_0_split_0
I0203 12:09:29.376662 23304 net.cpp:408] prelu2_0_4_prelu2_0_4_0_split -> prelu2_0_4_prelu2_0_4_0_split_1
I0203 12:09:29.376734 23304 net.cpp:150] Setting up prelu2_0_4_prelu2_0_4_0_split
I0203 12:09:29.376752 23304 net.cpp:157] Top shape: 16 128 15 15 (460800)
I0203 12:09:29.376763 23304 net.cpp:157] Top shape: 16 128 15 15 (460800)
I0203 12:09:29.376772 23304 net.cpp:165] Memory required for data: 162201600
I0203 12:09:29.376781 23304 layer_factory.hpp:77] Creating layer conv2_1_0
I0203 12:09:29.376799 23304 net.cpp:100] Creating Layer conv2_1_0
I0203 12:09:29.376809 23304 net.cpp:434] conv2_1_0 <- prelu2_0_4_prelu2_0_4_0_split_0
I0203 12:09:29.376824 23304 net.cpp:408] conv2_1_0 -> conv2_1_0
I0203 12:09:29.378922 23304 net.cpp:150] Setting up conv2_1_0
I0203 12:09:29.378952 23304 net.cpp:157] Top shape: 16 32 15 15 (115200)
I0203 12:09:29.378963 23304 net.cpp:165] Memory required for data: 162662400
I0203 12:09:29.378991 23304 layer_factory.hpp:77] Creating layer prelu2_1_0
I0203 12:09:29.379006 23304 net.cpp:100] Creating Layer prelu2_1_0
I0203 12:09:29.379017 23304 net.cpp:434] prelu2_1_0 <- conv2_1_0
I0203 12:09:29.379030 23304 net.cpp:408] prelu2_1_0 -> prelu2_1_0
I0203 12:09:29.379190 23304 net.cpp:150] Setting up prelu2_1_0
I0203 12:09:29.379211 23304 net.cpp:157] Top shape: 16 32 15 15 (115200)
I0203 12:09:29.379220 23304 net.cpp:165] Memory required for data: 163123200
I0203 12:09:29.379232 23304 layer_factory.hpp:77] Creating layer conv2_1_1
I0203 12:09:29.379251 23304 net.cpp:100] Creating Layer conv2_1_1
I0203 12:09:29.379261 23304 net.cpp:434] conv2_1_1 <- prelu2_1_0
I0203 12:09:29.379276 23304 net.cpp:408] conv2_1_1 -> conv2_1_1
I0203 12:09:29.380949 23304 net.cpp:150] Setting up conv2_1_1
I0203 12:09:29.380975 23304 net.cpp:157] Top shape: 16 32 15 15 (115200)
I0203 12:09:29.380985 23304 net.cpp:165] Memory required for data: 163584000
I0203 12:09:29.380998 23304 layer_factory.hpp:77] Creating layer prelu2_1_1
I0203 12:09:29.381012 23304 net.cpp:100] Creating Layer prelu2_1_1
I0203 12:09:29.381022 23304 net.cpp:434] prelu2_1_1 <- conv2_1_1
I0203 12:09:29.381036 23304 net.cpp:408] prelu2_1_1 -> prelu2_1_1
I0203 12:09:29.381196 23304 net.cpp:150] Setting up prelu2_1_1
I0203 12:09:29.381217 23304 net.cpp:157] Top shape: 16 32 15 15 (115200)
I0203 12:09:29.381227 23304 net.cpp:165] Memory required for data: 164044800
I0203 12:09:29.381238 23304 layer_factory.hpp:77] Creating layer conv2_1_2
I0203 12:09:29.381264 23304 net.cpp:100] Creating Layer conv2_1_2
I0203 12:09:29.381275 23304 net.cpp:434] conv2_1_2 <- prelu2_1_1
I0203 12:09:29.381290 23304 net.cpp:408] conv2_1_2 -> conv2_1_2
I0203 12:09:29.383333 23304 net.cpp:150] Setting up conv2_1_2
I0203 12:09:29.383359 23304 net.cpp:157] Top shape: 16 128 15 15 (460800)
I0203 12:09:29.383370 23304 net.cpp:165] Memory required for data: 165888000
I0203 12:09:29.383393 23304 layer_factory.hpp:77] Creating layer eltwise2_1_4
I0203 12:09:29.383417 23304 net.cpp:100] Creating Layer eltwise2_1_4
I0203 12:09:29.383429 23304 net.cpp:434] eltwise2_1_4 <- prelu2_0_4_prelu2_0_4_0_split_1
I0203 12:09:29.383440 23304 net.cpp:434] eltwise2_1_4 <- conv2_1_2
I0203 12:09:29.383453 23304 net.cpp:408] eltwise2_1_4 -> eltwise2_1_4
I0203 12:09:29.383505 23304 net.cpp:150] Setting up eltwise2_1_4
I0203 12:09:29.383523 23304 net.cpp:157] Top shape: 16 128 15 15 (460800)
I0203 12:09:29.383533 23304 net.cpp:165] Memory required for data: 167731200
I0203 12:09:29.383543 23304 layer_factory.hpp:77] Creating layer prelu2_1_4
I0203 12:09:29.383555 23304 net.cpp:100] Creating Layer prelu2_1_4
I0203 12:09:29.383564 23304 net.cpp:434] prelu2_1_4 <- eltwise2_1_4
I0203 12:09:29.383579 23304 net.cpp:408] prelu2_1_4 -> prelu2_1_4
I0203 12:09:29.383751 23304 net.cpp:150] Setting up prelu2_1_4
I0203 12:09:29.383774 23304 net.cpp:157] Top shape: 16 128 15 15 (460800)
I0203 12:09:29.383783 23304 net.cpp:165] Memory required for data: 169574400
I0203 12:09:29.383795 23304 layer_factory.hpp:77] Creating layer prelu2_1_4_prelu2_1_4_0_split
I0203 12:09:29.383808 23304 net.cpp:100] Creating Layer prelu2_1_4_prelu2_1_4_0_split
I0203 12:09:29.383818 23304 net.cpp:434] prelu2_1_4_prelu2_1_4_0_split <- prelu2_1_4
I0203 12:09:29.383831 23304 net.cpp:408] prelu2_1_4_prelu2_1_4_0_split -> prelu2_1_4_prelu2_1_4_0_split_0
I0203 12:09:29.383846 23304 net.cpp:408] prelu2_1_4_prelu2_1_4_0_split -> prelu2_1_4_prelu2_1_4_0_split_1
I0203 12:09:29.383914 23304 net.cpp:150] Setting up prelu2_1_4_prelu2_1_4_0_split
I0203 12:09:29.383931 23304 net.cpp:157] Top shape: 16 128 15 15 (460800)
I0203 12:09:29.383942 23304 net.cpp:157] Top shape: 16 128 15 15 (460800)
I0203 12:09:29.383950 23304 net.cpp:165] Memory required for data: 173260800
I0203 12:09:29.383960 23304 layer_factory.hpp:77] Creating layer conv2_2_0
I0203 12:09:29.383977 23304 net.cpp:100] Creating Layer conv2_2_0
I0203 12:09:29.383988 23304 net.cpp:434] conv2_2_0 <- prelu2_1_4_prelu2_1_4_0_split_0
I0203 12:09:29.384002 23304 net.cpp:408] conv2_2_0 -> conv2_2_0
I0203 12:09:29.386040 23304 net.cpp:150] Setting up conv2_2_0
I0203 12:09:29.386067 23304 net.cpp:157] Top shape: 16 32 15 15 (115200)
I0203 12:09:29.386077 23304 net.cpp:165] Memory required for data: 173721600
I0203 12:09:29.386091 23304 layer_factory.hpp:77] Creating layer prelu2_2_0
I0203 12:09:29.386106 23304 net.cpp:100] Creating Layer prelu2_2_0
I0203 12:09:29.386116 23304 net.cpp:434] prelu2_2_0 <- conv2_2_0
I0203 12:09:29.386131 23304 net.cpp:408] prelu2_2_0 -> prelu2_2_0
I0203 12:09:29.386298 23304 net.cpp:150] Setting up prelu2_2_0
I0203 12:09:29.386319 23304 net.cpp:157] Top shape: 16 32 15 15 (115200)
I0203 12:09:29.386327 23304 net.cpp:165] Memory required for data: 174182400
I0203 12:09:29.386340 23304 layer_factory.hpp:77] Creating layer conv2_2_1
I0203 12:09:29.386359 23304 net.cpp:100] Creating Layer conv2_2_1
I0203 12:09:29.386370 23304 net.cpp:434] conv2_2_1 <- prelu2_2_0
I0203 12:09:29.386384 23304 net.cpp:408] conv2_2_1 -> conv2_2_1
I0203 12:09:29.387228 23304 net.cpp:150] Setting up conv2_2_1
I0203 12:09:29.387250 23304 net.cpp:157] Top shape: 16 32 15 15 (115200)
I0203 12:09:29.387259 23304 net.cpp:165] Memory required for data: 174643200
I0203 12:09:29.387274 23304 layer_factory.hpp:77] Creating layer prelu2_2_1
I0203 12:09:29.387287 23304 net.cpp:100] Creating Layer prelu2_2_1
I0203 12:09:29.387297 23304 net.cpp:434] prelu2_2_1 <- conv2_2_1
I0203 12:09:29.387311 23304 net.cpp:408] prelu2_2_1 -> prelu2_2_1
I0203 12:09:29.387466 23304 net.cpp:150] Setting up prelu2_2_1
I0203 12:09:29.387486 23304 net.cpp:157] Top shape: 16 32 15 15 (115200)
I0203 12:09:29.387495 23304 net.cpp:165] Memory required for data: 175104000
I0203 12:09:29.387507 23304 layer_factory.hpp:77] Creating layer conv2_2_2
I0203 12:09:29.387526 23304 net.cpp:100] Creating Layer conv2_2_2
I0203 12:09:29.387537 23304 net.cpp:434] conv2_2_2 <- prelu2_2_1
I0203 12:09:29.387552 23304 net.cpp:408] conv2_2_2 -> conv2_2_2
I0203 12:09:29.389624 23304 net.cpp:150] Setting up conv2_2_2
I0203 12:09:29.389667 23304 net.cpp:157] Top shape: 16 128 15 15 (460800)
I0203 12:09:29.389678 23304 net.cpp:165] Memory required for data: 176947200
I0203 12:09:29.389694 23304 layer_factory.hpp:77] Creating layer eltwise2_2_4
I0203 12:09:29.389708 23304 net.cpp:100] Creating Layer eltwise2_2_4
I0203 12:09:29.389719 23304 net.cpp:434] eltwise2_2_4 <- prelu2_1_4_prelu2_1_4_0_split_1
I0203 12:09:29.389731 23304 net.cpp:434] eltwise2_2_4 <- conv2_2_2
I0203 12:09:29.389744 23304 net.cpp:408] eltwise2_2_4 -> eltwise2_2_4
I0203 12:09:29.389796 23304 net.cpp:150] Setting up eltwise2_2_4
I0203 12:09:29.389814 23304 net.cpp:157] Top shape: 16 128 15 15 (460800)
I0203 12:09:29.389823 23304 net.cpp:165] Memory required for data: 178790400
I0203 12:09:29.389832 23304 layer_factory.hpp:77] Creating layer prelu2_2_4
I0203 12:09:29.389845 23304 net.cpp:100] Creating Layer prelu2_2_4
I0203 12:09:29.389855 23304 net.cpp:434] prelu2_2_4 <- eltwise2_2_4
I0203 12:09:29.389868 23304 net.cpp:408] prelu2_2_4 -> prelu2_2_4
I0203 12:09:29.390041 23304 net.cpp:150] Setting up prelu2_2_4
I0203 12:09:29.390064 23304 net.cpp:157] Top shape: 16 128 15 15 (460800)
I0203 12:09:29.390074 23304 net.cpp:165] Memory required for data: 180633600
I0203 12:09:29.390086 23304 layer_factory.hpp:77] Creating layer prelu2_2_4_prelu2_2_4_0_split
I0203 12:09:29.390100 23304 net.cpp:100] Creating Layer prelu2_2_4_prelu2_2_4_0_split
I0203 12:09:29.390110 23304 net.cpp:434] prelu2_2_4_prelu2_2_4_0_split <- prelu2_2_4
I0203 12:09:29.390123 23304 net.cpp:408] prelu2_2_4_prelu2_2_4_0_split -> prelu2_2_4_prelu2_2_4_0_split_0
I0203 12:09:29.390137 23304 net.cpp:408] prelu2_2_4_prelu2_2_4_0_split -> prelu2_2_4_prelu2_2_4_0_split_1
I0203 12:09:29.390205 23304 net.cpp:150] Setting up prelu2_2_4_prelu2_2_4_0_split
I0203 12:09:29.390223 23304 net.cpp:157] Top shape: 16 128 15 15 (460800)
I0203 12:09:29.390234 23304 net.cpp:157] Top shape: 16 128 15 15 (460800)
I0203 12:09:29.390244 23304 net.cpp:165] Memory required for data: 184320000
I0203 12:09:29.390252 23304 layer_factory.hpp:77] Creating layer conv2_3_0
I0203 12:09:29.390270 23304 net.cpp:100] Creating Layer conv2_3_0
I0203 12:09:29.390280 23304 net.cpp:434] conv2_3_0 <- prelu2_2_4_prelu2_2_4_0_split_0
I0203 12:09:29.390295 23304 net.cpp:408] conv2_3_0 -> conv2_3_0
I0203 12:09:29.392365 23304 net.cpp:150] Setting up conv2_3_0
I0203 12:09:29.392391 23304 net.cpp:157] Top shape: 16 32 15 15 (115200)
I0203 12:09:29.392401 23304 net.cpp:165] Memory required for data: 184780800
I0203 12:09:29.392417 23304 layer_factory.hpp:77] Creating layer prelu2_3_0
I0203 12:09:29.392431 23304 net.cpp:100] Creating Layer prelu2_3_0
I0203 12:09:29.392442 23304 net.cpp:434] prelu2_3_0 <- conv2_3_0
I0203 12:09:29.392455 23304 net.cpp:408] prelu2_3_0 -> prelu2_3_0
I0203 12:09:29.392621 23304 net.cpp:150] Setting up prelu2_3_0
I0203 12:09:29.392657 23304 net.cpp:157] Top shape: 16 32 15 15 (115200)
I0203 12:09:29.392666 23304 net.cpp:165] Memory required for data: 185241600
I0203 12:09:29.392679 23304 layer_factory.hpp:77] Creating layer conv2_3_1_a
I0203 12:09:29.392699 23304 net.cpp:100] Creating Layer conv2_3_1_a
I0203 12:09:29.392709 23304 net.cpp:434] conv2_3_1_a <- prelu2_3_0
I0203 12:09:29.392724 23304 net.cpp:408] conv2_3_1_a -> conv2_3_1_a
I0203 12:09:29.395491 23304 net.cpp:150] Setting up conv2_3_1_a
I0203 12:09:29.395516 23304 net.cpp:157] Top shape: 16 32 13 17 (113152)
I0203 12:09:29.395526 23304 net.cpp:165] Memory required for data: 185694208
I0203 12:09:29.395542 23304 layer_factory.hpp:77] Creating layer conv2_3_1
I0203 12:09:29.395560 23304 net.cpp:100] Creating Layer conv2_3_1
I0203 12:09:29.395571 23304 net.cpp:434] conv2_3_1 <- conv2_3_1_a
I0203 12:09:29.395586 23304 net.cpp:408] conv2_3_1 -> conv2_3_1
I0203 12:09:29.397752 23304 net.cpp:150] Setting up conv2_3_1
I0203 12:09:29.397778 23304 net.cpp:157] Top shape: 16 32 15 15 (115200)
I0203 12:09:29.397789 23304 net.cpp:165] Memory required for data: 186155008
I0203 12:09:29.397810 23304 layer_factory.hpp:77] Creating layer prelu2_3_1
I0203 12:09:29.397835 23304 net.cpp:100] Creating Layer prelu2_3_1
I0203 12:09:29.397846 23304 net.cpp:434] prelu2_3_1 <- conv2_3_1
I0203 12:09:29.397860 23304 net.cpp:408] prelu2_3_1 -> prelu2_3_1
I0203 12:09:29.398025 23304 net.cpp:150] Setting up prelu2_3_1
I0203 12:09:29.398044 23304 net.cpp:157] Top shape: 16 32 15 15 (115200)
I0203 12:09:29.398053 23304 net.cpp:165] Memory required for data: 186615808
I0203 12:09:29.398066 23304 layer_factory.hpp:77] Creating layer conv2_3_2
I0203 12:09:29.398084 23304 net.cpp:100] Creating Layer conv2_3_2
I0203 12:09:29.398095 23304 net.cpp:434] conv2_3_2 <- prelu2_3_1
I0203 12:09:29.398109 23304 net.cpp:408] conv2_3_2 -> conv2_3_2
I0203 12:09:29.400178 23304 net.cpp:150] Setting up conv2_3_2
I0203 12:09:29.400208 23304 net.cpp:157] Top shape: 16 128 15 15 (460800)
I0203 12:09:29.400219 23304 net.cpp:165] Memory required for data: 188459008
I0203 12:09:29.400234 23304 layer_factory.hpp:77] Creating layer eltwise2_3_4
I0203 12:09:29.400249 23304 net.cpp:100] Creating Layer eltwise2_3_4
I0203 12:09:29.400259 23304 net.cpp:434] eltwise2_3_4 <- prelu2_2_4_prelu2_2_4_0_split_1
I0203 12:09:29.400271 23304 net.cpp:434] eltwise2_3_4 <- conv2_3_2
I0203 12:09:29.400285 23304 net.cpp:408] eltwise2_3_4 -> eltwise2_3_4
I0203 12:09:29.400337 23304 net.cpp:150] Setting up eltwise2_3_4
I0203 12:09:29.400354 23304 net.cpp:157] Top shape: 16 128 15 15 (460800)
I0203 12:09:29.400363 23304 net.cpp:165] Memory required for data: 190302208
I0203 12:09:29.400373 23304 layer_factory.hpp:77] Creating layer prelu2_3_4
I0203 12:09:29.400387 23304 net.cpp:100] Creating Layer prelu2_3_4
I0203 12:09:29.400395 23304 net.cpp:434] prelu2_3_4 <- eltwise2_3_4
I0203 12:09:29.400408 23304 net.cpp:408] prelu2_3_4 -> prelu2_3_4
I0203 12:09:29.400585 23304 net.cpp:150] Setting up prelu2_3_4
I0203 12:09:29.400607 23304 net.cpp:157] Top shape: 16 128 15 15 (460800)
I0203 12:09:29.400616 23304 net.cpp:165] Memory required for data: 192145408
I0203 12:09:29.400650 23304 layer_factory.hpp:77] Creating layer prelu2_3_4_prelu2_3_4_0_split
I0203 12:09:29.400668 23304 net.cpp:100] Creating Layer prelu2_3_4_prelu2_3_4_0_split
I0203 12:09:29.400679 23304 net.cpp:434] prelu2_3_4_prelu2_3_4_0_split <- prelu2_3_4
I0203 12:09:29.400692 23304 net.cpp:408] prelu2_3_4_prelu2_3_4_0_split -> prelu2_3_4_prelu2_3_4_0_split_0
I0203 12:09:29.400708 23304 net.cpp:408] prelu2_3_4_prelu2_3_4_0_split -> prelu2_3_4_prelu2_3_4_0_split_1
I0203 12:09:29.400780 23304 net.cpp:150] Setting up prelu2_3_4_prelu2_3_4_0_split
I0203 12:09:29.400799 23304 net.cpp:157] Top shape: 16 128 15 15 (460800)
I0203 12:09:29.400810 23304 net.cpp:157] Top shape: 16 128 15 15 (460800)
I0203 12:09:29.400818 23304 net.cpp:165] Memory required for data: 195831808
I0203 12:09:29.400828 23304 layer_factory.hpp:77] Creating layer conv2_4_0
I0203 12:09:29.400846 23304 net.cpp:100] Creating Layer conv2_4_0
I0203 12:09:29.400856 23304 net.cpp:434] conv2_4_0 <- prelu2_3_4_prelu2_3_4_0_split_0
I0203 12:09:29.400871 23304 net.cpp:408] conv2_4_0 -> conv2_4_0
I0203 12:09:29.402947 23304 net.cpp:150] Setting up conv2_4_0
I0203 12:09:29.402973 23304 net.cpp:157] Top shape: 16 32 15 15 (115200)
I0203 12:09:29.402983 23304 net.cpp:165] Memory required for data: 196292608
I0203 12:09:29.402998 23304 layer_factory.hpp:77] Creating layer prelu2_4_0
I0203 12:09:29.403012 23304 net.cpp:100] Creating Layer prelu2_4_0
I0203 12:09:29.403023 23304 net.cpp:434] prelu2_4_0 <- conv2_4_0
I0203 12:09:29.403038 23304 net.cpp:408] prelu2_4_0 -> prelu2_4_0
I0203 12:09:29.403209 23304 net.cpp:150] Setting up prelu2_4_0
I0203 12:09:29.403229 23304 net.cpp:157] Top shape: 16 32 15 15 (115200)
I0203 12:09:29.403239 23304 net.cpp:165] Memory required for data: 196753408
I0203 12:09:29.403251 23304 layer_factory.hpp:77] Creating layer conv2_4_1
I0203 12:09:29.403270 23304 net.cpp:100] Creating Layer conv2_4_1
I0203 12:09:29.403280 23304 net.cpp:434] conv2_4_1 <- prelu2_4_0
I0203 12:09:29.403295 23304 net.cpp:408] conv2_4_1 -> conv2_4_1
I0203 12:09:29.404157 23304 net.cpp:150] Setting up conv2_4_1
I0203 12:09:29.404191 23304 net.cpp:157] Top shape: 16 32 15 15 (115200)
I0203 12:09:29.404201 23304 net.cpp:165] Memory required for data: 197214208
I0203 12:09:29.404215 23304 layer_factory.hpp:77] Creating layer prelu2_4_1
I0203 12:09:29.404228 23304 net.cpp:100] Creating Layer prelu2_4_1
I0203 12:09:29.404238 23304 net.cpp:434] prelu2_4_1 <- conv2_4_1
I0203 12:09:29.404251 23304 net.cpp:408] prelu2_4_1 -> prelu2_4_1
I0203 12:09:29.404413 23304 net.cpp:150] Setting up prelu2_4_1
I0203 12:09:29.404433 23304 net.cpp:157] Top shape: 16 32 15 15 (115200)
I0203 12:09:29.404443 23304 net.cpp:165] Memory required for data: 197675008
I0203 12:09:29.404455 23304 layer_factory.hpp:77] Creating layer conv2_4_2
I0203 12:09:29.404474 23304 net.cpp:100] Creating Layer conv2_4_2
I0203 12:09:29.404484 23304 net.cpp:434] conv2_4_2 <- prelu2_4_1
I0203 12:09:29.404497 23304 net.cpp:408] conv2_4_2 -> conv2_4_2
I0203 12:09:29.406963 23304 net.cpp:150] Setting up conv2_4_2
I0203 12:09:29.406991 23304 net.cpp:157] Top shape: 16 128 15 15 (460800)
I0203 12:09:29.407001 23304 net.cpp:165] Memory required for data: 199518208
I0203 12:09:29.407016 23304 layer_factory.hpp:77] Creating layer eltwise2_4_4
I0203 12:09:29.407032 23304 net.cpp:100] Creating Layer eltwise2_4_4
I0203 12:09:29.407042 23304 net.cpp:434] eltwise2_4_4 <- prelu2_3_4_prelu2_3_4_0_split_1
I0203 12:09:29.407053 23304 net.cpp:434] eltwise2_4_4 <- conv2_4_2
I0203 12:09:29.407066 23304 net.cpp:408] eltwise2_4_4 -> eltwise2_4_4
I0203 12:09:29.407119 23304 net.cpp:150] Setting up eltwise2_4_4
I0203 12:09:29.407136 23304 net.cpp:157] Top shape: 16 128 15 15 (460800)
I0203 12:09:29.407145 23304 net.cpp:165] Memory required for data: 201361408
I0203 12:09:29.407155 23304 layer_factory.hpp:77] Creating layer prelu2_4_4
I0203 12:09:29.407167 23304 net.cpp:100] Creating Layer prelu2_4_4
I0203 12:09:29.407177 23304 net.cpp:434] prelu2_4_4 <- eltwise2_4_4
I0203 12:09:29.407191 23304 net.cpp:408] prelu2_4_4 -> prelu2_4_4
I0203 12:09:29.407366 23304 net.cpp:150] Setting up prelu2_4_4
I0203 12:09:29.407387 23304 net.cpp:157] Top shape: 16 128 15 15 (460800)
I0203 12:09:29.407397 23304 net.cpp:165] Memory required for data: 203204608
I0203 12:09:29.407408 23304 layer_factory.hpp:77] Creating layer prelu2_4_4_prelu2_4_4_0_split
I0203 12:09:29.407423 23304 net.cpp:100] Creating Layer prelu2_4_4_prelu2_4_4_0_split
I0203 12:09:29.407433 23304 net.cpp:434] prelu2_4_4_prelu2_4_4_0_split <- prelu2_4_4
I0203 12:09:29.407445 23304 net.cpp:408] prelu2_4_4_prelu2_4_4_0_split -> prelu2_4_4_prelu2_4_4_0_split_0
I0203 12:09:29.407460 23304 net.cpp:408] prelu2_4_4_prelu2_4_4_0_split -> prelu2_4_4_prelu2_4_4_0_split_1
I0203 12:09:29.407529 23304 net.cpp:150] Setting up prelu2_4_4_prelu2_4_4_0_split
I0203 12:09:29.407546 23304 net.cpp:157] Top shape: 16 128 15 15 (460800)
I0203 12:09:29.407557 23304 net.cpp:157] Top shape: 16 128 15 15 (460800)
I0203 12:09:29.407567 23304 net.cpp:165] Memory required for data: 206891008
I0203 12:09:29.407575 23304 layer_factory.hpp:77] Creating layer conv2_5_0
I0203 12:09:29.407593 23304 net.cpp:100] Creating Layer conv2_5_0
I0203 12:09:29.407605 23304 net.cpp:434] conv2_5_0 <- prelu2_4_4_prelu2_4_4_0_split_0
I0203 12:09:29.407619 23304 net.cpp:408] conv2_5_0 -> conv2_5_0
I0203 12:09:29.409066 23304 net.cpp:150] Setting up conv2_5_0
I0203 12:09:29.409091 23304 net.cpp:157] Top shape: 16 32 15 15 (115200)
I0203 12:09:29.409101 23304 net.cpp:165] Memory required for data: 207351808
I0203 12:09:29.409116 23304 layer_factory.hpp:77] Creating layer prelu2_5_0
I0203 12:09:29.409129 23304 net.cpp:100] Creating Layer prelu2_5_0
I0203 12:09:29.409140 23304 net.cpp:434] prelu2_5_0 <- conv2_5_0
I0203 12:09:29.409153 23304 net.cpp:408] prelu2_5_0 -> prelu2_5_0
I0203 12:09:29.409323 23304 net.cpp:150] Setting up prelu2_5_0
I0203 12:09:29.409344 23304 net.cpp:157] Top shape: 16 32 15 15 (115200)
I0203 12:09:29.409353 23304 net.cpp:165] Memory required for data: 207812608
I0203 12:09:29.409365 23304 layer_factory.hpp:77] Creating layer conv2_5_1
I0203 12:09:29.409391 23304 net.cpp:100] Creating Layer conv2_5_1
I0203 12:09:29.409412 23304 net.cpp:434] conv2_5_1 <- prelu2_5_0
I0203 12:09:29.409428 23304 net.cpp:408] conv2_5_1 -> conv2_5_1
I0203 12:09:29.411741 23304 net.cpp:150] Setting up conv2_5_1
I0203 12:09:29.411770 23304 net.cpp:157] Top shape: 16 32 15 15 (115200)
I0203 12:09:29.411782 23304 net.cpp:165] Memory required for data: 208273408
I0203 12:09:29.411798 23304 layer_factory.hpp:77] Creating layer prelu2_5_1
I0203 12:09:29.411810 23304 net.cpp:100] Creating Layer prelu2_5_1
I0203 12:09:29.411821 23304 net.cpp:434] prelu2_5_1 <- conv2_5_1
I0203 12:09:29.411834 23304 net.cpp:408] prelu2_5_1 -> prelu2_5_1
I0203 12:09:29.411998 23304 net.cpp:150] Setting up prelu2_5_1
I0203 12:09:29.412019 23304 net.cpp:157] Top shape: 16 32 15 15 (115200)
I0203 12:09:29.412027 23304 net.cpp:165] Memory required for data: 208734208
I0203 12:09:29.412040 23304 layer_factory.hpp:77] Creating layer conv2_5_2
I0203 12:09:29.412058 23304 net.cpp:100] Creating Layer conv2_5_2
I0203 12:09:29.412068 23304 net.cpp:434] conv2_5_2 <- prelu2_5_1
I0203 12:09:29.412083 23304 net.cpp:408] conv2_5_2 -> conv2_5_2
I0203 12:09:29.414162 23304 net.cpp:150] Setting up conv2_5_2
I0203 12:09:29.414191 23304 net.cpp:157] Top shape: 16 128 15 15 (460800)
I0203 12:09:29.414201 23304 net.cpp:165] Memory required for data: 210577408
I0203 12:09:29.414214 23304 layer_factory.hpp:77] Creating layer eltwise2_5_4
I0203 12:09:29.414228 23304 net.cpp:100] Creating Layer eltwise2_5_4
I0203 12:09:29.414239 23304 net.cpp:434] eltwise2_5_4 <- prelu2_4_4_prelu2_4_4_0_split_1
I0203 12:09:29.414250 23304 net.cpp:434] eltwise2_5_4 <- conv2_5_2
I0203 12:09:29.414263 23304 net.cpp:408] eltwise2_5_4 -> eltwise2_5_4
I0203 12:09:29.414316 23304 net.cpp:150] Setting up eltwise2_5_4
I0203 12:09:29.414335 23304 net.cpp:157] Top shape: 16 128 15 15 (460800)
I0203 12:09:29.414343 23304 net.cpp:165] Memory required for data: 212420608
I0203 12:09:29.414352 23304 layer_factory.hpp:77] Creating layer prelu2_5_4
I0203 12:09:29.414366 23304 net.cpp:100] Creating Layer prelu2_5_4
I0203 12:09:29.414376 23304 net.cpp:434] prelu2_5_4 <- eltwise2_5_4
I0203 12:09:29.414388 23304 net.cpp:408] prelu2_5_4 -> prelu2_5_4
I0203 12:09:29.414566 23304 net.cpp:150] Setting up prelu2_5_4
I0203 12:09:29.414587 23304 net.cpp:157] Top shape: 16 128 15 15 (460800)
I0203 12:09:29.414597 23304 net.cpp:165] Memory required for data: 214263808
I0203 12:09:29.414608 23304 layer_factory.hpp:77] Creating layer prelu2_5_4_prelu2_5_4_0_split
I0203 12:09:29.414623 23304 net.cpp:100] Creating Layer prelu2_5_4_prelu2_5_4_0_split
I0203 12:09:29.414633 23304 net.cpp:434] prelu2_5_4_prelu2_5_4_0_split <- prelu2_5_4
I0203 12:09:29.414646 23304 net.cpp:408] prelu2_5_4_prelu2_5_4_0_split -> prelu2_5_4_prelu2_5_4_0_split_0
I0203 12:09:29.414661 23304 net.cpp:408] prelu2_5_4_prelu2_5_4_0_split -> prelu2_5_4_prelu2_5_4_0_split_1
I0203 12:09:29.414729 23304 net.cpp:150] Setting up prelu2_5_4_prelu2_5_4_0_split
I0203 12:09:29.414746 23304 net.cpp:157] Top shape: 16 128 15 15 (460800)
I0203 12:09:29.414757 23304 net.cpp:157] Top shape: 16 128 15 15 (460800)
I0203 12:09:29.414767 23304 net.cpp:165] Memory required for data: 217950208
I0203 12:09:29.414775 23304 layer_factory.hpp:77] Creating layer conv2_6_0
I0203 12:09:29.414794 23304 net.cpp:100] Creating Layer conv2_6_0
I0203 12:09:29.414805 23304 net.cpp:434] conv2_6_0 <- prelu2_5_4_prelu2_5_4_0_split_0
I0203 12:09:29.414819 23304 net.cpp:408] conv2_6_0 -> conv2_6_0
I0203 12:09:29.416893 23304 net.cpp:150] Setting up conv2_6_0
I0203 12:09:29.416920 23304 net.cpp:157] Top shape: 16 32 15 15 (115200)
I0203 12:09:29.416931 23304 net.cpp:165] Memory required for data: 218411008
I0203 12:09:29.416946 23304 layer_factory.hpp:77] Creating layer prelu2_6_0
I0203 12:09:29.416960 23304 net.cpp:100] Creating Layer prelu2_6_0
I0203 12:09:29.416970 23304 net.cpp:434] prelu2_6_0 <- conv2_6_0
I0203 12:09:29.416985 23304 net.cpp:408] prelu2_6_0 -> prelu2_6_0
I0203 12:09:29.417160 23304 net.cpp:150] Setting up prelu2_6_0
I0203 12:09:29.417186 23304 net.cpp:157] Top shape: 16 32 15 15 (115200)
I0203 12:09:29.417206 23304 net.cpp:165] Memory required for data: 218871808
I0203 12:09:29.417219 23304 layer_factory.hpp:77] Creating layer conv2_6_1
I0203 12:09:29.417238 23304 net.cpp:100] Creating Layer conv2_6_1
I0203 12:09:29.417249 23304 net.cpp:434] conv2_6_1 <- prelu2_6_0
I0203 12:09:29.417263 23304 net.cpp:408] conv2_6_1 -> conv2_6_1
I0203 12:09:29.418128 23304 net.cpp:150] Setting up conv2_6_1
I0203 12:09:29.418150 23304 net.cpp:157] Top shape: 16 32 15 15 (115200)
I0203 12:09:29.418159 23304 net.cpp:165] Memory required for data: 219332608
I0203 12:09:29.418174 23304 layer_factory.hpp:77] Creating layer prelu2_6_1
I0203 12:09:29.418187 23304 net.cpp:100] Creating Layer prelu2_6_1
I0203 12:09:29.418197 23304 net.cpp:434] prelu2_6_1 <- conv2_6_1
I0203 12:09:29.418211 23304 net.cpp:408] prelu2_6_1 -> prelu2_6_1
I0203 12:09:29.418376 23304 net.cpp:150] Setting up prelu2_6_1
I0203 12:09:29.418397 23304 net.cpp:157] Top shape: 16 32 15 15 (115200)
I0203 12:09:29.418406 23304 net.cpp:165] Memory required for data: 219793408
I0203 12:09:29.418418 23304 layer_factory.hpp:77] Creating layer conv2_6_2
I0203 12:09:29.418437 23304 net.cpp:100] Creating Layer conv2_6_2
I0203 12:09:29.418447 23304 net.cpp:434] conv2_6_2 <- prelu2_6_1
I0203 12:09:29.418462 23304 net.cpp:408] conv2_6_2 -> conv2_6_2
I0203 12:09:29.420562 23304 net.cpp:150] Setting up conv2_6_2
I0203 12:09:29.420589 23304 net.cpp:157] Top shape: 16 128 15 15 (460800)
I0203 12:09:29.420599 23304 net.cpp:165] Memory required for data: 221636608
I0203 12:09:29.420614 23304 layer_factory.hpp:77] Creating layer eltwise2_6_4
I0203 12:09:29.420639 23304 net.cpp:100] Creating Layer eltwise2_6_4
I0203 12:09:29.420653 23304 net.cpp:434] eltwise2_6_4 <- prelu2_5_4_prelu2_5_4_0_split_1
I0203 12:09:29.420666 23304 net.cpp:434] eltwise2_6_4 <- conv2_6_2
I0203 12:09:29.420680 23304 net.cpp:408] eltwise2_6_4 -> eltwise2_6_4
I0203 12:09:29.420734 23304 net.cpp:150] Setting up eltwise2_6_4
I0203 12:09:29.420753 23304 net.cpp:157] Top shape: 16 128 15 15 (460800)
I0203 12:09:29.420761 23304 net.cpp:165] Memory required for data: 223479808
I0203 12:09:29.420771 23304 layer_factory.hpp:77] Creating layer prelu2_6_4
I0203 12:09:29.420784 23304 net.cpp:100] Creating Layer prelu2_6_4
I0203 12:09:29.420794 23304 net.cpp:434] prelu2_6_4 <- eltwise2_6_4
I0203 12:09:29.420806 23304 net.cpp:408] prelu2_6_4 -> prelu2_6_4
I0203 12:09:29.422468 23304 net.cpp:150] Setting up prelu2_6_4
I0203 12:09:29.422502 23304 net.cpp:157] Top shape: 16 128 15 15 (460800)
I0203 12:09:29.422513 23304 net.cpp:165] Memory required for data: 225323008
I0203 12:09:29.422528 23304 layer_factory.hpp:77] Creating layer prelu2_6_4_prelu2_6_4_0_split
I0203 12:09:29.422544 23304 net.cpp:100] Creating Layer prelu2_6_4_prelu2_6_4_0_split
I0203 12:09:29.422554 23304 net.cpp:434] prelu2_6_4_prelu2_6_4_0_split <- prelu2_6_4
I0203 12:09:29.422569 23304 net.cpp:408] prelu2_6_4_prelu2_6_4_0_split -> prelu2_6_4_prelu2_6_4_0_split_0
I0203 12:09:29.422585 23304 net.cpp:408] prelu2_6_4_prelu2_6_4_0_split -> prelu2_6_4_prelu2_6_4_0_split_1
I0203 12:09:29.422658 23304 net.cpp:150] Setting up prelu2_6_4_prelu2_6_4_0_split
I0203 12:09:29.422677 23304 net.cpp:157] Top shape: 16 128 15 15 (460800)
I0203 12:09:29.422688 23304 net.cpp:157] Top shape: 16 128 15 15 (460800)
I0203 12:09:29.422696 23304 net.cpp:165] Memory required for data: 229009408
I0203 12:09:29.422705 23304 layer_factory.hpp:77] Creating layer conv2_7_0
I0203 12:09:29.422725 23304 net.cpp:100] Creating Layer conv2_7_0
I0203 12:09:29.422735 23304 net.cpp:434] conv2_7_0 <- prelu2_6_4_prelu2_6_4_0_split_0
I0203 12:09:29.422750 23304 net.cpp:408] conv2_7_0 -> conv2_7_0
I0203 12:09:29.424998 23304 net.cpp:150] Setting up conv2_7_0
I0203 12:09:29.425024 23304 net.cpp:157] Top shape: 16 32 15 15 (115200)
I0203 12:09:29.425035 23304 net.cpp:165] Memory required for data: 229470208
I0203 12:09:29.425050 23304 layer_factory.hpp:77] Creating layer prelu2_7_0
I0203 12:09:29.425065 23304 net.cpp:100] Creating Layer prelu2_7_0
I0203 12:09:29.425084 23304 net.cpp:434] prelu2_7_0 <- conv2_7_0
I0203 12:09:29.425109 23304 net.cpp:408] prelu2_7_0 -> prelu2_7_0
I0203 12:09:29.425292 23304 net.cpp:150] Setting up prelu2_7_0
I0203 12:09:29.425313 23304 net.cpp:157] Top shape: 16 32 15 15 (115200)
I0203 12:09:29.425323 23304 net.cpp:165] Memory required for data: 229931008
I0203 12:09:29.425334 23304 layer_factory.hpp:77] Creating layer conv2_7_1_a
I0203 12:09:29.425354 23304 net.cpp:100] Creating Layer conv2_7_1_a
I0203 12:09:29.425364 23304 net.cpp:434] conv2_7_1_a <- prelu2_7_0
I0203 12:09:29.425379 23304 net.cpp:408] conv2_7_1_a -> conv2_7_1_a
I0203 12:09:29.427569 23304 net.cpp:150] Setting up conv2_7_1_a
I0203 12:09:29.427597 23304 net.cpp:157] Top shape: 16 32 13 17 (113152)
I0203 12:09:29.427608 23304 net.cpp:165] Memory required for data: 230383616
I0203 12:09:29.427623 23304 layer_factory.hpp:77] Creating layer conv2_7_1
I0203 12:09:29.427640 23304 net.cpp:100] Creating Layer conv2_7_1
I0203 12:09:29.427651 23304 net.cpp:434] conv2_7_1 <- conv2_7_1_a
I0203 12:09:29.427665 23304 net.cpp:408] conv2_7_1 -> conv2_7_1
I0203 12:09:29.430464 23304 net.cpp:150] Setting up conv2_7_1
I0203 12:09:29.430490 23304 net.cpp:157] Top shape: 16 32 15 15 (115200)
I0203 12:09:29.430500 23304 net.cpp:165] Memory required for data: 230844416
I0203 12:09:29.430516 23304 layer_factory.hpp:77] Creating layer prelu2_7_1
I0203 12:09:29.430529 23304 net.cpp:100] Creating Layer prelu2_7_1
I0203 12:09:29.430541 23304 net.cpp:434] prelu2_7_1 <- conv2_7_1
I0203 12:09:29.430553 23304 net.cpp:408] prelu2_7_1 -> prelu2_7_1
I0203 12:09:29.430727 23304 net.cpp:150] Setting up prelu2_7_1
I0203 12:09:29.430747 23304 net.cpp:157] Top shape: 16 32 15 15 (115200)
I0203 12:09:29.430755 23304 net.cpp:165] Memory required for data: 231305216
I0203 12:09:29.430768 23304 layer_factory.hpp:77] Creating layer conv2_7_2
I0203 12:09:29.430788 23304 net.cpp:100] Creating Layer conv2_7_2
I0203 12:09:29.430799 23304 net.cpp:434] conv2_7_2 <- prelu2_7_1
I0203 12:09:29.430812 23304 net.cpp:408] conv2_7_2 -> conv2_7_2
I0203 12:09:29.432950 23304 net.cpp:150] Setting up conv2_7_2
I0203 12:09:29.432982 23304 net.cpp:157] Top shape: 16 128 15 15 (460800)
I0203 12:09:29.432993 23304 net.cpp:165] Memory required for data: 233148416
I0203 12:09:29.433029 23304 layer_factory.hpp:77] Creating layer eltwise2_7_4
I0203 12:09:29.433045 23304 net.cpp:100] Creating Layer eltwise2_7_4
I0203 12:09:29.433056 23304 net.cpp:434] eltwise2_7_4 <- prelu2_6_4_prelu2_6_4_0_split_1
I0203 12:09:29.433068 23304 net.cpp:434] eltwise2_7_4 <- conv2_7_2
I0203 12:09:29.433080 23304 net.cpp:408] eltwise2_7_4 -> eltwise2_7_4
I0203 12:09:29.433136 23304 net.cpp:150] Setting up eltwise2_7_4
I0203 12:09:29.433154 23304 net.cpp:157] Top shape: 16 128 15 15 (460800)
I0203 12:09:29.433163 23304 net.cpp:165] Memory required for data: 234991616
I0203 12:09:29.433173 23304 layer_factory.hpp:77] Creating layer prelu2_7_4
I0203 12:09:29.433185 23304 net.cpp:100] Creating Layer prelu2_7_4
I0203 12:09:29.433195 23304 net.cpp:434] prelu2_7_4 <- eltwise2_7_4
I0203 12:09:29.433208 23304 net.cpp:408] prelu2_7_4 -> prelu2_7_4
I0203 12:09:29.433385 23304 net.cpp:150] Setting up prelu2_7_4
I0203 12:09:29.433408 23304 net.cpp:157] Top shape: 16 128 15 15 (460800)
I0203 12:09:29.433416 23304 net.cpp:165] Memory required for data: 236834816
I0203 12:09:29.433429 23304 layer_factory.hpp:77] Creating layer prelu2_7_4_prelu2_7_4_0_split
I0203 12:09:29.433442 23304 net.cpp:100] Creating Layer prelu2_7_4_prelu2_7_4_0_split
I0203 12:09:29.433452 23304 net.cpp:434] prelu2_7_4_prelu2_7_4_0_split <- prelu2_7_4
I0203 12:09:29.433465 23304 net.cpp:408] prelu2_7_4_prelu2_7_4_0_split -> prelu2_7_4_prelu2_7_4_0_split_0
I0203 12:09:29.433480 23304 net.cpp:408] prelu2_7_4_prelu2_7_4_0_split -> prelu2_7_4_prelu2_7_4_0_split_1
I0203 12:09:29.433552 23304 net.cpp:150] Setting up prelu2_7_4_prelu2_7_4_0_split
I0203 12:09:29.433569 23304 net.cpp:157] Top shape: 16 128 15 15 (460800)
I0203 12:09:29.433580 23304 net.cpp:157] Top shape: 16 128 15 15 (460800)
I0203 12:09:29.433596 23304 net.cpp:165] Memory required for data: 240521216
I0203 12:09:29.433616 23304 layer_factory.hpp:77] Creating layer conv2_8_0
I0203 12:09:29.433634 23304 net.cpp:100] Creating Layer conv2_8_0
I0203 12:09:29.433645 23304 net.cpp:434] conv2_8_0 <- prelu2_7_4_prelu2_7_4_0_split_0
I0203 12:09:29.433660 23304 net.cpp:408] conv2_8_0 -> conv2_8_0
I0203 12:09:29.435777 23304 net.cpp:150] Setting up conv2_8_0
I0203 12:09:29.435803 23304 net.cpp:157] Top shape: 16 32 15 15 (115200)
I0203 12:09:29.435813 23304 net.cpp:165] Memory required for data: 240982016
I0203 12:09:29.435828 23304 layer_factory.hpp:77] Creating layer prelu2_8_0
I0203 12:09:29.435842 23304 net.cpp:100] Creating Layer prelu2_8_0
I0203 12:09:29.435853 23304 net.cpp:434] prelu2_8_0 <- conv2_8_0
I0203 12:09:29.435866 23304 net.cpp:408] prelu2_8_0 -> prelu2_8_0
I0203 12:09:29.436046 23304 net.cpp:150] Setting up prelu2_8_0
I0203 12:09:29.436067 23304 net.cpp:157] Top shape: 16 32 15 15 (115200)
I0203 12:09:29.436076 23304 net.cpp:165] Memory required for data: 241442816
I0203 12:09:29.436089 23304 layer_factory.hpp:77] Creating layer conv2_8_1
I0203 12:09:29.436107 23304 net.cpp:100] Creating Layer conv2_8_1
I0203 12:09:29.436118 23304 net.cpp:434] conv2_8_1 <- prelu2_8_0
I0203 12:09:29.436132 23304 net.cpp:408] conv2_8_1 -> conv2_8_1
I0203 12:09:29.437041 23304 net.cpp:150] Setting up conv2_8_1
I0203 12:09:29.437065 23304 net.cpp:157] Top shape: 16 32 15 15 (115200)
I0203 12:09:29.437075 23304 net.cpp:165] Memory required for data: 241903616
I0203 12:09:29.437089 23304 layer_factory.hpp:77] Creating layer prelu2_8_1
I0203 12:09:29.437103 23304 net.cpp:100] Creating Layer prelu2_8_1
I0203 12:09:29.437114 23304 net.cpp:434] prelu2_8_1 <- conv2_8_1
I0203 12:09:29.437126 23304 net.cpp:408] prelu2_8_1 -> prelu2_8_1
I0203 12:09:29.437295 23304 net.cpp:150] Setting up prelu2_8_1
I0203 12:09:29.437315 23304 net.cpp:157] Top shape: 16 32 15 15 (115200)
I0203 12:09:29.437325 23304 net.cpp:165] Memory required for data: 242364416
I0203 12:09:29.437337 23304 layer_factory.hpp:77] Creating layer conv2_8_2
I0203 12:09:29.437356 23304 net.cpp:100] Creating Layer conv2_8_2
I0203 12:09:29.437367 23304 net.cpp:434] conv2_8_2 <- prelu2_8_1
I0203 12:09:29.437381 23304 net.cpp:408] conv2_8_2 -> conv2_8_2
I0203 12:09:29.438848 23304 net.cpp:150] Setting up conv2_8_2
I0203 12:09:29.438871 23304 net.cpp:157] Top shape: 16 128 15 15 (460800)
I0203 12:09:29.438881 23304 net.cpp:165] Memory required for data: 244207616
I0203 12:09:29.438896 23304 layer_factory.hpp:77] Creating layer eltwise2_8_4
I0203 12:09:29.438910 23304 net.cpp:100] Creating Layer eltwise2_8_4
I0203 12:09:29.438920 23304 net.cpp:434] eltwise2_8_4 <- prelu2_7_4_prelu2_7_4_0_split_1
I0203 12:09:29.438932 23304 net.cpp:434] eltwise2_8_4 <- conv2_8_2
I0203 12:09:29.438944 23304 net.cpp:408] eltwise2_8_4 -> eltwise2_8_4
I0203 12:09:29.438999 23304 net.cpp:150] Setting up eltwise2_8_4
I0203 12:09:29.439016 23304 net.cpp:157] Top shape: 16 128 15 15 (460800)
I0203 12:09:29.439025 23304 net.cpp:165] Memory required for data: 246050816
I0203 12:09:29.439034 23304 layer_factory.hpp:77] Creating layer prelu2_8_4
I0203 12:09:29.439047 23304 net.cpp:100] Creating Layer prelu2_8_4
I0203 12:09:29.439057 23304 net.cpp:434] prelu2_8_4 <- eltwise2_8_4
I0203 12:09:29.439069 23304 net.cpp:408] prelu2_8_4 -> prelu2_8_4
I0203 12:09:29.439245 23304 net.cpp:150] Setting up prelu2_8_4
I0203 12:09:29.439271 23304 net.cpp:157] Top shape: 16 128 15 15 (460800)
I0203 12:09:29.439281 23304 net.cpp:165] Memory required for data: 247894016
I0203 12:09:29.439293 23304 layer_factory.hpp:77] Creating layer prelu2_8_4_prelu2_8_4_0_split
I0203 12:09:29.439306 23304 net.cpp:100] Creating Layer prelu2_8_4_prelu2_8_4_0_split
I0203 12:09:29.439316 23304 net.cpp:434] prelu2_8_4_prelu2_8_4_0_split <- prelu2_8_4
I0203 12:09:29.439328 23304 net.cpp:408] prelu2_8_4_prelu2_8_4_0_split -> prelu2_8_4_prelu2_8_4_0_split_0
I0203 12:09:29.439342 23304 net.cpp:408] prelu2_8_4_prelu2_8_4_0_split -> prelu2_8_4_prelu2_8_4_0_split_1
I0203 12:09:29.439419 23304 net.cpp:150] Setting up prelu2_8_4_prelu2_8_4_0_split
I0203 12:09:29.439453 23304 net.cpp:157] Top shape: 16 128 15 15 (460800)
I0203 12:09:29.439465 23304 net.cpp:157] Top shape: 16 128 15 15 (460800)
I0203 12:09:29.439473 23304 net.cpp:165] Memory required for data: 251580416
I0203 12:09:29.439483 23304 layer_factory.hpp:77] Creating layer conv3_1_0
I0203 12:09:29.439503 23304 net.cpp:100] Creating Layer conv3_1_0
I0203 12:09:29.439514 23304 net.cpp:434] conv3_1_0 <- prelu2_8_4_prelu2_8_4_0_split_0
I0203 12:09:29.439530 23304 net.cpp:408] conv3_1_0 -> conv3_1_0
I0203 12:09:29.441699 23304 net.cpp:150] Setting up conv3_1_0
I0203 12:09:29.441725 23304 net.cpp:157] Top shape: 16 32 15 15 (115200)
I0203 12:09:29.441735 23304 net.cpp:165] Memory required for data: 252041216
I0203 12:09:29.441750 23304 layer_factory.hpp:77] Creating layer prelu3_1_0
I0203 12:09:29.441766 23304 net.cpp:100] Creating Layer prelu3_1_0
I0203 12:09:29.441776 23304 net.cpp:434] prelu3_1_0 <- conv3_1_0
I0203 12:09:29.441789 23304 net.cpp:408] prelu3_1_0 -> prelu3_1_0
I0203 12:09:29.441974 23304 net.cpp:150] Setting up prelu3_1_0
I0203 12:09:29.441995 23304 net.cpp:157] Top shape: 16 32 15 15 (115200)
I0203 12:09:29.442003 23304 net.cpp:165] Memory required for data: 252502016
I0203 12:09:29.442015 23304 layer_factory.hpp:77] Creating layer conv3_1_1
I0203 12:09:29.442054 23304 net.cpp:100] Creating Layer conv3_1_1
I0203 12:09:29.442065 23304 net.cpp:434] conv3_1_1 <- prelu3_1_0
I0203 12:09:29.442080 23304 net.cpp:408] conv3_1_1 -> conv3_1_1
I0203 12:09:29.444525 23304 net.cpp:150] Setting up conv3_1_1
I0203 12:09:29.444555 23304 net.cpp:157] Top shape: 16 32 15 15 (115200)
I0203 12:09:29.444566 23304 net.cpp:165] Memory required for data: 252962816
I0203 12:09:29.444581 23304 layer_factory.hpp:77] Creating layer prelu3_1_1
I0203 12:09:29.444594 23304 net.cpp:100] Creating Layer prelu3_1_1
I0203 12:09:29.444604 23304 net.cpp:434] prelu3_1_1 <- conv3_1_1
I0203 12:09:29.444622 23304 net.cpp:408] prelu3_1_1 -> prelu3_1_1
I0203 12:09:29.444815 23304 net.cpp:150] Setting up prelu3_1_1
I0203 12:09:29.444838 23304 net.cpp:157] Top shape: 16 32 15 15 (115200)
I0203 12:09:29.444846 23304 net.cpp:165] Memory required for data: 253423616
I0203 12:09:29.444859 23304 layer_factory.hpp:77] Creating layer conv3_1_2
I0203 12:09:29.444880 23304 net.cpp:100] Creating Layer conv3_1_2
I0203 12:09:29.444890 23304 net.cpp:434] conv3_1_2 <- prelu3_1_1
I0203 12:09:29.444906 23304 net.cpp:408] conv3_1_2 -> conv3_1_2
I0203 12:09:29.447062 23304 net.cpp:150] Setting up conv3_1_2
I0203 12:09:29.447088 23304 net.cpp:157] Top shape: 16 128 15 15 (460800)
I0203 12:09:29.447098 23304 net.cpp:165] Memory required for data: 255266816
I0203 12:09:29.447113 23304 layer_factory.hpp:77] Creating layer eltwise3_1_4
I0203 12:09:29.447130 23304 net.cpp:100] Creating Layer eltwise3_1_4
I0203 12:09:29.447141 23304 net.cpp:434] eltwise3_1_4 <- prelu2_8_4_prelu2_8_4_0_split_1
I0203 12:09:29.447152 23304 net.cpp:434] eltwise3_1_4 <- conv3_1_2
I0203 12:09:29.447167 23304 net.cpp:408] eltwise3_1_4 -> eltwise3_1_4
I0203 12:09:29.447222 23304 net.cpp:150] Setting up eltwise3_1_4
I0203 12:09:29.447240 23304 net.cpp:157] Top shape: 16 128 15 15 (460800)
I0203 12:09:29.447249 23304 net.cpp:165] Memory required for data: 257110016
I0203 12:09:29.447258 23304 layer_factory.hpp:77] Creating layer prelu3_1_4
I0203 12:09:29.447274 23304 net.cpp:100] Creating Layer prelu3_1_4
I0203 12:09:29.447284 23304 net.cpp:434] prelu3_1_4 <- eltwise3_1_4
I0203 12:09:29.447296 23304 net.cpp:408] prelu3_1_4 -> prelu3_1_4
I0203 12:09:29.447496 23304 net.cpp:150] Setting up prelu3_1_4
I0203 12:09:29.447518 23304 net.cpp:157] Top shape: 16 128 15 15 (460800)
I0203 12:09:29.447527 23304 net.cpp:165] Memory required for data: 258953216
I0203 12:09:29.447540 23304 layer_factory.hpp:77] Creating layer prelu3_1_4_prelu3_1_4_0_split
I0203 12:09:29.447553 23304 net.cpp:100] Creating Layer prelu3_1_4_prelu3_1_4_0_split
I0203 12:09:29.447563 23304 net.cpp:434] prelu3_1_4_prelu3_1_4_0_split <- prelu3_1_4
I0203 12:09:29.447576 23304 net.cpp:408] prelu3_1_4_prelu3_1_4_0_split -> prelu3_1_4_prelu3_1_4_0_split_0
I0203 12:09:29.447607 23304 net.cpp:408] prelu3_1_4_prelu3_1_4_0_split -> prelu3_1_4_prelu3_1_4_0_split_1
I0203 12:09:29.447685 23304 net.cpp:150] Setting up prelu3_1_4_prelu3_1_4_0_split
I0203 12:09:29.447705 23304 net.cpp:157] Top shape: 16 128 15 15 (460800)
I0203 12:09:29.447715 23304 net.cpp:157] Top shape: 16 128 15 15 (460800)
I0203 12:09:29.447723 23304 net.cpp:165] Memory required for data: 262639616
I0203 12:09:29.447732 23304 layer_factory.hpp:77] Creating layer conv3_2_0
I0203 12:09:29.447753 23304 net.cpp:100] Creating Layer conv3_2_0
I0203 12:09:29.447765 23304 net.cpp:434] conv3_2_0 <- prelu3_1_4_prelu3_1_4_0_split_0
I0203 12:09:29.447778 23304 net.cpp:408] conv3_2_0 -> conv3_2_0
I0203 12:09:29.449980 23304 net.cpp:150] Setting up conv3_2_0
I0203 12:09:29.450006 23304 net.cpp:157] Top shape: 16 32 15 15 (115200)
I0203 12:09:29.450016 23304 net.cpp:165] Memory required for data: 263100416
I0203 12:09:29.450031 23304 layer_factory.hpp:77] Creating layer prelu3_2_0
I0203 12:09:29.450044 23304 net.cpp:100] Creating Layer prelu3_2_0
I0203 12:09:29.450054 23304 net.cpp:434] prelu3_2_0 <- conv3_2_0
I0203 12:09:29.450070 23304 net.cpp:408] prelu3_2_0 -> prelu3_2_0
I0203 12:09:29.450259 23304 net.cpp:150] Setting up prelu3_2_0
I0203 12:09:29.450280 23304 net.cpp:157] Top shape: 16 32 15 15 (115200)
I0203 12:09:29.450289 23304 net.cpp:165] Memory required for data: 263561216
I0203 12:09:29.450300 23304 layer_factory.hpp:77] Creating layer conv3_2_1
I0203 12:09:29.450322 23304 net.cpp:100] Creating Layer conv3_2_1
I0203 12:09:29.450333 23304 net.cpp:434] conv3_2_1 <- prelu3_2_0
I0203 12:09:29.450347 23304 net.cpp:408] conv3_2_1 -> conv3_2_1
I0203 12:09:29.451231 23304 net.cpp:150] Setting up conv3_2_1
I0203 12:09:29.451253 23304 net.cpp:157] Top shape: 16 32 15 15 (115200)
I0203 12:09:29.451262 23304 net.cpp:165] Memory required for data: 264022016
I0203 12:09:29.451275 23304 layer_factory.hpp:77] Creating layer prelu3_2_1
I0203 12:09:29.451288 23304 net.cpp:100] Creating Layer prelu3_2_1
I0203 12:09:29.451298 23304 net.cpp:434] prelu3_2_1 <- conv3_2_1
I0203 12:09:29.451314 23304 net.cpp:408] prelu3_2_1 -> prelu3_2_1
I0203 12:09:29.451490 23304 net.cpp:150] Setting up prelu3_2_1
I0203 12:09:29.451511 23304 net.cpp:157] Top shape: 16 32 15 15 (115200)
I0203 12:09:29.451520 23304 net.cpp:165] Memory required for data: 264482816
I0203 12:09:29.451532 23304 layer_factory.hpp:77] Creating layer conv3_2_2
I0203 12:09:29.451553 23304 net.cpp:100] Creating Layer conv3_2_2
I0203 12:09:29.451565 23304 net.cpp:434] conv3_2_2 <- prelu3_2_1
I0203 12:09:29.451578 23304 net.cpp:408] conv3_2_2 -> conv3_2_2
I0203 12:09:29.453784 23304 net.cpp:150] Setting up conv3_2_2
I0203 12:09:29.453812 23304 net.cpp:157] Top shape: 16 128 15 15 (460800)
I0203 12:09:29.453822 23304 net.cpp:165] Memory required for data: 266326016
I0203 12:09:29.453837 23304 layer_factory.hpp:77] Creating layer eltwise3_2_4
I0203 12:09:29.453850 23304 net.cpp:100] Creating Layer eltwise3_2_4
I0203 12:09:29.453860 23304 net.cpp:434] eltwise3_2_4 <- prelu3_1_4_prelu3_1_4_0_split_1
I0203 12:09:29.453872 23304 net.cpp:434] eltwise3_2_4 <- conv3_2_2
I0203 12:09:29.453884 23304 net.cpp:408] eltwise3_2_4 -> eltwise3_2_4
I0203 12:09:29.453943 23304 net.cpp:150] Setting up eltwise3_2_4
I0203 12:09:29.453961 23304 net.cpp:157] Top shape: 16 128 15 15 (460800)
I0203 12:09:29.453970 23304 net.cpp:165] Memory required for data: 268169216
I0203 12:09:29.453979 23304 layer_factory.hpp:77] Creating layer prelu3_2_4
I0203 12:09:29.453999 23304 net.cpp:100] Creating Layer prelu3_2_4
I0203 12:09:29.454008 23304 net.cpp:434] prelu3_2_4 <- eltwise3_2_4
I0203 12:09:29.454021 23304 net.cpp:408] prelu3_2_4 -> prelu3_2_4
I0203 12:09:29.454210 23304 net.cpp:150] Setting up prelu3_2_4
I0203 12:09:29.454231 23304 net.cpp:157] Top shape: 16 128 15 15 (460800)
I0203 12:09:29.454241 23304 net.cpp:165] Memory required for data: 270012416
I0203 12:09:29.454252 23304 layer_factory.hpp:77] Creating layer prelu3_2_4_prelu3_2_4_0_split
I0203 12:09:29.454273 23304 net.cpp:100] Creating Layer prelu3_2_4_prelu3_2_4_0_split
I0203 12:09:29.454293 23304 net.cpp:434] prelu3_2_4_prelu3_2_4_0_split <- prelu3_2_4
I0203 12:09:29.454310 23304 net.cpp:408] prelu3_2_4_prelu3_2_4_0_split -> prelu3_2_4_prelu3_2_4_0_split_0
I0203 12:09:29.454325 23304 net.cpp:408] prelu3_2_4_prelu3_2_4_0_split -> prelu3_2_4_prelu3_2_4_0_split_1
I0203 12:09:29.454403 23304 net.cpp:150] Setting up prelu3_2_4_prelu3_2_4_0_split
I0203 12:09:29.454421 23304 net.cpp:157] Top shape: 16 128 15 15 (460800)
I0203 12:09:29.454432 23304 net.cpp:157] Top shape: 16 128 15 15 (460800)
I0203 12:09:29.454440 23304 net.cpp:165] Memory required for data: 273698816
I0203 12:09:29.454450 23304 layer_factory.hpp:77] Creating layer conv3_3_0
I0203 12:09:29.454468 23304 net.cpp:100] Creating Layer conv3_3_0
I0203 12:09:29.454479 23304 net.cpp:434] conv3_3_0 <- prelu3_2_4_prelu3_2_4_0_split_0
I0203 12:09:29.454493 23304 net.cpp:408] conv3_3_0 -> conv3_3_0
I0203 12:09:29.456697 23304 net.cpp:150] Setting up conv3_3_0
I0203 12:09:29.456728 23304 net.cpp:157] Top shape: 16 32 15 15 (115200)
I0203 12:09:29.456738 23304 net.cpp:165] Memory required for data: 274159616
I0203 12:09:29.456753 23304 layer_factory.hpp:77] Creating layer prelu3_3_0
I0203 12:09:29.456770 23304 net.cpp:100] Creating Layer prelu3_3_0
I0203 12:09:29.456781 23304 net.cpp:434] prelu3_3_0 <- conv3_3_0
I0203 12:09:29.456797 23304 net.cpp:408] prelu3_3_0 -> prelu3_3_0
I0203 12:09:29.456987 23304 net.cpp:150] Setting up prelu3_3_0
I0203 12:09:29.457007 23304 net.cpp:157] Top shape: 16 32 15 15 (115200)
I0203 12:09:29.457016 23304 net.cpp:165] Memory required for data: 274620416
I0203 12:09:29.457028 23304 layer_factory.hpp:77] Creating layer conv3_3_1_a
I0203 12:09:29.457049 23304 net.cpp:100] Creating Layer conv3_3_1_a
I0203 12:09:29.457059 23304 net.cpp:434] conv3_3_1_a <- prelu3_3_0
I0203 12:09:29.457073 23304 net.cpp:408] conv3_3_1_a -> conv3_3_1_a
I0203 12:09:29.459326 23304 net.cpp:150] Setting up conv3_3_1_a
I0203 12:09:29.459352 23304 net.cpp:157] Top shape: 16 32 13 17 (113152)
I0203 12:09:29.459362 23304 net.cpp:165] Memory required for data: 275073024
I0203 12:09:29.459377 23304 layer_factory.hpp:77] Creating layer conv3_3_1
I0203 12:09:29.459396 23304 net.cpp:100] Creating Layer conv3_3_1
I0203 12:09:29.459408 23304 net.cpp:434] conv3_3_1 <- conv3_3_1_a
I0203 12:09:29.459425 23304 net.cpp:408] conv3_3_1 -> conv3_3_1
I0203 12:09:29.461697 23304 net.cpp:150] Setting up conv3_3_1
I0203 12:09:29.461724 23304 net.cpp:157] Top shape: 16 32 15 15 (115200)
I0203 12:09:29.461735 23304 net.cpp:165] Memory required for data: 275533824
I0203 12:09:29.461748 23304 layer_factory.hpp:77] Creating layer prelu3_3_1
I0203 12:09:29.461766 23304 net.cpp:100] Creating Layer prelu3_3_1
I0203 12:09:29.461776 23304 net.cpp:434] prelu3_3_1 <- conv3_3_1
I0203 12:09:29.461788 23304 net.cpp:408] prelu3_3_1 -> prelu3_3_1
I0203 12:09:29.461971 23304 net.cpp:150] Setting up prelu3_3_1
I0203 12:09:29.461992 23304 net.cpp:157] Top shape: 16 32 15 15 (115200)
I0203 12:09:29.462000 23304 net.cpp:165] Memory required for data: 275994624
I0203 12:09:29.462013 23304 layer_factory.hpp:77] Creating layer conv3_3_2
I0203 12:09:29.462034 23304 net.cpp:100] Creating Layer conv3_3_2
I0203 12:09:29.462045 23304 net.cpp:434] conv3_3_2 <- prelu3_3_1
I0203 12:09:29.462061 23304 net.cpp:408] conv3_3_2 -> conv3_3_2
I0203 12:09:29.464267 23304 net.cpp:150] Setting up conv3_3_2
I0203 12:09:29.464292 23304 net.cpp:157] Top shape: 16 128 15 15 (460800)
I0203 12:09:29.464301 23304 net.cpp:165] Memory required for data: 277837824
I0203 12:09:29.464316 23304 layer_factory.hpp:77] Creating layer eltwise3_3_4
I0203 12:09:29.464330 23304 net.cpp:100] Creating Layer eltwise3_3_4
I0203 12:09:29.464340 23304 net.cpp:434] eltwise3_3_4 <- prelu3_2_4_prelu3_2_4_0_split_1
I0203 12:09:29.464352 23304 net.cpp:434] eltwise3_3_4 <- conv3_3_2
I0203 12:09:29.464365 23304 net.cpp:408] eltwise3_3_4 -> eltwise3_3_4
I0203 12:09:29.464421 23304 net.cpp:150] Setting up eltwise3_3_4
I0203 12:09:29.464447 23304 net.cpp:157] Top shape: 16 128 15 15 (460800)
I0203 12:09:29.464465 23304 net.cpp:165] Memory required for data: 279681024
I0203 12:09:29.464475 23304 layer_factory.hpp:77] Creating layer prelu3_3_4
I0203 12:09:29.464488 23304 net.cpp:100] Creating Layer prelu3_3_4
I0203 12:09:29.464498 23304 net.cpp:434] prelu3_3_4 <- eltwise3_3_4
I0203 12:09:29.464510 23304 net.cpp:408] prelu3_3_4 -> prelu3_3_4
I0203 12:09:29.464716 23304 net.cpp:150] Setting up prelu3_3_4
I0203 12:09:29.464740 23304 net.cpp:157] Top shape: 16 128 15 15 (460800)
I0203 12:09:29.464748 23304 net.cpp:165] Memory required for data: 281524224
I0203 12:09:29.464761 23304 layer_factory.hpp:77] Creating layer prelu3_3_4_prelu3_3_4_0_split
I0203 12:09:29.464778 23304 net.cpp:100] Creating Layer prelu3_3_4_prelu3_3_4_0_split
I0203 12:09:29.464788 23304 net.cpp:434] prelu3_3_4_prelu3_3_4_0_split <- prelu3_3_4
I0203 12:09:29.464800 23304 net.cpp:408] prelu3_3_4_prelu3_3_4_0_split -> prelu3_3_4_prelu3_3_4_0_split_0
I0203 12:09:29.464814 23304 net.cpp:408] prelu3_3_4_prelu3_3_4_0_split -> prelu3_3_4_prelu3_3_4_0_split_1
I0203 12:09:29.464892 23304 net.cpp:150] Setting up prelu3_3_4_prelu3_3_4_0_split
I0203 12:09:29.464911 23304 net.cpp:157] Top shape: 16 128 15 15 (460800)
I0203 12:09:29.464922 23304 net.cpp:157] Top shape: 16 128 15 15 (460800)
I0203 12:09:29.464931 23304 net.cpp:165] Memory required for data: 285210624
I0203 12:09:29.464939 23304 layer_factory.hpp:77] Creating layer conv3_4_0
I0203 12:09:29.464959 23304 net.cpp:100] Creating Layer conv3_4_0
I0203 12:09:29.464969 23304 net.cpp:434] conv3_4_0 <- prelu3_3_4_prelu3_3_4_0_split_0
I0203 12:09:29.464987 23304 net.cpp:408] conv3_4_0 -> conv3_4_0
I0203 12:09:29.466519 23304 net.cpp:150] Setting up conv3_4_0
I0203 12:09:29.466543 23304 net.cpp:157] Top shape: 16 32 15 15 (115200)
I0203 12:09:29.466552 23304 net.cpp:165] Memory required for data: 285671424
I0203 12:09:29.466567 23304 layer_factory.hpp:77] Creating layer prelu3_4_0
I0203 12:09:29.466580 23304 net.cpp:100] Creating Layer prelu3_4_0
I0203 12:09:29.466590 23304 net.cpp:434] prelu3_4_0 <- conv3_4_0
I0203 12:09:29.466606 23304 net.cpp:408] prelu3_4_0 -> prelu3_4_0
I0203 12:09:29.466804 23304 net.cpp:150] Setting up prelu3_4_0
I0203 12:09:29.466825 23304 net.cpp:157] Top shape: 16 32 15 15 (115200)
I0203 12:09:29.466833 23304 net.cpp:165] Memory required for data: 286132224
I0203 12:09:29.466846 23304 layer_factory.hpp:77] Creating layer conv3_4_1
I0203 12:09:29.466866 23304 net.cpp:100] Creating Layer conv3_4_1
I0203 12:09:29.466876 23304 net.cpp:434] conv3_4_1 <- prelu3_4_0
I0203 12:09:29.466893 23304 net.cpp:408] conv3_4_1 -> conv3_4_1
I0203 12:09:29.467782 23304 net.cpp:150] Setting up conv3_4_1
I0203 12:09:29.467808 23304 net.cpp:157] Top shape: 16 32 15 15 (115200)
I0203 12:09:29.467818 23304 net.cpp:165] Memory required for data: 286593024
I0203 12:09:29.467831 23304 layer_factory.hpp:77] Creating layer prelu3_4_1
I0203 12:09:29.467847 23304 net.cpp:100] Creating Layer prelu3_4_1
I0203 12:09:29.467859 23304 net.cpp:434] prelu3_4_1 <- conv3_4_1
I0203 12:09:29.467870 23304 net.cpp:408] prelu3_4_1 -> prelu3_4_1
I0203 12:09:29.468047 23304 net.cpp:150] Setting up prelu3_4_1
I0203 12:09:29.468068 23304 net.cpp:157] Top shape: 16 32 15 15 (115200)
I0203 12:09:29.468077 23304 net.cpp:165] Memory required for data: 287053824
I0203 12:09:29.468088 23304 layer_factory.hpp:77] Creating layer conv3_4_2
I0203 12:09:29.468108 23304 net.cpp:100] Creating Layer conv3_4_2
I0203 12:09:29.468119 23304 net.cpp:434] conv3_4_2 <- prelu3_4_1
I0203 12:09:29.468137 23304 net.cpp:408] conv3_4_2 -> conv3_4_2
I0203 12:09:29.470360 23304 net.cpp:150] Setting up conv3_4_2
I0203 12:09:29.470386 23304 net.cpp:157] Top shape: 16 128 15 15 (460800)
I0203 12:09:29.470396 23304 net.cpp:165] Memory required for data: 288897024
I0203 12:09:29.470412 23304 layer_factory.hpp:77] Creating layer eltwise3_4_4
I0203 12:09:29.470424 23304 net.cpp:100] Creating Layer eltwise3_4_4
I0203 12:09:29.470434 23304 net.cpp:434] eltwise3_4_4 <- prelu3_3_4_prelu3_3_4_0_split_1
I0203 12:09:29.470453 23304 net.cpp:434] eltwise3_4_4 <- conv3_4_2
I0203 12:09:29.470480 23304 net.cpp:408] eltwise3_4_4 -> eltwise3_4_4
I0203 12:09:29.470537 23304 net.cpp:150] Setting up eltwise3_4_4
I0203 12:09:29.470559 23304 net.cpp:157] Top shape: 16 128 15 15 (460800)
I0203 12:09:29.470568 23304 net.cpp:165] Memory required for data: 290740224
I0203 12:09:29.470578 23304 layer_factory.hpp:77] Creating layer prelu3_4_4
I0203 12:09:29.470589 23304 net.cpp:100] Creating Layer prelu3_4_4
I0203 12:09:29.470599 23304 net.cpp:434] prelu3_4_4 <- eltwise3_4_4
I0203 12:09:29.470612 23304 net.cpp:408] prelu3_4_4 -> prelu3_4_4
I0203 12:09:29.470803 23304 net.cpp:150] Setting up prelu3_4_4
I0203 12:09:29.470824 23304 net.cpp:157] Top shape: 16 128 15 15 (460800)
I0203 12:09:29.470834 23304 net.cpp:165] Memory required for data: 292583424
I0203 12:09:29.470845 23304 layer_factory.hpp:77] Creating layer prelu3_4_4_prelu3_4_4_0_split
I0203 12:09:29.470858 23304 net.cpp:100] Creating Layer prelu3_4_4_prelu3_4_4_0_split
I0203 12:09:29.470871 23304 net.cpp:434] prelu3_4_4_prelu3_4_4_0_split <- prelu3_4_4
I0203 12:09:29.470885 23304 net.cpp:408] prelu3_4_4_prelu3_4_4_0_split -> prelu3_4_4_prelu3_4_4_0_split_0
I0203 12:09:29.470898 23304 net.cpp:408] prelu3_4_4_prelu3_4_4_0_split -> prelu3_4_4_prelu3_4_4_0_split_1
I0203 12:09:29.470974 23304 net.cpp:150] Setting up prelu3_4_4_prelu3_4_4_0_split
I0203 12:09:29.470993 23304 net.cpp:157] Top shape: 16 128 15 15 (460800)
I0203 12:09:29.471004 23304 net.cpp:157] Top shape: 16 128 15 15 (460800)
I0203 12:09:29.471012 23304 net.cpp:165] Memory required for data: 296269824
I0203 12:09:29.471021 23304 layer_factory.hpp:77] Creating layer conv3_5_0
I0203 12:09:29.471042 23304 net.cpp:100] Creating Layer conv3_5_0
I0203 12:09:29.471053 23304 net.cpp:434] conv3_5_0 <- prelu3_4_4_prelu3_4_4_0_split_0
I0203 12:09:29.471067 23304 net.cpp:408] conv3_5_0 -> conv3_5_0
I0203 12:09:29.473305 23304 net.cpp:150] Setting up conv3_5_0
I0203 12:09:29.473331 23304 net.cpp:157] Top shape: 16 32 15 15 (115200)
I0203 12:09:29.473341 23304 net.cpp:165] Memory required for data: 296730624
I0203 12:09:29.473356 23304 layer_factory.hpp:77] Creating layer prelu3_5_0
I0203 12:09:29.473368 23304 net.cpp:100] Creating Layer prelu3_5_0
I0203 12:09:29.473378 23304 net.cpp:434] prelu3_5_0 <- conv3_5_0
I0203 12:09:29.473394 23304 net.cpp:408] prelu3_5_0 -> prelu3_5_0
I0203 12:09:29.473589 23304 net.cpp:150] Setting up prelu3_5_0
I0203 12:09:29.473610 23304 net.cpp:157] Top shape: 16 32 15 15 (115200)
I0203 12:09:29.473619 23304 net.cpp:165] Memory required for data: 297191424
I0203 12:09:29.473631 23304 layer_factory.hpp:77] Creating layer conv3_5_1
I0203 12:09:29.473651 23304 net.cpp:100] Creating Layer conv3_5_1
I0203 12:09:29.473662 23304 net.cpp:434] conv3_5_1 <- prelu3_5_0
I0203 12:09:29.473676 23304 net.cpp:408] conv3_5_1 -> conv3_5_1
I0203 12:09:29.476109 23304 net.cpp:150] Setting up conv3_5_1
I0203 12:09:29.476135 23304 net.cpp:157] Top shape: 16 32 15 15 (115200)
I0203 12:09:29.476145 23304 net.cpp:165] Memory required for data: 297652224
I0203 12:09:29.476160 23304 layer_factory.hpp:77] Creating layer prelu3_5_1
I0203 12:09:29.476177 23304 net.cpp:100] Creating Layer prelu3_5_1
I0203 12:09:29.476188 23304 net.cpp:434] prelu3_5_1 <- conv3_5_1
I0203 12:09:29.476202 23304 net.cpp:408] prelu3_5_1 -> prelu3_5_1
I0203 12:09:29.476389 23304 net.cpp:150] Setting up prelu3_5_1
I0203 12:09:29.476410 23304 net.cpp:157] Top shape: 16 32 15 15 (115200)
I0203 12:09:29.476419 23304 net.cpp:165] Memory required for data: 298113024
I0203 12:09:29.476431 23304 layer_factory.hpp:77] Creating layer conv3_5_2
I0203 12:09:29.476451 23304 net.cpp:100] Creating Layer conv3_5_2
I0203 12:09:29.476462 23304 net.cpp:434] conv3_5_2 <- prelu3_5_1
I0203 12:09:29.476480 23304 net.cpp:408] conv3_5_2 -> conv3_5_2
I0203 12:09:29.478678 23304 net.cpp:150] Setting up conv3_5_2
I0203 12:09:29.478709 23304 net.cpp:157] Top shape: 16 128 15 15 (460800)
I0203 12:09:29.478720 23304 net.cpp:165] Memory required for data: 299956224
I0203 12:09:29.478735 23304 layer_factory.hpp:77] Creating layer eltwise3_5_4
I0203 12:09:29.478760 23304 net.cpp:100] Creating Layer eltwise3_5_4
I0203 12:09:29.478780 23304 net.cpp:434] eltwise3_5_4 <- prelu3_4_4_prelu3_4_4_0_split_1
I0203 12:09:29.478792 23304 net.cpp:434] eltwise3_5_4 <- conv3_5_2
I0203 12:09:29.478808 23304 net.cpp:408] eltwise3_5_4 -> eltwise3_5_4
I0203 12:09:29.478866 23304 net.cpp:150] Setting up eltwise3_5_4
I0203 12:09:29.478884 23304 net.cpp:157] Top shape: 16 128 15 15 (460800)
I0203 12:09:29.478893 23304 net.cpp:165] Memory required for data: 301799424
I0203 12:09:29.478904 23304 layer_factory.hpp:77] Creating layer prelu3_5_4
I0203 12:09:29.478919 23304 net.cpp:100] Creating Layer prelu3_5_4
I0203 12:09:29.478929 23304 net.cpp:434] prelu3_5_4 <- eltwise3_5_4
I0203 12:09:29.478941 23304 net.cpp:408] prelu3_5_4 -> prelu3_5_4
I0203 12:09:29.479146 23304 net.cpp:150] Setting up prelu3_5_4
I0203 12:09:29.479168 23304 net.cpp:157] Top shape: 16 128 15 15 (460800)
I0203 12:09:29.479176 23304 net.cpp:165] Memory required for data: 303642624
I0203 12:09:29.479189 23304 layer_factory.hpp:77] Creating layer prelu3_5_4_prelu3_5_4_0_split
I0203 12:09:29.479202 23304 net.cpp:100] Creating Layer prelu3_5_4_prelu3_5_4_0_split
I0203 12:09:29.479212 23304 net.cpp:434] prelu3_5_4_prelu3_5_4_0_split <- prelu3_5_4
I0203 12:09:29.479228 23304 net.cpp:408] prelu3_5_4_prelu3_5_4_0_split -> prelu3_5_4_prelu3_5_4_0_split_0
I0203 12:09:29.479243 23304 net.cpp:408] prelu3_5_4_prelu3_5_4_0_split -> prelu3_5_4_prelu3_5_4_0_split_1
I0203 12:09:29.479321 23304 net.cpp:150] Setting up prelu3_5_4_prelu3_5_4_0_split
I0203 12:09:29.479338 23304 net.cpp:157] Top shape: 16 128 15 15 (460800)
I0203 12:09:29.479349 23304 net.cpp:157] Top shape: 16 128 15 15 (460800)
I0203 12:09:29.479357 23304 net.cpp:165] Memory required for data: 307329024
I0203 12:09:29.479367 23304 layer_factory.hpp:77] Creating layer conv3_6_0
I0203 12:09:29.479389 23304 net.cpp:100] Creating Layer conv3_6_0
I0203 12:09:29.479400 23304 net.cpp:434] conv3_6_0 <- prelu3_5_4_prelu3_5_4_0_split_0
I0203 12:09:29.479414 23304 net.cpp:408] conv3_6_0 -> conv3_6_0
I0203 12:09:29.481633 23304 net.cpp:150] Setting up conv3_6_0
I0203 12:09:29.481662 23304 net.cpp:157] Top shape: 16 32 15 15 (115200)
I0203 12:09:29.481670 23304 net.cpp:165] Memory required for data: 307789824
I0203 12:09:29.481685 23304 layer_factory.hpp:77] Creating layer prelu3_6_0
I0203 12:09:29.481698 23304 net.cpp:100] Creating Layer prelu3_6_0
I0203 12:09:29.481709 23304 net.cpp:434] prelu3_6_0 <- conv3_6_0
I0203 12:09:29.481724 23304 net.cpp:408] prelu3_6_0 -> prelu3_6_0
I0203 12:09:29.481923 23304 net.cpp:150] Setting up prelu3_6_0
I0203 12:09:29.481945 23304 net.cpp:157] Top shape: 16 32 15 15 (115200)
I0203 12:09:29.481953 23304 net.cpp:165] Memory required for data: 308250624
I0203 12:09:29.481966 23304 layer_factory.hpp:77] Creating layer conv3_6_1
I0203 12:09:29.481986 23304 net.cpp:100] Creating Layer conv3_6_1
I0203 12:09:29.481997 23304 net.cpp:434] conv3_6_1 <- prelu3_6_0
I0203 12:09:29.482013 23304 net.cpp:408] conv3_6_1 -> conv3_6_1
I0203 12:09:29.482923 23304 net.cpp:150] Setting up conv3_6_1
I0203 12:09:29.482944 23304 net.cpp:157] Top shape: 16 32 15 15 (115200)
I0203 12:09:29.482954 23304 net.cpp:165] Memory required for data: 308711424
I0203 12:09:29.482967 23304 layer_factory.hpp:77] Creating layer prelu3_6_1
I0203 12:09:29.482985 23304 net.cpp:100] Creating Layer prelu3_6_1
I0203 12:09:29.482995 23304 net.cpp:434] prelu3_6_1 <- conv3_6_1
I0203 12:09:29.483007 23304 net.cpp:408] prelu3_6_1 -> prelu3_6_1
I0203 12:09:29.483191 23304 net.cpp:150] Setting up prelu3_6_1
I0203 12:09:29.483211 23304 net.cpp:157] Top shape: 16 32 15 15 (115200)
I0203 12:09:29.483219 23304 net.cpp:165] Memory required for data: 309172224
I0203 12:09:29.483232 23304 layer_factory.hpp:77] Creating layer conv3_6_2
I0203 12:09:29.483252 23304 net.cpp:100] Creating Layer conv3_6_2
I0203 12:09:29.483263 23304 net.cpp:434] conv3_6_2 <- prelu3_6_1
I0203 12:09:29.483279 23304 net.cpp:408] conv3_6_2 -> conv3_6_2
I0203 12:09:29.485507 23304 net.cpp:150] Setting up conv3_6_2
I0203 12:09:29.485543 23304 net.cpp:157] Top shape: 16 128 15 15 (460800)
I0203 12:09:29.485565 23304 net.cpp:165] Memory required for data: 311015424
I0203 12:09:29.485581 23304 layer_factory.hpp:77] Creating layer eltwise3_6_4
I0203 12:09:29.485595 23304 net.cpp:100] Creating Layer eltwise3_6_4
I0203 12:09:29.485605 23304 net.cpp:434] eltwise3_6_4 <- prelu3_5_4_prelu3_5_4_0_split_1
I0203 12:09:29.485617 23304 net.cpp:434] eltwise3_6_4 <- conv3_6_2
I0203 12:09:29.485630 23304 net.cpp:408] eltwise3_6_4 -> eltwise3_6_4
I0203 12:09:29.485690 23304 net.cpp:150] Setting up eltwise3_6_4
I0203 12:09:29.485711 23304 net.cpp:157] Top shape: 16 128 15 15 (460800)
I0203 12:09:29.485721 23304 net.cpp:165] Memory required for data: 312858624
I0203 12:09:29.485730 23304 layer_factory.hpp:77] Creating layer prelu3_6_4
I0203 12:09:29.485741 23304 net.cpp:100] Creating Layer prelu3_6_4
I0203 12:09:29.485751 23304 net.cpp:434] prelu3_6_4 <- eltwise3_6_4
I0203 12:09:29.485764 23304 net.cpp:408] prelu3_6_4 -> prelu3_6_4
I0203 12:09:29.485963 23304 net.cpp:150] Setting up prelu3_6_4
I0203 12:09:29.485985 23304 net.cpp:157] Top shape: 16 128 15 15 (460800)
I0203 12:09:29.485993 23304 net.cpp:165] Memory required for data: 314701824
I0203 12:09:29.486006 23304 layer_factory.hpp:77] Creating layer prelu3_6_4_prelu3_6_4_0_split
I0203 12:09:29.486018 23304 net.cpp:100] Creating Layer prelu3_6_4_prelu3_6_4_0_split
I0203 12:09:29.486032 23304 net.cpp:434] prelu3_6_4_prelu3_6_4_0_split <- prelu3_6_4
I0203 12:09:29.486044 23304 net.cpp:408] prelu3_6_4_prelu3_6_4_0_split -> prelu3_6_4_prelu3_6_4_0_split_0
I0203 12:09:29.486058 23304 net.cpp:408] prelu3_6_4_prelu3_6_4_0_split -> prelu3_6_4_prelu3_6_4_0_split_1
I0203 12:09:29.486138 23304 net.cpp:150] Setting up prelu3_6_4_prelu3_6_4_0_split
I0203 12:09:29.486157 23304 net.cpp:157] Top shape: 16 128 15 15 (460800)
I0203 12:09:29.486167 23304 net.cpp:157] Top shape: 16 128 15 15 (460800)
I0203 12:09:29.486176 23304 net.cpp:165] Memory required for data: 318388224
I0203 12:09:29.486186 23304 layer_factory.hpp:77] Creating layer conv3_7_0
I0203 12:09:29.486207 23304 net.cpp:100] Creating Layer conv3_7_0
I0203 12:09:29.486217 23304 net.cpp:434] conv3_7_0 <- prelu3_6_4_prelu3_6_4_0_split_0
I0203 12:09:29.486232 23304 net.cpp:408] conv3_7_0 -> conv3_7_0
I0203 12:09:29.488467 23304 net.cpp:150] Setting up conv3_7_0
I0203 12:09:29.488492 23304 net.cpp:157] Top shape: 16 32 15 15 (115200)
I0203 12:09:29.488502 23304 net.cpp:165] Memory required for data: 318849024
I0203 12:09:29.488517 23304 layer_factory.hpp:77] Creating layer prelu3_7_0
I0203 12:09:29.488533 23304 net.cpp:100] Creating Layer prelu3_7_0
I0203 12:09:29.488544 23304 net.cpp:434] prelu3_7_0 <- conv3_7_0
I0203 12:09:29.488561 23304 net.cpp:408] prelu3_7_0 -> prelu3_7_0
I0203 12:09:29.490175 23304 net.cpp:150] Setting up prelu3_7_0
I0203 12:09:29.490208 23304 net.cpp:157] Top shape: 16 32 15 15 (115200)
I0203 12:09:29.490218 23304 net.cpp:165] Memory required for data: 319309824
I0203 12:09:29.490232 23304 layer_factory.hpp:77] Creating layer conv3_7_1_a
I0203 12:09:29.490257 23304 net.cpp:100] Creating Layer conv3_7_1_a
I0203 12:09:29.490267 23304 net.cpp:434] conv3_7_1_a <- prelu3_7_0
I0203 12:09:29.490285 23304 net.cpp:408] conv3_7_1_a -> conv3_7_1_a
I0203 12:09:29.493244 23304 net.cpp:150] Setting up conv3_7_1_a
I0203 12:09:29.493271 23304 net.cpp:157] Top shape: 16 32 13 17 (113152)
I0203 12:09:29.493280 23304 net.cpp:165] Memory required for data: 319762432
I0203 12:09:29.493295 23304 layer_factory.hpp:77] Creating layer conv3_7_1
I0203 12:09:29.493316 23304 net.cpp:100] Creating Layer conv3_7_1
I0203 12:09:29.493327 23304 net.cpp:434] conv3_7_1 <- conv3_7_1_a
I0203 12:09:29.493343 23304 net.cpp:408] conv3_7_1 -> conv3_7_1
I0203 12:09:29.495635 23304 net.cpp:150] Setting up conv3_7_1
I0203 12:09:29.495659 23304 net.cpp:157] Top shape: 16 32 15 15 (115200)
I0203 12:09:29.495669 23304 net.cpp:165] Memory required for data: 320223232
I0203 12:09:29.495684 23304 layer_factory.hpp:77] Creating layer prelu3_7_1
I0203 12:09:29.495709 23304 net.cpp:100] Creating Layer prelu3_7_1
I0203 12:09:29.495731 23304 net.cpp:434] prelu3_7_1 <- conv3_7_1
I0203 12:09:29.495745 23304 net.cpp:408] prelu3_7_1 -> prelu3_7_1
I0203 12:09:29.495929 23304 net.cpp:150] Setting up prelu3_7_1
I0203 12:09:29.495950 23304 net.cpp:157] Top shape: 16 32 15 15 (115200)
I0203 12:09:29.495959 23304 net.cpp:165] Memory required for data: 320684032
I0203 12:09:29.495970 23304 layer_factory.hpp:77] Creating layer conv3_7_2
I0203 12:09:29.495992 23304 net.cpp:100] Creating Layer conv3_7_2
I0203 12:09:29.496003 23304 net.cpp:434] conv3_7_2 <- prelu3_7_1
I0203 12:09:29.496021 23304 net.cpp:408] conv3_7_2 -> conv3_7_2
I0203 12:09:29.497634 23304 net.cpp:150] Setting up conv3_7_2
I0203 12:09:29.497660 23304 net.cpp:157] Top shape: 16 128 15 15 (460800)
I0203 12:09:29.497669 23304 net.cpp:165] Memory required for data: 322527232
I0203 12:09:29.497684 23304 layer_factory.hpp:77] Creating layer eltwise3_7_4
I0203 12:09:29.497697 23304 net.cpp:100] Creating Layer eltwise3_7_4
I0203 12:09:29.497709 23304 net.cpp:434] eltwise3_7_4 <- prelu3_6_4_prelu3_6_4_0_split_1
I0203 12:09:29.497720 23304 net.cpp:434] eltwise3_7_4 <- conv3_7_2
I0203 12:09:29.497735 23304 net.cpp:408] eltwise3_7_4 -> eltwise3_7_4
I0203 12:09:29.497792 23304 net.cpp:150] Setting up eltwise3_7_4
I0203 12:09:29.497810 23304 net.cpp:157] Top shape: 16 128 15 15 (460800)
I0203 12:09:29.497818 23304 net.cpp:165] Memory required for data: 324370432
I0203 12:09:29.497828 23304 layer_factory.hpp:77] Creating layer prelu3_7_4
I0203 12:09:29.497843 23304 net.cpp:100] Creating Layer prelu3_7_4
I0203 12:09:29.497854 23304 net.cpp:434] prelu3_7_4 <- eltwise3_7_4
I0203 12:09:29.497869 23304 net.cpp:408] prelu3_7_4 -> prelu3_7_4
I0203 12:09:29.498070 23304 net.cpp:150] Setting up prelu3_7_4
I0203 12:09:29.498091 23304 net.cpp:157] Top shape: 16 128 15 15 (460800)
I0203 12:09:29.498100 23304 net.cpp:165] Memory required for data: 326213632
I0203 12:09:29.498112 23304 layer_factory.hpp:77] Creating layer prelu3_7_4_prelu3_7_4_0_split
I0203 12:09:29.498126 23304 net.cpp:100] Creating Layer prelu3_7_4_prelu3_7_4_0_split
I0203 12:09:29.498136 23304 net.cpp:434] prelu3_7_4_prelu3_7_4_0_split <- prelu3_7_4
I0203 12:09:29.498150 23304 net.cpp:408] prelu3_7_4_prelu3_7_4_0_split -> prelu3_7_4_prelu3_7_4_0_split_0
I0203 12:09:29.498167 23304 net.cpp:408] prelu3_7_4_prelu3_7_4_0_split -> prelu3_7_4_prelu3_7_4_0_split_1
I0203 12:09:29.498247 23304 net.cpp:150] Setting up prelu3_7_4_prelu3_7_4_0_split
I0203 12:09:29.498266 23304 net.cpp:157] Top shape: 16 128 15 15 (460800)
I0203 12:09:29.498277 23304 net.cpp:157] Top shape: 16 128 15 15 (460800)
I0203 12:09:29.498286 23304 net.cpp:165] Memory required for data: 329900032
I0203 12:09:29.498296 23304 layer_factory.hpp:77] Creating layer conv3_8_0
I0203 12:09:29.498314 23304 net.cpp:100] Creating Layer conv3_8_0
I0203 12:09:29.498325 23304 net.cpp:434] conv3_8_0 <- prelu3_7_4_prelu3_7_4_0_split_0
I0203 12:09:29.498339 23304 net.cpp:408] conv3_8_0 -> conv3_8_0
I0203 12:09:29.500571 23304 net.cpp:150] Setting up conv3_8_0
I0203 12:09:29.500602 23304 net.cpp:157] Top shape: 16 32 15 15 (115200)
I0203 12:09:29.500612 23304 net.cpp:165] Memory required for data: 330360832
I0203 12:09:29.500627 23304 layer_factory.hpp:77] Creating layer prelu3_8_0
I0203 12:09:29.500653 23304 net.cpp:100] Creating Layer prelu3_8_0
I0203 12:09:29.500664 23304 net.cpp:434] prelu3_8_0 <- conv3_8_0
I0203 12:09:29.500680 23304 net.cpp:408] prelu3_8_0 -> prelu3_8_0
I0203 12:09:29.500880 23304 net.cpp:150] Setting up prelu3_8_0
I0203 12:09:29.500900 23304 net.cpp:157] Top shape: 16 32 15 15 (115200)
I0203 12:09:29.500910 23304 net.cpp:165] Memory required for data: 330821632
I0203 12:09:29.500921 23304 layer_factory.hpp:77] Creating layer conv3_8_1
I0203 12:09:29.500942 23304 net.cpp:100] Creating Layer conv3_8_1
I0203 12:09:29.500953 23304 net.cpp:434] conv3_8_1 <- prelu3_8_0
I0203 12:09:29.500969 23304 net.cpp:408] conv3_8_1 -> conv3_8_1
I0203 12:09:29.501883 23304 net.cpp:150] Setting up conv3_8_1
I0203 12:09:29.501904 23304 net.cpp:157] Top shape: 16 32 15 15 (115200)
I0203 12:09:29.501920 23304 net.cpp:165] Memory required for data: 331282432
I0203 12:09:29.501945 23304 layer_factory.hpp:77] Creating layer prelu3_8_1
I0203 12:09:29.501961 23304 net.cpp:100] Creating Layer prelu3_8_1
I0203 12:09:29.501972 23304 net.cpp:434] prelu3_8_1 <- conv3_8_1
I0203 12:09:29.501984 23304 net.cpp:408] prelu3_8_1 -> prelu3_8_1
I0203 12:09:29.502168 23304 net.cpp:150] Setting up prelu3_8_1
I0203 12:09:29.502189 23304 net.cpp:157] Top shape: 16 32 15 15 (115200)
I0203 12:09:29.502198 23304 net.cpp:165] Memory required for data: 331743232
I0203 12:09:29.502210 23304 layer_factory.hpp:77] Creating layer conv3_8_2
I0203 12:09:29.502230 23304 net.cpp:100] Creating Layer conv3_8_2
I0203 12:09:29.502241 23304 net.cpp:434] conv3_8_2 <- prelu3_8_1
I0203 12:09:29.502261 23304 net.cpp:408] conv3_8_2 -> conv3_8_2
I0203 12:09:29.504515 23304 net.cpp:150] Setting up conv3_8_2
I0203 12:09:29.504540 23304 net.cpp:157] Top shape: 16 128 15 15 (460800)
I0203 12:09:29.504550 23304 net.cpp:165] Memory required for data: 333586432
I0203 12:09:29.504565 23304 layer_factory.hpp:77] Creating layer eltwise3_8_4
I0203 12:09:29.504578 23304 net.cpp:100] Creating Layer eltwise3_8_4
I0203 12:09:29.504588 23304 net.cpp:434] eltwise3_8_4 <- prelu3_7_4_prelu3_7_4_0_split_1
I0203 12:09:29.504601 23304 net.cpp:434] eltwise3_8_4 <- conv3_8_2
I0203 12:09:29.504616 23304 net.cpp:408] eltwise3_8_4 -> eltwise3_8_4
I0203 12:09:29.504688 23304 net.cpp:150] Setting up eltwise3_8_4
I0203 12:09:29.504712 23304 net.cpp:157] Top shape: 16 128 15 15 (460800)
I0203 12:09:29.504722 23304 net.cpp:165] Memory required for data: 335429632
I0203 12:09:29.504731 23304 layer_factory.hpp:77] Creating layer prelu3_8_4
I0203 12:09:29.504743 23304 net.cpp:100] Creating Layer prelu3_8_4
I0203 12:09:29.504753 23304 net.cpp:434] prelu3_8_4 <- eltwise3_8_4
I0203 12:09:29.504765 23304 net.cpp:408] prelu3_8_4 -> prelu3_8_4
I0203 12:09:29.504966 23304 net.cpp:150] Setting up prelu3_8_4
I0203 12:09:29.504988 23304 net.cpp:157] Top shape: 16 128 15 15 (460800)
I0203 12:09:29.504997 23304 net.cpp:165] Memory required for data: 337272832
I0203 12:09:29.505009 23304 layer_factory.hpp:77] Creating layer prelu3_8_4_prelu3_8_4_0_split
I0203 12:09:29.505025 23304 net.cpp:100] Creating Layer prelu3_8_4_prelu3_8_4_0_split
I0203 12:09:29.505035 23304 net.cpp:434] prelu3_8_4_prelu3_8_4_0_split <- prelu3_8_4
I0203 12:09:29.505048 23304 net.cpp:408] prelu3_8_4_prelu3_8_4_0_split -> prelu3_8_4_prelu3_8_4_0_split_0
I0203 12:09:29.505062 23304 net.cpp:408] prelu3_8_4_prelu3_8_4_0_split -> prelu3_8_4_prelu3_8_4_0_split_1
I0203 12:09:29.505143 23304 net.cpp:150] Setting up prelu3_8_4_prelu3_8_4_0_split
I0203 12:09:29.505162 23304 net.cpp:157] Top shape: 16 128 15 15 (460800)
I0203 12:09:29.505172 23304 net.cpp:157] Top shape: 16 128 15 15 (460800)
I0203 12:09:29.505182 23304 net.cpp:165] Memory required for data: 340959232
I0203 12:09:29.505190 23304 layer_factory.hpp:77] Creating layer conv4_0_0
I0203 12:09:29.505209 23304 net.cpp:100] Creating Layer conv4_0_0
I0203 12:09:29.505220 23304 net.cpp:434] conv4_0_0 <- prelu3_8_4_prelu3_8_4_0_split_0
I0203 12:09:29.505237 23304 net.cpp:408] conv4_0_0 -> conv4_0_0
I0203 12:09:29.507378 23304 net.cpp:150] Setting up conv4_0_0
I0203 12:09:29.507405 23304 net.cpp:157] Top shape: 16 16 15 15 (57600)
I0203 12:09:29.507414 23304 net.cpp:165] Memory required for data: 341189632
I0203 12:09:29.507428 23304 layer_factory.hpp:77] Creating layer prelu4_0_0
I0203 12:09:29.507443 23304 net.cpp:100] Creating Layer prelu4_0_0
I0203 12:09:29.507453 23304 net.cpp:434] prelu4_0_0 <- conv4_0_0
I0203 12:09:29.507472 23304 net.cpp:408] prelu4_0_0 -> prelu4_0_0
I0203 12:09:29.507827 23304 net.cpp:150] Setting up prelu4_0_0
I0203 12:09:29.507850 23304 net.cpp:157] Top shape: 16 16 15 15 (57600)
I0203 12:09:29.507859 23304 net.cpp:165] Memory required for data: 341420032
I0203 12:09:29.507869 23304 layer_factory.hpp:77] Creating layer deconv4_0_1
I0203 12:09:29.507889 23304 net.cpp:100] Creating Layer deconv4_0_1
I0203 12:09:29.507910 23304 net.cpp:434] deconv4_0_1 <- prelu4_0_0
I0203 12:09:29.507936 23304 net.cpp:408] deconv4_0_1 -> deconv4_0_1
I0203 12:09:29.508419 23304 net.cpp:150] Setting up deconv4_0_1
I0203 12:09:29.508443 23304 net.cpp:157] Top shape: 16 16 30 30 (230400)
I0203 12:09:29.508452 23304 net.cpp:165] Memory required for data: 342341632
I0203 12:09:29.508466 23304 layer_factory.hpp:77] Creating layer bn4_0_1
I0203 12:09:29.508486 23304 net.cpp:100] Creating Layer bn4_0_1
I0203 12:09:29.508496 23304 net.cpp:434] bn4_0_1 <- deconv4_0_1
I0203 12:09:29.508512 23304 net.cpp:408] bn4_0_1 -> bn4_0_1
I0203 12:09:29.508993 23304 net.cpp:150] Setting up bn4_0_1
I0203 12:09:29.509016 23304 net.cpp:157] Top shape: 16 16 30 30 (230400)
I0203 12:09:29.509025 23304 net.cpp:165] Memory required for data: 343263232
I0203 12:09:29.509039 23304 layer_factory.hpp:77] Creating layer prelu4_0_1
I0203 12:09:29.509052 23304 net.cpp:100] Creating Layer prelu4_0_1
I0203 12:09:29.509061 23304 net.cpp:434] prelu4_0_1 <- bn4_0_1
I0203 12:09:29.509074 23304 net.cpp:408] prelu4_0_1 -> prelu4_0_1
I0203 12:09:29.510046 23304 net.cpp:150] Setting up prelu4_0_1
I0203 12:09:29.510072 23304 net.cpp:157] Top shape: 16 16 30 30 (230400)
I0203 12:09:29.510082 23304 net.cpp:165] Memory required for data: 344184832
I0203 12:09:29.510092 23304 layer_factory.hpp:77] Creating layer conv4_0_2
I0203 12:09:29.510114 23304 net.cpp:100] Creating Layer conv4_0_2
I0203 12:09:29.510125 23304 net.cpp:434] conv4_0_2 <- prelu4_0_1
I0203 12:09:29.510139 23304 net.cpp:408] conv4_0_2 -> conv4_0_2
I0203 12:09:29.512231 23304 net.cpp:150] Setting up conv4_0_2
I0203 12:09:29.512264 23304 net.cpp:157] Top shape: 16 64 30 30 (921600)
I0203 12:09:29.512275 23304 net.cpp:165] Memory required for data: 347871232
I0203 12:09:29.512290 23304 layer_factory.hpp:77] Creating layer conv4_0_4
I0203 12:09:29.512308 23304 net.cpp:100] Creating Layer conv4_0_4
I0203 12:09:29.512320 23304 net.cpp:434] conv4_0_4 <- prelu3_8_4_prelu3_8_4_0_split_1
I0203 12:09:29.512336 23304 net.cpp:408] conv4_0_4 -> conv4_0_4
I0203 12:09:29.514164 23304 net.cpp:150] Setting up conv4_0_4
I0203 12:09:29.514189 23304 net.cpp:157] Top shape: 16 64 15 15 (230400)
I0203 12:09:29.514199 23304 net.cpp:165] Memory required for data: 348792832
I0203 12:09:29.514214 23304 layer_factory.hpp:77] Creating layer upsample4_0_4
I0203 12:09:29.514228 23304 net.cpp:100] Creating Layer upsample4_0_4
I0203 12:09:29.514238 23304 net.cpp:434] upsample4_0_4 <- conv4_0_4
I0203 12:09:29.514250 23304 net.cpp:434] upsample4_0_4 <- pool2_0_4_mask
I0203 12:09:29.514266 23304 net.cpp:408] upsample4_0_4 -> upsample4_0_4
I0203 12:09:29.514287 23304 upsample_layer.cpp:27] Params 'pad_out_{}_' are deprecated. Please declare upsample height and width useing the upsample_h, upsample_w parameters.
I0203 12:09:29.514345 23304 net.cpp:150] Setting up upsample4_0_4
I0203 12:09:29.514364 23304 net.cpp:157] Top shape: 16 64 30 30 (921600)
I0203 12:09:29.514371 23304 net.cpp:165] Memory required for data: 352479232
I0203 12:09:29.514381 23304 layer_factory.hpp:77] Creating layer eltwise4_0_4
I0203 12:09:29.514392 23304 net.cpp:100] Creating Layer eltwise4_0_4
I0203 12:09:29.514402 23304 net.cpp:434] eltwise4_0_4 <- upsample4_0_4
I0203 12:09:29.514413 23304 net.cpp:434] eltwise4_0_4 <- conv4_0_2
I0203 12:09:29.514425 23304 net.cpp:408] eltwise4_0_4 -> eltwise4_0_4
I0203 12:09:29.514482 23304 net.cpp:150] Setting up eltwise4_0_4
I0203 12:09:29.514502 23304 net.cpp:157] Top shape: 16 64 30 30 (921600)
I0203 12:09:29.514510 23304 net.cpp:165] Memory required for data: 356165632
I0203 12:09:29.514519 23304 layer_factory.hpp:77] Creating layer prelu4_0_4
I0203 12:09:29.514534 23304 net.cpp:100] Creating Layer prelu4_0_4
I0203 12:09:29.514544 23304 net.cpp:434] prelu4_0_4 <- eltwise4_0_4
I0203 12:09:29.514556 23304 net.cpp:408] prelu4_0_4 -> prelu4_0_4
I0203 12:09:29.515565 23304 net.cpp:150] Setting up prelu4_0_4
I0203 12:09:29.515590 23304 net.cpp:157] Top shape: 16 64 30 30 (921600)
I0203 12:09:29.515600 23304 net.cpp:165] Memory required for data: 359852032
I0203 12:09:29.515617 23304 layer_factory.hpp:77] Creating layer prelu4_0_4_prelu4_0_4_0_split
I0203 12:09:29.515640 23304 net.cpp:100] Creating Layer prelu4_0_4_prelu4_0_4_0_split
I0203 12:09:29.515650 23304 net.cpp:434] prelu4_0_4_prelu4_0_4_0_split <- prelu4_0_4
I0203 12:09:29.515666 23304 net.cpp:408] prelu4_0_4_prelu4_0_4_0_split -> prelu4_0_4_prelu4_0_4_0_split_0
I0203 12:09:29.515682 23304 net.cpp:408] prelu4_0_4_prelu4_0_4_0_split -> prelu4_0_4_prelu4_0_4_0_split_1
I0203 12:09:29.515767 23304 net.cpp:150] Setting up prelu4_0_4_prelu4_0_4_0_split
I0203 12:09:29.515786 23304 net.cpp:157] Top shape: 16 64 30 30 (921600)
I0203 12:09:29.515797 23304 net.cpp:157] Top shape: 16 64 30 30 (921600)
I0203 12:09:29.515805 23304 net.cpp:165] Memory required for data: 367224832
I0203 12:09:29.515815 23304 layer_factory.hpp:77] Creating layer conv4_1_0
I0203 12:09:29.515835 23304 net.cpp:100] Creating Layer conv4_1_0
I0203 12:09:29.515846 23304 net.cpp:434] conv4_1_0 <- prelu4_0_4_prelu4_0_4_0_split_0
I0203 12:09:29.515858 23304 net.cpp:408] conv4_1_0 -> conv4_1_0
I0203 12:09:29.518009 23304 net.cpp:150] Setting up conv4_1_0
I0203 12:09:29.518035 23304 net.cpp:157] Top shape: 16 16 30 30 (230400)
I0203 12:09:29.518045 23304 net.cpp:165] Memory required for data: 368146432
I0203 12:09:29.518059 23304 layer_factory.hpp:77] Creating layer prelu4_1_0
I0203 12:09:29.518074 23304 net.cpp:100] Creating Layer prelu4_1_0
I0203 12:09:29.518084 23304 net.cpp:434] prelu4_1_0 <- conv4_1_0
I0203 12:09:29.518096 23304 net.cpp:408] prelu4_1_0 -> prelu4_1_0
I0203 12:09:29.518440 23304 net.cpp:150] Setting up prelu4_1_0
I0203 12:09:29.518465 23304 net.cpp:157] Top shape: 16 16 30 30 (230400)
I0203 12:09:29.518473 23304 net.cpp:165] Memory required for data: 369068032
I0203 12:09:29.518483 23304 layer_factory.hpp:77] Creating layer conv4_1_1
I0203 12:09:29.518502 23304 net.cpp:100] Creating Layer conv4_1_1
I0203 12:09:29.518513 23304 net.cpp:434] conv4_1_1 <- prelu4_1_0
I0203 12:09:29.518527 23304 net.cpp:408] conv4_1_1 -> conv4_1_1
I0203 12:09:29.520756 23304 net.cpp:150] Setting up conv4_1_1
I0203 12:09:29.520782 23304 net.cpp:157] Top shape: 16 16 30 30 (230400)
I0203 12:09:29.520792 23304 net.cpp:165] Memory required for data: 369989632
I0203 12:09:29.520807 23304 layer_factory.hpp:77] Creating layer prelu4_1_1
I0203 12:09:29.520825 23304 net.cpp:100] Creating Layer prelu4_1_1
I0203 12:09:29.520838 23304 net.cpp:434] prelu4_1_1 <- conv4_1_1
I0203 12:09:29.520850 23304 net.cpp:408] prelu4_1_1 -> prelu4_1_1
I0203 12:09:29.521191 23304 net.cpp:150] Setting up prelu4_1_1
I0203 12:09:29.521215 23304 net.cpp:157] Top shape: 16 16 30 30 (230400)
I0203 12:09:29.521224 23304 net.cpp:165] Memory required for data: 370911232
I0203 12:09:29.521234 23304 layer_factory.hpp:77] Creating layer conv4_1_2
I0203 12:09:29.521255 23304 net.cpp:100] Creating Layer conv4_1_2
I0203 12:09:29.521266 23304 net.cpp:434] conv4_1_2 <- prelu4_1_1
I0203 12:09:29.521281 23304 net.cpp:408] conv4_1_2 -> conv4_1_2
I0203 12:09:29.523427 23304 net.cpp:150] Setting up conv4_1_2
I0203 12:09:29.523458 23304 net.cpp:157] Top shape: 16 64 30 30 (921600)
I0203 12:09:29.523468 23304 net.cpp:165] Memory required for data: 374597632
I0203 12:09:29.523483 23304 layer_factory.hpp:77] Creating layer eltwise4_1_4
I0203 12:09:29.523499 23304 net.cpp:100] Creating Layer eltwise4_1_4
I0203 12:09:29.523509 23304 net.cpp:434] eltwise4_1_4 <- prelu4_0_4_prelu4_0_4_0_split_1
I0203 12:09:29.523521 23304 net.cpp:434] eltwise4_1_4 <- conv4_1_2
I0203 12:09:29.523535 23304 net.cpp:408] eltwise4_1_4 -> eltwise4_1_4
I0203 12:09:29.523597 23304 net.cpp:150] Setting up eltwise4_1_4
I0203 12:09:29.523614 23304 net.cpp:157] Top shape: 16 64 30 30 (921600)
I0203 12:09:29.523623 23304 net.cpp:165] Memory required for data: 378284032
I0203 12:09:29.523633 23304 layer_factory.hpp:77] Creating layer prelu4_1_4
I0203 12:09:29.523644 23304 net.cpp:100] Creating Layer prelu4_1_4
I0203 12:09:29.523654 23304 net.cpp:434] prelu4_1_4 <- eltwise4_1_4
I0203 12:09:29.523670 23304 net.cpp:408] prelu4_1_4 -> prelu4_1_4
I0203 12:09:29.524020 23304 net.cpp:150] Setting up prelu4_1_4
I0203 12:09:29.524055 23304 net.cpp:157] Top shape: 16 64 30 30 (921600)
I0203 12:09:29.524065 23304 net.cpp:165] Memory required for data: 381970432
I0203 12:09:29.524075 23304 layer_factory.hpp:77] Creating layer prelu4_1_4_prelu4_1_4_0_split
I0203 12:09:29.524087 23304 net.cpp:100] Creating Layer prelu4_1_4_prelu4_1_4_0_split
I0203 12:09:29.524097 23304 net.cpp:434] prelu4_1_4_prelu4_1_4_0_split <- prelu4_1_4
I0203 12:09:29.524113 23304 net.cpp:408] prelu4_1_4_prelu4_1_4_0_split -> prelu4_1_4_prelu4_1_4_0_split_0
I0203 12:09:29.524129 23304 net.cpp:408] prelu4_1_4_prelu4_1_4_0_split -> prelu4_1_4_prelu4_1_4_0_split_1
I0203 12:09:29.524212 23304 net.cpp:150] Setting up prelu4_1_4_prelu4_1_4_0_split
I0203 12:09:29.524231 23304 net.cpp:157] Top shape: 16 64 30 30 (921600)
I0203 12:09:29.524242 23304 net.cpp:157] Top shape: 16 64 30 30 (921600)
I0203 12:09:29.524250 23304 net.cpp:165] Memory required for data: 389343232
I0203 12:09:29.524260 23304 layer_factory.hpp:77] Creating layer conv4_2_0
I0203 12:09:29.524278 23304 net.cpp:100] Creating Layer conv4_2_0
I0203 12:09:29.524289 23304 net.cpp:434] conv4_2_0 <- prelu4_1_4_prelu4_1_4_0_split_0
I0203 12:09:29.524304 23304 net.cpp:408] conv4_2_0 -> conv4_2_0
I0203 12:09:29.526468 23304 net.cpp:150] Setting up conv4_2_0
I0203 12:09:29.526494 23304 net.cpp:157] Top shape: 16 16 30 30 (230400)
I0203 12:09:29.526504 23304 net.cpp:165] Memory required for data: 390264832
I0203 12:09:29.526518 23304 layer_factory.hpp:77] Creating layer prelu4_2_0
I0203 12:09:29.526535 23304 net.cpp:100] Creating Layer prelu4_2_0
I0203 12:09:29.526546 23304 net.cpp:434] prelu4_2_0 <- conv4_2_0
I0203 12:09:29.526558 23304 net.cpp:408] prelu4_2_0 -> prelu4_2_0
I0203 12:09:29.526906 23304 net.cpp:150] Setting up prelu4_2_0
I0203 12:09:29.526931 23304 net.cpp:157] Top shape: 16 16 30 30 (230400)
I0203 12:09:29.526939 23304 net.cpp:165] Memory required for data: 391186432
I0203 12:09:29.526949 23304 layer_factory.hpp:77] Creating layer conv4_2_1
I0203 12:09:29.526970 23304 net.cpp:100] Creating Layer conv4_2_1
I0203 12:09:29.526983 23304 net.cpp:434] conv4_2_1 <- prelu4_2_0
I0203 12:09:29.526996 23304 net.cpp:408] conv4_2_1 -> conv4_2_1
I0203 12:09:29.529209 23304 net.cpp:150] Setting up conv4_2_1
I0203 12:09:29.529235 23304 net.cpp:157] Top shape: 16 16 30 30 (230400)
I0203 12:09:29.529245 23304 net.cpp:165] Memory required for data: 392108032
I0203 12:09:29.529260 23304 layer_factory.hpp:77] Creating layer prelu4_2_1
I0203 12:09:29.529276 23304 net.cpp:100] Creating Layer prelu4_2_1
I0203 12:09:29.529287 23304 net.cpp:434] prelu4_2_1 <- conv4_2_1
I0203 12:09:29.529300 23304 net.cpp:408] prelu4_2_1 -> prelu4_2_1
I0203 12:09:29.530294 23304 net.cpp:150] Setting up prelu4_2_1
I0203 12:09:29.530320 23304 net.cpp:157] Top shape: 16 16 30 30 (230400)
I0203 12:09:29.530329 23304 net.cpp:165] Memory required for data: 393029632
I0203 12:09:29.530339 23304 layer_factory.hpp:77] Creating layer conv4_2_2
I0203 12:09:29.530359 23304 net.cpp:100] Creating Layer conv4_2_2
I0203 12:09:29.530371 23304 net.cpp:434] conv4_2_2 <- prelu4_2_1
I0203 12:09:29.530388 23304 net.cpp:408] conv4_2_2 -> conv4_2_2
I0203 12:09:29.531937 23304 net.cpp:150] Setting up conv4_2_2
I0203 12:09:29.531961 23304 net.cpp:157] Top shape: 16 64 30 30 (921600)
I0203 12:09:29.531971 23304 net.cpp:165] Memory required for data: 396716032
I0203 12:09:29.531985 23304 layer_factory.hpp:77] Creating layer eltwise4_2_4
I0203 12:09:29.531999 23304 net.cpp:100] Creating Layer eltwise4_2_4
I0203 12:09:29.532009 23304 net.cpp:434] eltwise4_2_4 <- prelu4_1_4_prelu4_1_4_0_split_1
I0203 12:09:29.532021 23304 net.cpp:434] eltwise4_2_4 <- conv4_2_2
I0203 12:09:29.532037 23304 net.cpp:408] eltwise4_2_4 -> eltwise4_2_4
I0203 12:09:29.532097 23304 net.cpp:150] Setting up eltwise4_2_4
I0203 12:09:29.532116 23304 net.cpp:157] Top shape: 16 64 30 30 (921600)
I0203 12:09:29.532125 23304 net.cpp:165] Memory required for data: 400402432
I0203 12:09:29.532135 23304 layer_factory.hpp:77] Creating layer prelu4_2_4
I0203 12:09:29.532153 23304 net.cpp:100] Creating Layer prelu4_2_4
I0203 12:09:29.532174 23304 net.cpp:434] prelu4_2_4 <- eltwise4_2_4
I0203 12:09:29.532187 23304 net.cpp:408] prelu4_2_4 -> prelu4_2_4
I0203 12:09:29.533205 23304 net.cpp:150] Setting up prelu4_2_4
I0203 12:09:29.533233 23304 net.cpp:157] Top shape: 16 64 30 30 (921600)
I0203 12:09:29.533244 23304 net.cpp:165] Memory required for data: 404088832
I0203 12:09:29.533254 23304 layer_factory.hpp:77] Creating layer prelu4_2_4_prelu4_2_4_0_split
I0203 12:09:29.533267 23304 net.cpp:100] Creating Layer prelu4_2_4_prelu4_2_4_0_split
I0203 12:09:29.533277 23304 net.cpp:434] prelu4_2_4_prelu4_2_4_0_split <- prelu4_2_4
I0203 12:09:29.533293 23304 net.cpp:408] prelu4_2_4_prelu4_2_4_0_split -> prelu4_2_4_prelu4_2_4_0_split_0
I0203 12:09:29.533308 23304 net.cpp:408] prelu4_2_4_prelu4_2_4_0_split -> prelu4_2_4_prelu4_2_4_0_split_1
I0203 12:09:29.533390 23304 net.cpp:150] Setting up prelu4_2_4_prelu4_2_4_0_split
I0203 12:09:29.533411 23304 net.cpp:157] Top shape: 16 64 30 30 (921600)
I0203 12:09:29.533423 23304 net.cpp:157] Top shape: 16 64 30 30 (921600)
I0203 12:09:29.533432 23304 net.cpp:165] Memory required for data: 411461632
I0203 12:09:29.533442 23304 layer_factory.hpp:77] Creating layer conv5_0_0
I0203 12:09:29.533457 23304 net.cpp:100] Creating Layer conv5_0_0
I0203 12:09:29.533468 23304 net.cpp:434] conv5_0_0 <- prelu4_2_4_prelu4_2_4_0_split_0
I0203 12:09:29.533485 23304 net.cpp:408] conv5_0_0 -> conv5_0_0
I0203 12:09:29.535527 23304 net.cpp:150] Setting up conv5_0_0
I0203 12:09:29.535557 23304 net.cpp:157] Top shape: 16 4 30 30 (57600)
I0203 12:09:29.535568 23304 net.cpp:165] Memory required for data: 411692032
I0203 12:09:29.535583 23304 layer_factory.hpp:77] Creating layer prelu5_0_0
I0203 12:09:29.535600 23304 net.cpp:100] Creating Layer prelu5_0_0
I0203 12:09:29.535611 23304 net.cpp:434] prelu5_0_0 <- conv5_0_0
I0203 12:09:29.535624 23304 net.cpp:408] prelu5_0_0 -> prelu5_0_0
I0203 12:09:29.535969 23304 net.cpp:150] Setting up prelu5_0_0
I0203 12:09:29.535992 23304 net.cpp:157] Top shape: 16 4 30 30 (57600)
I0203 12:09:29.536002 23304 net.cpp:165] Memory required for data: 411922432
I0203 12:09:29.536011 23304 layer_factory.hpp:77] Creating layer deconv5_0_1
I0203 12:09:29.536029 23304 net.cpp:100] Creating Layer deconv5_0_1
I0203 12:09:29.536039 23304 net.cpp:434] deconv5_0_1 <- prelu5_0_0
I0203 12:09:29.536056 23304 net.cpp:408] deconv5_0_1 -> deconv5_0_1
I0203 12:09:29.536537 23304 net.cpp:150] Setting up deconv5_0_1
I0203 12:09:29.536559 23304 net.cpp:157] Top shape: 16 4 60 60 (230400)
I0203 12:09:29.536568 23304 net.cpp:165] Memory required for data: 412844032
I0203 12:09:29.536582 23304 layer_factory.hpp:77] Creating layer bn5_0_1
I0203 12:09:29.536602 23304 net.cpp:100] Creating Layer bn5_0_1
I0203 12:09:29.536613 23304 net.cpp:434] bn5_0_1 <- deconv5_0_1
I0203 12:09:29.536626 23304 net.cpp:408] bn5_0_1 -> bn5_0_1
I0203 12:09:29.537109 23304 net.cpp:150] Setting up bn5_0_1
I0203 12:09:29.537134 23304 net.cpp:157] Top shape: 16 4 60 60 (230400)
I0203 12:09:29.537143 23304 net.cpp:165] Memory required for data: 413765632
I0203 12:09:29.537158 23304 layer_factory.hpp:77] Creating layer prelu5_0_1
I0203 12:09:29.537171 23304 net.cpp:100] Creating Layer prelu5_0_1
I0203 12:09:29.537180 23304 net.cpp:434] prelu5_0_1 <- bn5_0_1
I0203 12:09:29.537194 23304 net.cpp:408] prelu5_0_1 -> prelu5_0_1
I0203 12:09:29.537533 23304 net.cpp:150] Setting up prelu5_0_1
I0203 12:09:29.537555 23304 net.cpp:157] Top shape: 16 4 60 60 (230400)
I0203 12:09:29.537565 23304 net.cpp:165] Memory required for data: 414687232
I0203 12:09:29.537575 23304 layer_factory.hpp:77] Creating layer conv5_0_2
I0203 12:09:29.537595 23304 net.cpp:100] Creating Layer conv5_0_2
I0203 12:09:29.537606 23304 net.cpp:434] conv5_0_2 <- prelu5_0_1
I0203 12:09:29.537623 23304 net.cpp:408] conv5_0_2 -> conv5_0_2
I0203 12:09:29.539700 23304 net.cpp:150] Setting up conv5_0_2
I0203 12:09:29.539726 23304 net.cpp:157] Top shape: 16 16 60 60 (921600)
I0203 12:09:29.539736 23304 net.cpp:165] Memory required for data: 418373632
I0203 12:09:29.539757 23304 layer_factory.hpp:77] Creating layer conv5_0_4
I0203 12:09:29.539791 23304 net.cpp:100] Creating Layer conv5_0_4
I0203 12:09:29.539803 23304 net.cpp:434] conv5_0_4 <- prelu4_2_4_prelu4_2_4_0_split_1
I0203 12:09:29.539819 23304 net.cpp:408] conv5_0_4 -> conv5_0_4
I0203 12:09:29.542611 23304 net.cpp:150] Setting up conv5_0_4
I0203 12:09:29.542639 23304 net.cpp:157] Top shape: 16 16 30 30 (230400)
I0203 12:09:29.542649 23304 net.cpp:165] Memory required for data: 419295232
I0203 12:09:29.542663 23304 layer_factory.hpp:77] Creating layer upsample5_0_4
I0203 12:09:29.542680 23304 net.cpp:100] Creating Layer upsample5_0_4
I0203 12:09:29.542691 23304 net.cpp:434] upsample5_0_4 <- conv5_0_4
I0203 12:09:29.542702 23304 net.cpp:434] upsample5_0_4 <- pool1_0_4_mask
I0203 12:09:29.542716 23304 net.cpp:408] upsample5_0_4 -> upsample5_0_4
I0203 12:09:29.542764 23304 upsample_layer.cpp:27] Params 'pad_out_{}_' are deprecated. Please declare upsample height and width useing the upsample_h, upsample_w parameters.
I0203 12:09:29.542824 23304 net.cpp:150] Setting up upsample5_0_4
I0203 12:09:29.542845 23304 net.cpp:157] Top shape: 16 16 60 60 (921600)
I0203 12:09:29.542855 23304 net.cpp:165] Memory required for data: 422981632
I0203 12:09:29.542865 23304 layer_factory.hpp:77] Creating layer eltwise5_0_4
I0203 12:09:29.542877 23304 net.cpp:100] Creating Layer eltwise5_0_4
I0203 12:09:29.542887 23304 net.cpp:434] eltwise5_0_4 <- upsample5_0_4
I0203 12:09:29.542898 23304 net.cpp:434] eltwise5_0_4 <- conv5_0_2
I0203 12:09:29.542910 23304 net.cpp:408] eltwise5_0_4 -> eltwise5_0_4
I0203 12:09:29.542970 23304 net.cpp:150] Setting up eltwise5_0_4
I0203 12:09:29.542989 23304 net.cpp:157] Top shape: 16 16 60 60 (921600)
I0203 12:09:29.542999 23304 net.cpp:165] Memory required for data: 426668032
I0203 12:09:29.543007 23304 layer_factory.hpp:77] Creating layer prelu5_0_4
I0203 12:09:29.543022 23304 net.cpp:100] Creating Layer prelu5_0_4
I0203 12:09:29.543032 23304 net.cpp:434] prelu5_0_4 <- eltwise5_0_4
I0203 12:09:29.543045 23304 net.cpp:408] prelu5_0_4 -> prelu5_0_4
I0203 12:09:29.543391 23304 net.cpp:150] Setting up prelu5_0_4
I0203 12:09:29.543414 23304 net.cpp:157] Top shape: 16 16 60 60 (921600)
I0203 12:09:29.543423 23304 net.cpp:165] Memory required for data: 430354432
I0203 12:09:29.543433 23304 layer_factory.hpp:77] Creating layer prelu5_0_4_prelu5_0_4_0_split
I0203 12:09:29.543450 23304 net.cpp:100] Creating Layer prelu5_0_4_prelu5_0_4_0_split
I0203 12:09:29.543460 23304 net.cpp:434] prelu5_0_4_prelu5_0_4_0_split <- prelu5_0_4
I0203 12:09:29.543473 23304 net.cpp:408] prelu5_0_4_prelu5_0_4_0_split -> prelu5_0_4_prelu5_0_4_0_split_0
I0203 12:09:29.543488 23304 net.cpp:408] prelu5_0_4_prelu5_0_4_0_split -> prelu5_0_4_prelu5_0_4_0_split_1
I0203 12:09:29.543572 23304 net.cpp:150] Setting up prelu5_0_4_prelu5_0_4_0_split
I0203 12:09:29.543591 23304 net.cpp:157] Top shape: 16 16 60 60 (921600)
I0203 12:09:29.543602 23304 net.cpp:157] Top shape: 16 16 60 60 (921600)
I0203 12:09:29.543611 23304 net.cpp:165] Memory required for data: 437727232
I0203 12:09:29.543620 23304 layer_factory.hpp:77] Creating layer conv5_1_0
I0203 12:09:29.543643 23304 net.cpp:100] Creating Layer conv5_1_0
I0203 12:09:29.543654 23304 net.cpp:434] conv5_1_0 <- prelu5_0_4_prelu5_0_4_0_split_0
I0203 12:09:29.543671 23304 net.cpp:408] conv5_1_0 -> conv5_1_0
I0203 12:09:29.545796 23304 net.cpp:150] Setting up conv5_1_0
I0203 12:09:29.545826 23304 net.cpp:157] Top shape: 16 4 60 60 (230400)
I0203 12:09:29.545837 23304 net.cpp:165] Memory required for data: 438648832
I0203 12:09:29.545852 23304 layer_factory.hpp:77] Creating layer prelu5_1_0
I0203 12:09:29.545869 23304 net.cpp:100] Creating Layer prelu5_1_0
I0203 12:09:29.545881 23304 net.cpp:434] prelu5_1_0 <- conv5_1_0
I0203 12:09:29.545893 23304 net.cpp:408] prelu5_1_0 -> prelu5_1_0
I0203 12:09:29.546234 23304 net.cpp:150] Setting up prelu5_1_0
I0203 12:09:29.546258 23304 net.cpp:157] Top shape: 16 4 60 60 (230400)
I0203 12:09:29.546267 23304 net.cpp:165] Memory required for data: 439570432
I0203 12:09:29.546284 23304 layer_factory.hpp:77] Creating layer conv5_1_1
I0203 12:09:29.546313 23304 net.cpp:100] Creating Layer conv5_1_1
I0203 12:09:29.546324 23304 net.cpp:434] conv5_1_1 <- prelu5_1_0
I0203 12:09:29.546341 23304 net.cpp:408] conv5_1_1 -> conv5_1_1
I0203 12:09:29.548406 23304 net.cpp:150] Setting up conv5_1_1
I0203 12:09:29.548432 23304 net.cpp:157] Top shape: 16 4 60 60 (230400)
I0203 12:09:29.548442 23304 net.cpp:165] Memory required for data: 440492032
I0203 12:09:29.548456 23304 layer_factory.hpp:77] Creating layer prelu5_1_1
I0203 12:09:29.548473 23304 net.cpp:100] Creating Layer prelu5_1_1
I0203 12:09:29.548485 23304 net.cpp:434] prelu5_1_1 <- conv5_1_1
I0203 12:09:29.548497 23304 net.cpp:408] prelu5_1_1 -> prelu5_1_1
I0203 12:09:29.549527 23304 net.cpp:150] Setting up prelu5_1_1
I0203 12:09:29.549553 23304 net.cpp:157] Top shape: 16 4 60 60 (230400)
I0203 12:09:29.549562 23304 net.cpp:165] Memory required for data: 441413632
I0203 12:09:29.549572 23304 layer_factory.hpp:77] Creating layer conv5_1_2
I0203 12:09:29.549592 23304 net.cpp:100] Creating Layer conv5_1_2
I0203 12:09:29.549604 23304 net.cpp:434] conv5_1_2 <- prelu5_1_1
I0203 12:09:29.549621 23304 net.cpp:408] conv5_1_2 -> conv5_1_2
I0203 12:09:29.551064 23304 net.cpp:150] Setting up conv5_1_2
I0203 12:09:29.551087 23304 net.cpp:157] Top shape: 16 16 60 60 (921600)
I0203 12:09:29.551097 23304 net.cpp:165] Memory required for data: 445100032
I0203 12:09:29.551112 23304 layer_factory.hpp:77] Creating layer eltwise5_1_4
I0203 12:09:29.551126 23304 net.cpp:100] Creating Layer eltwise5_1_4
I0203 12:09:29.551136 23304 net.cpp:434] eltwise5_1_4 <- prelu5_0_4_prelu5_0_4_0_split_1
I0203 12:09:29.551147 23304 net.cpp:434] eltwise5_1_4 <- conv5_1_2
I0203 12:09:29.551159 23304 net.cpp:408] eltwise5_1_4 -> eltwise5_1_4
I0203 12:09:29.551221 23304 net.cpp:150] Setting up eltwise5_1_4
I0203 12:09:29.551240 23304 net.cpp:157] Top shape: 16 16 60 60 (921600)
I0203 12:09:29.551249 23304 net.cpp:165] Memory required for data: 448786432
I0203 12:09:29.551259 23304 layer_factory.hpp:77] Creating layer prelu5_1_4
I0203 12:09:29.551273 23304 net.cpp:100] Creating Layer prelu5_1_4
I0203 12:09:29.551283 23304 net.cpp:434] prelu5_1_4 <- eltwise5_1_4
I0203 12:09:29.551296 23304 net.cpp:408] prelu5_1_4 -> prelu5_1_4
I0203 12:09:29.552256 23304 net.cpp:150] Setting up prelu5_1_4
I0203 12:09:29.552281 23304 net.cpp:157] Top shape: 16 16 60 60 (921600)
I0203 12:09:29.552291 23304 net.cpp:165] Memory required for data: 452472832
I0203 12:09:29.552301 23304 layer_factory.hpp:77] Creating layer deconv6_0_0
I0203 12:09:29.552320 23304 net.cpp:100] Creating Layer deconv6_0_0
I0203 12:09:29.552330 23304 net.cpp:434] deconv6_0_0 <- prelu5_1_4
I0203 12:09:29.552346 23304 net.cpp:408] deconv6_0_0 -> deconv6_0_0
I0203 12:09:29.552881 23304 net.cpp:150] Setting up deconv6_0_0
I0203 12:09:29.552906 23304 net.cpp:157] Top shape: 16 17 120 120 (3916800)
I0203 12:09:29.552914 23304 net.cpp:165] Memory required for data: 468140032
I0203 12:09:29.552929 23304 layer_factory.hpp:77] Creating layer accuracy
I0203 12:09:29.552951 23304 net.cpp:100] Creating Layer accuracy
I0203 12:09:29.552963 23304 net.cpp:434] accuracy <- deconv6_0_0
I0203 12:09:29.552973 23304 net.cpp:434] accuracy <- label
I0203 12:09:29.552992 23304 net.cpp:408] accuracy -> accuracy
I0203 12:09:29.553009 23304 net.cpp:408] accuracy -> per_class_accuracy
I0203 12:09:29.553097 23304 net.cpp:150] Setting up accuracy
I0203 12:09:29.553117 23304 net.cpp:157] Top shape: (1)
I0203 12:09:29.553128 23304 net.cpp:157] Top shape: 17 (17)
I0203 12:09:29.553135 23304 net.cpp:165] Memory required for data: 468140104
I0203 12:09:29.553145 23304 net.cpp:228] accuracy does not need backward computation.
I0203 12:09:29.553154 23304 net.cpp:228] deconv6_0_0 does not need backward computation.
I0203 12:09:29.553164 23304 net.cpp:228] prelu5_1_4 does not need backward computation.
I0203 12:09:29.553172 23304 net.cpp:228] eltwise5_1_4 does not need backward computation.
…
