…
20:12.392664  9437 caffe.cpp:270] Use GPU with device ID 0
I0204 20:20:12.434103  9437 caffe.cpp:274] GPU device name: TITAN Xp
I0204 20:20:13.003612  9437 net.cpp:58] Initializing net from parameters: 
name: "ENet"
state {
  phase: TEST
  level: 0
  stage: ""
}
layer {
  name: "data"
  type: "DenseImageData"
  top: "data"
  top: "label"
  dense_image_data_param {
    source: "/home/newuser/carmen_lcad/src/road_mapper/guarapari3_test.txt"
    batch_size: 16
    shuffle: false
    new_height: 120
    new_width: 120
    label_divide_factor: 1
  }
}
layer {
  name: "conv0_1"
  type: "Convolution"
  bottom: "data"
  top: "conv0_1"
  convolution_param {
    num_output: 13
    bias_term: true
    pad: 1
    kernel_size: 3
    stride: 2
    weight_filler {
      type: "msra"
    }
  }
}
layer {
  name: "pool0_1"
  type: "Pooling"
  bottom: "data"
  top: "pool0_1"
  pooling_param {
    pool: MAX
    kernel_size: 2
    stride: 2
  }
}
layer {
  name: "concat0_1"
  type: "Concat"
  bottom: "conv0_1"
  bottom: "pool0_1"
  top: "concat0_1"
  concat_param {
    axis: 1
  }
}
layer {
  name: "bn0_1"
  type: "BN"
  bottom: "concat0_1"
  top: "bn0_1"
  param {
    lr_mult: 1
    decay_mult: 1
  }
  param {
    lr_mult: 1
    decay_mult: 0
  }
  bn_param {
    scale_filler {
      type: "constant"
      value: 1
    }
    shift_filler {
      type: "constant"
      value: 0.001
    }
    bn_mode: INFERENCE
  }
}
layer {
  name: "prelu0_1"
  type: "PReLU"
  bottom: "bn0_1"
  top: "prelu0_1"
}
layer {
  name: "conv1_0_0"
  type: "Convolution"
  bottom: "prelu0_1"
  top: "conv1_0_0"
  convolution_param {
    num_output: 16
    bias_term: true
    kernel_size: 2
    stride: 2
    weight_filler {
      type: "msra"
    }
    bias_filler {
      type: "constant"
      value: 0
    }
  }
}
layer {
  name: "prelu1_0_0"
  type: "PReLU"
  bottom: "conv1_0_0"
  top: "prelu1_0_0"
}
layer {
  name: "conv1_0_1"
  type: "Convolution"
  bottom: "prelu1_0_0"
  top: "conv1_0_1"
  convolution_param {
    num_output: 16
    bias_term: true
    pad: 1
    kernel_size: 3
    stride: 1
    weight_filler {
      type: "msra"
    }
  }
}
layer {
  name: "prelu1_0_1"
  type: "PReLU"
  bottom: "conv1_0_1"
  top: "prelu1_0_1"
}
layer {
  name: "conv1_0_2"
  type: "Convolution"
  bottom: "prelu1_0_1"
  top: "conv1_0_2"
  convolution_param {
    num_output: 64
    bias_term: true
    kernel_size: 1
    stride: 1
    weight_filler {
      type: "msra"
    }
    bias_filler {
      type: "constant"
      value: 0
    }
  }
}
layer {
  name: "pool1_0_4"
  type: "Pooling"
  bottom: "prelu0_1"
  top: "pool1_0_4"
  top: "pool1_0_4_mask"
  pooling_param {
    pool: MAX
    kernel_size: 2
    stride: 2
  }
}
layer {
  name: "conv1_0_4"
  type: "Convolution"
  bottom: "pool1_0_4"
  top: "conv1_0_4"
  convolution_param {
    num_output: 64
    bias_term: true
    kernel_size: 1
    stride: 1
    weight_filler {
      type: "msra"
    }
    bias_filler {
      type: "constant"
      value: 0
    }
  }
}
layer {
  name: "eltwise1_0_4"
  type: "Eltwise"
  bottom: "conv1_0_4"
  bottom: "conv1_0_2"
  top: "eltwise1_0_4"
}
layer {
  name: "prelu1_0_4"
  type: "PReLU"
  bottom: "eltwise1_0_4"
  top: "prelu1_0_4"
}
layer {
  name: "conv1_1_0"
  type: "Convolution"
  bottom: "prelu1_0_4"
  top: "conv1_1_0"
  convolution_param {
    num_output: 16
    bias_term: true
    kernel_size: 1
    stride: 1
    weight_filler {
      type: "msra"
    }
    bias_filler {
      type: "constant"
      value: 0
    }
  }
}
layer {
  name: "prelu1_1_0"
  type: "PReLU"
  bottom: "conv1_1_0"
  top: "prelu1_1_0"
}
layer {
  name: "conv1_1_1"
  type: "Convolution"
  bottom: "prelu1_1_0"
  top: "conv1_1_1"
  convolution_param {
    num_output: 16
    bias_term: true
    pad: 1
    kernel_size: 3
    stride: 1
    weight_filler {
      type: "msra"
    }
  }
}
layer {
  name: "prelu1_1_1"
  type: "PReLU"
  bottom: "conv1_1_1"
  top: "prelu1_1_1"
}
layer {
  name: "conv1_1_2"
  type: "Convolution"
  bottom: "prelu1_1_1"
  top: "conv1_1_2"
  convolution_param {
    num_output: 64
    bias_term: true
    kernel_size: 1
    stride: 1
    weight_filler {
      type: "msra"
    }
    bias_filler {
      type: "constant"
      value: 0
    }
  }
}
layer {
  name: "eltwise1_1_4"
  type: "Eltwise"
  bottom: "prelu1_0_4"
  bottom: "conv1_1_2"
  top: "eltwise1_1_4"
}
layer {
  name: "prelu1_1_4"
  type: "PReLU"
  bottom: "eltwise1_1_4"
  top: "prelu1_1_4"
}
layer {
  name: "conv1_2_0"
  type: "Convolution"
  bottom: "prelu1_1_4"
  top: "conv1_2_0"
  convolution_param {
    num_output: 16
    bias_term: true
    kernel_size: 1
    stride: 1
    weight_filler {
      type: "msra"
    }
    bias_filler {
      type: "constant"
      value: 0
    }
  }
}
layer {
  name: "prelu1_2_0"
  type: "PReLU"
  bottom: "conv1_2_0"
  top: "prelu1_2_0"
}
layer {
  name: "conv1_2_1"
  type: "Convolution"
  bottom: "prelu1_2_0"
  top: "conv1_2_1"
  convolution_param {
    num_output: 16
    bias_term: true
    pad: 1
    kernel_size: 3
    stride: 1
    weight_filler {
      type: "msra"
    }
  }
}
layer {
  name: "prelu1_2_1"
  type: "PReLU"
  bottom: "conv1_2_1"
  top: "prelu1_2_1"
}
layer {
  name: "conv1_2_2"
  type: "Convolution"
  bottom: "prelu1_2_1"
  top: "conv1_2_2"
  convolution_param {
    num_output: 64
    bias_term: true
    kernel_size: 1
    stride: 1
    weight_filler {
      type: "msra"
    }
    bias_filler {
      type: "constant"
      value: 0
    }
  }
}
layer {
  name: "eltwise1_2_4"
  type: "Eltwise"
  bottom: "prelu1_1_4"
  bottom: "conv1_2_2"
  top: "eltwise1_2_4"
}
layer {
  name: "prelu1_2_4"
  type: "PReLU"
  bottom: "eltwise1_2_4"
  top: "prelu1_2_4"
}
layer {
  name: "conv1_3_0"
  type: "Convolution"
  bottom: "prelu1_2_4"
  top: "conv1_3_0"
  convolution_param {
    num_output: 16
    bias_term: true
    kernel_size: 1
    stride: 1
    weight_filler {
      type: "msra"
    }
    bias_filler {
      type: "constant"
      value: 0
    }
  }
}
layer {
  name: "prelu1_3_0"
  type: "PReLU"
  bottom: "conv1_3_0"
  top: "prelu1_3_0"
}
layer {
  name: "conv1_3_1"
  type: "Convolution"
  bottom: "prelu1_3_0"
  top: "conv1_3_1"
  convolution_param {
    num_output: 16
    bias_term: true
    pad: 1
    kernel_size: 3
    stride: 1
    weight_filler {
      type: "msra"
    }
  }
}
layer {
  name: "prelu1_3_1"
  type: "PReLU"
  bottom: "conv1_3_1"
  top: "prelu1_3_1"
}
layer {
  name: "conv1_3_2"
  type: "Convolution"
  bottom: "prelu1_3_1"
  top: "conv1_3_2"
  convolution_param {
    num_output: 64
    bias_term: true
    kernel_size: 1
    stride: 1
    weight_filler {
      type: "msra"
    }
    bias_filler {
      type: "constant"
      value: 0
    }
  }
}
layer {
  name: "eltwise1_3_4"
  type: "Eltwise"
  bottom: "prelu1_2_4"
  bottom: "conv1_3_2"
  top: "eltwise1_3_4"
}
layer {
  name: "prelu1_3_4"
  type: "PReLU"
  bottom: "eltwise1_3_4"
  top: "prelu1_3_4"
}
layer {
  name: "conv1_4_0"
  type: "Convolution"
  bottom: "prelu1_3_4"
  top: "conv1_4_0"
  convolution_param {
    num_output: 16
    bias_term: true
    kernel_size: 1
    stride: 1
    weight_filler {
      type: "msra"
    }
    bias_filler {
      type: "constant"
      value: 0
    }
  }
}
layer {
  name: "prelu1_4_0"
  type: "PReLU"
  bottom: "conv1_4_0"
  top: "prelu1_4_0"
}
layer {
  name: "conv1_4_1"
  type: "Convolution"
  bottom: "prelu1_4_0"
  top: "conv1_4_1"
  convolution_param {
    num_output: 16
    bias_term: true
    pad: 1
    kernel_size: 3
    stride: 1
    weight_filler {
      type: "msra"
    }
  }
}
layer {
  name: "prelu1_4_1"
  type: "PReLU"
  bottom: "conv1_4_1"
  top: "prelu1_4_1"
}
layer {
  name: "conv1_4_2"
  type: "Convolution"
  bottom: "prelu1_4_1"
  top: "conv1_4_2"
  convolution_param {
    num_output: 64
    bias_term: true
    kernel_size: 1
    stride: 1
    weight_filler {
      type: "msra"
    }
    bias_filler {
      type: "constant"
      value: 0
    }
  }
}
layer {
  name: "eltwise1_4_4"
  type: "Eltwise"
  bottom: "prelu1_3_4"
  bottom: "conv1_4_2"
  top: "eltwise1_4_4"
}
layer {
  name: "prelu1_4_4"
  type: "PReLU"
  bottom: "eltwise1_4_4"
  top: "prelu1_4_4"
}
layer {
  name: "conv2_0_0"
  type: "Convolution"
  bottom: "prelu1_4_4"
  top: "conv2_0_0"
  convolution_param {
    num_output: 32
    bias_term: true
    kernel_size: 2
    stride: 2
    weight_filler {
      type: "msra"
    }
    bias_filler {
      type: "constant"
      value: 0
    }
  }
}
layer {
  name: "prelu2_0_0"
  type: "PReLU"
  bottom: "conv2_0_0"
  top: "prelu2_0_0"
}
layer {
  name: "conv2_0_1"
  type: "Convolution"
  bottom: "prelu2_0_0"
  top: "conv2_0_1"
  convolution_param {
    num_output: 32
    bias_term: true
    pad: 1
    kernel_size: 3
    stride: 1
    weight_filler {
      type: "msra"
    }
  }
}
layer {
  name: "prelu2_0_1"
  type: "PReLU"
  bottom: "conv2_0_1"
  top: "prelu2_0_1"
}
layer {
  name: "conv2_0_2"
  type: "Convolution"
  bottom: "prelu2_0_1"
  top: "conv2_0_2"
  convolution_param {
    num_output: 128
    bias_term: true
    kernel_size: 1
    stride: 1
    weight_filler {
      type: "msra"
    }
    bias_filler {
      type: "constant"
      value: 0
    }
  }
}
layer {
  name: "pool2_0_4"
  type: "Pooling"
  bottom: "prelu1_4_4"
  top: "pool2_0_4"
  top: "pool2_0_4_mask"
  pooling_param {
    pool: MAX
    kernel_size: 2
    stride: 2
  }
}
layer {
  name: "conv2_0_4"
  type: "Convolution"
  bottom: "pool2_0_4"
  top: "conv2_0_4"
  convolution_param {
    num_output: 128
    bias_term: true
    kernel_size: 1
    stride: 1
    weight_filler {
      type: "msra"
    }
    bias_filler {
      type: "constant"
      value: 0
    }
  }
}
layer {
  name: "eltwise2_0_4"
  type: "Eltwise"
  bottom: "conv2_0_4"
  bottom: "conv2_0_2"
  top: "eltwise2_0_4"
}
layer {
  name: "prelu2_0_4"
  type: "PReLU"
  bottom: "eltwise2_0_4"
  top: "prelu2_0_4"
}
layer {
  name: "conv2_1_0"
  type: "Convolution"
  bottom: "prelu2_0_4"
  top: "conv2_1_0"
  convolution_param {
    num_output: 32
    bias_term: true
    kernel_size: 1
    stride: 1
    weight_filler {
      type: "msra"
    }
    bias_filler {
      type: "constant"
      value: 0
    }
  }
}
layer {
  name: "prelu2_1_0"
  type: "PReLU"
  bottom: "conv2_1_0"
  top: "prelu2_1_0"
}
layer {
  name: "conv2_1_1"
  type: "Convolution"
  bottom: "prelu2_1_0"
  top: "conv2_1_1"
  convolution_param {
    num_output: 32
    bias_term: true
    pad: 1
    kernel_size: 3
    stride: 1
    weight_filler {
      type: "msra"
    }
  }
}
layer {
  name: "prelu2_1_1"
  type: "PReLU"
  bottom: "conv2_1_1"
  top: "prelu2_1_1"
}
layer {
  name: "conv2_1_2"
  type: "Convolution"
  bottom: "prelu2_1_1"
  top: "conv2_1_2"
  convolution_param {
    num_output: 128
    bias_term: true
    kernel_size: 1
    stride: 1
    weight_filler {
      type: "msra"
    }
    bias_filler {
      type: "constant"
      value: 0
    }
  }
}
layer {
  name: "eltwise2_1_4"
  type: "Eltwise"
  bottom: "prelu2_0_4"
  bottom: "conv2_1_2"
  top: "eltwise2_1_4"
}
layer {
  name: "prelu2_1_4"
  type: "PReLU"
  bottom: "eltwise2_1_4"
  top: "prelu2_1_4"
}
layer {
  name: "conv2_2_0"
  type: "Convolution"
  bottom: "prelu2_1_4"
  top: "conv2_2_0"
  convolution_param {
    num_output: 32
    bias_term: true
    kernel_size: 1
    stride: 1
    weight_filler {
      type: "msra"
    }
    bias_filler {
      type: "constant"
      value: 0
    }
  }
}
layer {
  name: "prelu2_2_0"
  type: "PReLU"
  bottom: "conv2_2_0"
  top: "prelu2_2_0"
}
layer {
  name: "conv2_2_1"
  type: "Convolution"
  bottom: "prelu2_2_0"
  top: "conv2_2_1"
  convolution_param {
    num_output: 32
    bias_term: true
    pad: 2
    kernel_size: 3
    stride: 1
    weight_filler {
      type: "msra"
    }
    dilation: 2
  }
}
layer {
  name: "prelu2_2_1"
  type: "PReLU"
  bottom: "conv2_2_1"
  top: "prelu2_2_1"
}
layer {
  name: "conv2_2_2"
  type: "Convolution"
  bottom: "prelu2_2_1"
  top: "conv2_2_2"
  convolution_param {
    num_output: 128
    bias_term: true
    kernel_size: 1
    stride: 1
    weight_filler {
      type: "msra"
    }
    bias_filler {
      type: "constant"
      value: 0
    }
  }
}
layer {
  name: "eltwise2_2_4"
  type: "Eltwise"
  bottom: "prelu2_1_4"
  bottom: "conv2_2_2"
  top: "eltwise2_2_4"
}
layer {
  name: "prelu2_2_4"
  type: "PReLU"
  bottom: "eltwise2_2_4"
  top: "prelu2_2_4"
}
layer {
  name: "conv2_3_0"
  type: "Convolution"
  bottom: "prelu2_2_4"
  top: "conv2_3_0"
  convolution_param {
    num_output: 32
    bias_term: true
    kernel_size: 1
    stride: 1
    weight_filler {
      type: "msra"
    }
    bias_filler {
      type: "constant"
      value: 0
    }
  }
}
layer {
  name: "prelu2_3_0"
  type: "PReLU"
  bottom: "conv2_3_0"
  top: "prelu2_3_0"
}
layer {
  name: "conv2_3_1_a"
  type: "Convolution"
  bottom: "prelu2_3_0"
  top: "conv2_3_1_a"
  convolution_param {
    num_output: 32
    bias_term: true
    pad: 1
    stride: 1
    weight_filler {
      type: "msra"
    }
    bias_filler {
      type: "constant"
      value: 0
    }
    kernel_h: 5
    kernel_w: 1
  }
}
layer {
  name: "conv2_3_1"
  type: "Convolution"
  bottom: "conv2_3_1_a"
  top: "conv2_3_1"
  convolution_param {
    num_output: 32
    bias_term: true
    pad: 1
    stride: 1
    weight_filler {
      type: "msra"
    }
    kernel_h: 1
    kernel_w: 5
  }
}
layer {
  name: "prelu2_3_1"
  type: "PReLU"
  bottom: "conv2_3_1"
  top: "prelu2_3_1"
}
layer {
  name: "conv2_3_2"
  type: "Convolution"
  bottom: "prelu2_3_1"
  top: "conv2_3_2"
  convolution_param {
    num_output: 128
    bias_term: true
    kernel_size: 1
    stride: 1
    weight_filler {
      type: "msra"
    }
    bias_filler {
      type: "constant"
      value: 0
    }
  }
}
layer {
  name: "eltwise2_3_4"
  type: "Eltwise"
  bottom: "prelu2_2_4"
  bottom: "conv2_3_2"
  top: "eltwise2_3_4"
}
layer {
  name: "prelu2_3_4"
  type: "PReLU"
  bottom: "eltwise2_3_4"
  top: "prelu2_3_4"
}
layer {
  name: "conv2_4_0"
  type: "Convolution"
  bottom: "prelu2_3_4"
  top: "conv2_4_0"
  convolution_param {
    num_output: 32
    bias_term: true
    kernel_size: 1
    stride: 1
    weight_filler {
      type: "msra"
    }
    bias_filler {
      type: "constant"
      value: 0
    }
  }
}
layer {
  name: "prelu2_4_0"
  type: "PReLU"
  bottom: "conv2_4_0"
  top: "prelu2_4_0"
}
layer {
  name: "conv2_4_1"
  type: "Convolution"
  bottom: "prelu2_4_0"
  top: "conv2_4_1"
  convolution_param {
    num_output: 32
    bias_term: true
    pad: 4
    kernel_size: 3
    stride: 1
    weight_filler {
      type: "msra"
    }
    dilation: 4
  }
}
layer {
  name: "prelu2_4_1"
  type: "PReLU"
  bottom: "conv2_4_1"
  top: "prelu2_4_1"
}
layer {
  name: "conv2_4_2"
  type: "Convolution"
  bottom: "prelu2_4_1"
  top: "conv2_4_2"
  convolution_param {
    num_output: 128
    bias_term: true
    kernel_size: 1
    stride: 1
    weight_filler {
      type: "msra"
    }
    bias_filler {
      type: "constant"
      value: 0
    }
  }
}
layer {
  name: "eltwise2_4_4"
  type: "Eltwise"
  bottom: "prelu2_3_4"
  bottom: "conv2_4_2"
  top: "eltwise2_4_4"
}
layer {
  name: "prelu2_4_4"
  type: "PReLU"
  bottom: "eltwise2_4_4"
  top: "prelu2_4_4"
}
layer {
  name: "conv2_5_0"
  type: "Convolution"
  bottom: "prelu2_4_4"
  top: "conv2_5_0"
  convolution_param {
    num_output: 32
    bias_term: true
    kernel_size: 1
    stride: 1
    weight_filler {
      type: "msra"
    }
    bias_filler {
      type: "constant"
      value: 0
    }
  }
}
layer {
  name: "prelu2_5_0"
  type: "PReLU"
  bottom: "conv2_5_0"
  top: "prelu2_5_0"
}
layer {
  name: "conv2_5_1"
  type: "Convolution"
  bottom: "prelu2_5_0"
  top: "conv2_5_1"
  convolution_param {
    num_output: 32
    bias_term: true
    pad: 1
    kernel_size: 3
    stride: 1
    weight_filler {
      type: "msra"
    }
  }
}
layer {
  name: "prelu2_5_1"
  type: "PReLU"
  bottom: "conv2_5_1"
  top: "prelu2_5_1"
}
layer {
  name: "conv2_5_2"
  type: "Convolution"
  bottom: "prelu2_5_1"
  top: "conv2_5_2"
  convolution_param {
    num_output: 128
    bias_term: true
    kernel_size: 1
    stride: 1
    weight_filler {
      type: "msra"
    }
    bias_filler {
      type: "constant"
      value: 0
    }
  }
}
layer {
  name: "eltwise2_5_4"
  type: "Eltwise"
  bottom: "prelu2_4_4"
  bottom: "conv2_5_2"
  top: "eltwise2_5_4"
}
layer {
  name: "prelu2_5_4"
  type: "PReLU"
  bottom: "eltwise2_5_4"
  top: "prelu2_5_4"
}
layer {
  name: "conv2_6_0"
  type: "Convolution"
  bottom: "prelu2_5_4"
  top: "conv2_6_0"
  convolution_param {
    num_output: 32
    bias_term: true
    kernel_size: 1
    stride: 1
    weight_filler {
      type: "msra"
    }
    bias_filler {
      type: "constant"
      value: 0
    }
  }
}
layer {
  name: "prelu2_6_0"
  type: "PReLU"
  bottom: "conv2_6_0"
  top: "prelu2_6_0"
}
layer {
  name: "conv2_6_1"
  type: "Convolution"
  bottom: "prelu2_6_0"
  top: "conv2_6_1"
  convolution_param {
    num_output: 32
    bias_term: true
    pad: 8
    kernel_size: 3
    stride: 1
    weight_filler {
      type: "msra"
    }
    dilation: 8
  }
}
layer {
  name: "prelu2_6_1"
  type: "PReLU"
  bottom: "conv2_6_1"
  top: "prelu2_6_1"
}
layer {
  name: "conv2_6_2"
  type: "Convolution"
  bottom: "prelu2_6_1"
  top: "conv2_6_2"
  convolution_param {
    num_output: 128
    bias_term: true
    kernel_size: 1
    stride: 1
    weight_filler {
      type: "msra"
    }
    bias_filler {
      type: "constant"
      value: 0
    }
  }
}
layer {
  name: "eltwise2_6_4"
  type: "Eltwise"
  bottom: "prelu2_5_4"
  bottom: "conv2_6_2"
  top: "eltwise2_6_4"
}
layer {
  name: "prelu2_6_4"
  type: "PReLU"
  bottom: "eltwise2_6_4"
  top: "prelu2_6_4"
}
layer {
  name: "conv2_7_0"
  type: "Convolution"
  bottom: "prelu2_6_4"
  top: "conv2_7_0"
  convolution_param {
    num_output: 32
    bias_term: true
    kernel_size: 1
    stride: 1
    weight_filler {
      type: "msra"
    }
    bias_filler {
      type: "constant"
      value: 0
    }
  }
}
layer {
  name: "prelu2_7_0"
  type: "PReLU"
  bottom: "conv2_7_0"
  top: "prelu2_7_0"
}
layer {
  name: "conv2_7_1_a"
  type: "Convolution"
  bottom: "prelu2_7_0"
  top: "conv2_7_1_a"
  convolution_param {
    num_output: 32
    bias_term: true
    pad: 1
    stride: 1
    weight_filler {
      type: "msra"
    }
    bias_filler {
      type: "constant"
      value: 0
    }
    kernel_h: 5
    kernel_w: 1
  }
}
layer {
  name: "conv2_7_1"
  type: "Convolution"
  bottom: "conv2_7_1_a"
  top: "conv2_7_1"
  convolution_param {
    num_output: 32
    bias_term: true
    pad: 1
    stride: 1
    weight_filler {
      type: "msra"
    }
    kernel_h: 1
    kernel_w: 5
  }
}
layer {
  name: "prelu2_7_1"
  type: "PReLU"
  bottom: "conv2_7_1"
  top: "prelu2_7_1"
}
layer {
  name: "conv2_7_2"
  type: "Convolution"
  bottom: "prelu2_7_1"
  top: "conv2_7_2"
  convolution_param {
    num_output: 128
    bias_term: true
    kernel_size: 1
    stride: 1
    weight_filler {
      type: "msra"
    }
    bias_filler {
      type: "constant"
      value: 0
    }
  }
}
layer {
  name: "eltwise2_7_4"
  type: "Eltwise"
  bottom: "prelu2_6_4"
  bottom: "conv2_7_2"
  top: "eltwise2_7_4"
}
layer {
  name: "prelu2_7_4"
  type: "PReLU"
  bottom: "eltwise2_7_4"
  top: "prelu2_7_4"
}
layer {
  name: "conv2_8_0"
  type: "Convolution"
  bottom: "prelu2_7_4"
  top: "conv2_8_0"
  convolution_param {
    num_output: 32
    bias_term: true
    kernel_size: 1
    stride: 1
    weight_filler {
      type: "msra"
    }
    bias_filler {
      type: "constant"
      value: 0
    }
  }
}
layer {
  name: "prelu2_8_0"
  type: "PReLU"
  bottom: "conv2_8_0"
  top: "prelu2_8_0"
}
layer {
  name: "conv2_8_1"
  type: "Convolution"
  bottom: "prelu2_8_0"
  top: "conv2_8_1"
  convolution_param {
    num_output: 32
    bias_term: true
    pad: 16
    kernel_size: 3
    stride: 1
    weight_filler {
      type: "msra"
    }
    dilation: 16
  }
}
layer {
  name: "prelu2_8_1"
  type: "PReLU"
  bottom: "conv2_8_1"
  top: "prelu2_8_1"
}
layer {
  name: "conv2_8_2"
  type: "Convolution"
  bottom: "prelu2_8_1"
  top: "conv2_8_2"
  convolution_param {
    num_output: 128
    bias_term: true
    kernel_size: 1
    stride: 1
    weight_filler {
      type: "msra"
    }
    bias_filler {
      type: "constant"
      value: 0
    }
  }
}
layer {
  name: "eltwise2_8_4"
  type: "Eltwise"
  bottom: "prelu2_7_4"
  bottom: "conv2_8_2"
  top: "eltwise2_8_4"
}
layer {
  name: "prelu2_8_4"
  type: "PReLU"
  bottom: "eltwise2_8_4"
  top: "prelu2_8_4"
}
layer {
  name: "conv3_1_0"
  type: "Convolution"
  bottom: "prelu2_8_4"
  top: "conv3_1_0"
  convolution_param {
    num_output: 32
    bias_term: true
    kernel_size: 1
    stride: 1
    weight_filler {
      type: "msra"
    }
    bias_filler {
      type: "constant"
      value: 0
    }
  }
}
layer {
  name: "prelu3_1_0"
  type: "PReLU"
  bottom: "conv3_1_0"
  top: "prelu3_1_0"
}
layer {
  name: "conv3_1_1"
  type: "Convolution"
  bottom: "prelu3_1_0"
  top: "conv3_1_1"
  convolution_param {
    num_output: 32
    bias_term: true
    pad: 1
    kernel_size: 3
    stride: 1
    weight_filler {
      type: "msra"
    }
  }
}
layer {
  name: "prelu3_1_1"
  type: "PReLU"
  bottom: "conv3_1_1"
  top: "prelu3_1_1"
}
layer {
  name: "conv3_1_2"
  type: "Convolution"
  bottom: "prelu3_1_1"
  top: "conv3_1_2"
  convolution_param {
    num_output: 128
    bias_term: true
    kernel_size: 1
    stride: 1
    weight_filler {
      type: "msra"
    }
    bias_filler {
      type: "constant"
      value: 0
    }
  }
}
layer {
  name: "eltwise3_1_4"
  type: "Eltwise"
  bottom: "prelu2_8_4"
  bottom: "conv3_1_2"
  top: "eltwise3_1_4"
}
layer {
  name: "prelu3_1_4"
  type: "PReLU"
  bottom: "eltwise3_1_4"
  top: "prelu3_1_4"
}
layer {
  name: "conv3_2_0"
  type: "Convolution"
  bottom: "prelu3_1_4"
  top: "conv3_2_0"
  convolution_param {
    num_output: 32
    bias_term: true
    kernel_size: 1
    stride: 1
    weight_filler {
      type: "msra"
    }
    bias_filler {
      type: "constant"
      value: 0
    }
  }
}
layer {
  name: "prelu3_2_0"
  type: "PReLU"
  bottom: "conv3_2_0"
  top: "prelu3_2_0"
}
layer {
  name: "conv3_2_1"
  type: "Convolution"
  bottom: "prelu3_2_0"
  top: "conv3_2_1"
  convolution_param {
    num_output: 32
    bias_term: true
    pad: 2
    kernel_size: 3
    stride: 1
    weight_filler {
      type: "msra"
    }
    dilation: 2
  }
}
layer {
  name: "prelu3_2_1"
  type: "PReLU"
  bottom: "conv3_2_1"
  top: "prelu3_2_1"
}
layer {
  name: "conv3_2_2"
  type: "Convolution"
  bottom: "prelu3_2_1"
  top: "conv3_2_2"
  convolution_param {
    num_output: 128
    bias_term: true
    kernel_size: 1
    stride: 1
    weight_filler {
      type: "msra"
    }
    bias_filler {
      type: "constant"
      value: 0
    }
  }
}
layer {
  name: "eltwise3_2_4"
  type: "Eltwise"
  bottom: "prelu3_1_4"
  bottom: "conv3_2_2"
  top: "eltwise3_2_4"
}
layer {
  name: "prelu3_2_4"
  type: "PReLU"
  bottom: "eltwise3_2_4"
  top: "prelu3_2_4"
}
layer {
  name: "conv3_3_0"
  type: "Convolution"
  bottom: "prelu3_2_4"
  top: "conv3_3_0"
  convolution_param {
    num_output: 32
    bias_term: true
    kernel_size: 1
    stride: 1
    weight_filler {
      type: "msra"
    }
    bias_filler {
      type: "constant"
      value: 0
    }
  }
}
layer {
  name: "prelu3_3_0"
  type: "PReLU"
  bottom: "conv3_3_0"
  top: "prelu3_3_0"
}
layer {
  name: "conv3_3_1_a"
  type: "Convolution"
  bottom: "prelu3_3_0"
  top: "conv3_3_1_a"
  convolution_param {
    num_output: 32
    bias_term: true
    pad: 1
    stride: 1
    weight_filler {
      type: "msra"
    }
    bias_filler {
      type: "constant"
      value: 0
    }
    kernel_h: 5
    kernel_w: 1
  }
}
layer {
  name: "conv3_3_1"
  type: "Convolution"
  bottom: "conv3_3_1_a"
  top: "conv3_3_1"
  convolution_param {
    num_output: 32
    bias_term: true
    pad: 1
    stride: 1
    weight_filler {
      type: "msra"
    }
    kernel_h: 1
    kernel_w: 5
  }
}
layer {
  name: "prelu3_3_1"
  type: "PReLU"
  bottom: "conv3_3_1"
  top: "prelu3_3_1"
}
layer {
  name: "conv3_3_2"
  type: "Convolution"
  bottom: "prelu3_3_1"
  top: "conv3_3_2"
  convolution_param {
    num_output: 128
    bias_term: true
    kernel_size: 1
    stride: 1
    weight_filler {
      type: "msra"
    }
    bias_filler {
      type: "constant"
      value: 0
    }
  }
}
layer {
  name: "eltwise3_3_4"
  type: "Eltwise"
  bottom: "prelu3_2_4"
  bottom: "conv3_3_2"
  top: "eltwise3_3_4"
}
layer {
  name: "prelu3_3_4"
  type: "PReLU"
  bottom: "eltwise3_3_4"
  top: "prelu3_3_4"
}
layer {
  name: "conv3_4_0"
  type: "Convolution"
  bottom: "prelu3_3_4"
  top: "conv3_4_0"
  convolution_param {
    num_output: 32
    bias_term: true
    kernel_size: 1
    stride: 1
    weight_filler {
      type: "msra"
    }
    bias_filler {
      type: "constant"
      value: 0
    }
  }
}
layer {
  name: "prelu3_4_0"
  type: "PReLU"
  bottom: "conv3_4_0"
  top: "prelu3_4_0"
}
layer {
  name: "conv3_4_1"
  type: "Convolution"
  bottom: "prelu3_4_0"
  top: "conv3_4_1"
  convolution_param {
    num_output: 32
    bias_term: true
    pad: 4
    kernel_size: 3
    stride: 1
    weight_filler {
      type: "msra"
    }
    dilation: 4
  }
}
layer {
  name: "prelu3_4_1"
  type: "PReLU"
  bottom: "conv3_4_1"
  top: "prelu3_4_1"
}
layer {
  name: "conv3_4_2"
  type: "Convolution"
  bottom: "prelu3_4_1"
  top: "conv3_4_2"
  convolution_param {
    num_output: 128
    bias_term: true
    kernel_size: 1
    stride: 1
    weight_filler {
      type: "msra"
    }
    bias_filler {
      type: "constant"
      value: 0
    }
  }
}
layer {
  name: "eltwise3_4_4"
  type: "Eltwise"
  bottom: "prelu3_3_4"
  bottom: "conv3_4_2"
  top: "eltwise3_4_4"
}
layer {
  name: "prelu3_4_4"
  type: "PReLU"
  bottom: "eltwise3_4_4"
  top: "prelu3_4_4"
}
layer {
  name: "conv3_5_0"
  type: "Convolution"
  bottom: "prelu3_4_4"
  top: "conv3_5_0"
  convolution_param {
    num_output: 32
    bias_term: true
    kernel_size: 1
    stride: 1
    weight_filler {
      type: "msra"
    }
    bias_filler {
      type: "constant"
      value: 0
    }
  }
}
layer {
  name: "prelu3_5_0"
  type: "PReLU"
  bottom: "conv3_5_0"
  top: "prelu3_5_0"
}
layer {
  name: "conv3_5_1"
  type: "Convolution"
  bottom: "prelu3_5_0"
  top: "conv3_5_1"
  convolution_param {
    num_output: 32
    bias_term: true
    pad: 1
    kernel_size: 3
    stride: 1
    weight_filler {
      type: "msra"
    }
  }
}
layer {
  name: "prelu3_5_1"
  type: "PReLU"
  bottom: "conv3_5_1"
  top: "prelu3_5_1"
}
layer {
  name: "conv3_5_2"
  type: "Convolution"
  bottom: "prelu3_5_1"
  top: "conv3_5_2"
  convolution_param {
    num_output: 128
    bias_term: true
    kernel_size: 1
    stride: 1
    weight_filler {
      type: "msra"
    }
    bias_filler {
      type: "constant"
      value: 0
    }
  }
}
layer {
  name: "eltwise3_5_4"
  type: "Eltwise"
  bottom: "prelu3_4_4"
  bottom: "conv3_5_2"
  top: "eltwise3_5_4"
}
layer {
  name: "prelu3_5_4"
  type: "PReLU"
  bottom: "eltwise3_5_4"
  top: "prelu3_5_4"
}
layer {
  name: "conv3_6_0"
  type: "Convolution"
  bottom: "prelu3_5_4"
  top: "conv3_6_0"
  convolution_param {
    num_output: 32
    bias_term: true
    kernel_size: 1
    stride: 1
    weight_filler {
      type: "msra"
    }
    bias_filler {
      type: "constant"
      value: 0
    }
  }
}
layer {
  name: "prelu3_6_0"
  type: "PReLU"
  bottom: "conv3_6_0"
  top: "prelu3_6_0"
}
layer {
  name: "conv3_6_1"
  type: "Convolution"
  bottom: "prelu3_6_0"
  top: "conv3_6_1"
  convolution_param {
    num_output: 32
    bias_term: true
    pad: 8
    kernel_size: 3
    stride: 1
    weight_filler {
      type: "msra"
    }
    dilation: 8
  }
}
layer {
  name: "prelu3_6_1"
  type: "PReLU"
  bottom: "conv3_6_1"
  top: "prelu3_6_1"
}
layer {
  name: "conv3_6_2"
  type: "Convolution"
  bottom: "prelu3_6_1"
  top: "conv3_6_2"
  convolution_param {
    num_output: 128
    bias_term: true
    kernel_size: 1
    stride: 1
    weight_filler {
      type: "msra"
    }
    bias_filler {
      type: "constant"
      value: 0
    }
  }
}
layer {
  name: "eltwise3_6_4"
  type: "Eltwise"
  bottom: "prelu3_5_4"
  bottom: "conv3_6_2"
  top: "eltwise3_6_4"
}
layer {
  name: "prelu3_6_4"
  type: "PReLU"
  bottom: "eltwise3_6_4"
  top: "prelu3_6_4"
}
layer {
  name: "conv3_7_0"
  type: "Convolution"
  bottom: "prelu3_6_4"
  top: "conv3_7_0"
  convolution_param {
    num_output: 32
    bias_term: true
    kernel_size: 1
    stride: 1
    weight_filler {
      type: "msra"
    }
    bias_filler {
      type: "constant"
      value: 0
    }
  }
}
layer {
  name: "prelu3_7_0"
  type: "PReLU"
  bottom: "conv3_7_0"
  top: "prelu3_7_0"
}
layer {
  name: "conv3_7_1_a"
  type: "Convolution"
  bottom: "prelu3_7_0"
  top: "conv3_7_1_a"
  convolution_param {
    num_output: 32
    bias_term: true
    pad: 1
    stride: 1
    weight_filler {
      type: "msra"
    }
    bias_filler {
      type: "constant"
      value: 0
    }
    kernel_h: 5
    kernel_w: 1
  }
}
layer {
  name: "conv3_7_1"
  type: "Convolution"
  bottom: "conv3_7_1_a"
  top: "conv3_7_1"
  convolution_param {
    num_output: 32
    bias_term: true
    pad: 1
    stride: 1
    weight_filler {
      type: "msra"
    }
    kernel_h: 1
    kernel_w: 5
  }
}
layer {
  name: "prelu3_7_1"
  type: "PReLU"
  bottom: "conv3_7_1"
  top: "prelu3_7_1"
}
layer {
  name: "conv3_7_2"
  type: "Convolution"
  bottom: "prelu3_7_1"
  top: "conv3_7_2"
  convolution_param {
    num_output: 128
    bias_term: true
    kernel_size: 1
    stride: 1
    weight_filler {
      type: "msra"
    }
    bias_filler {
      type: "constant"
      value: 0
    }
  }
}
layer {
  name: "eltwise3_7_4"
  type: "Eltwise"
  bottom: "prelu3_6_4"
  bottom: "conv3_7_2"
  top: "eltwise3_7_4"
}
layer {
  name: "prelu3_7_4"
  type: "PReLU"
  bottom: "eltwise3_7_4"
  top: "prelu3_7_4"
}
layer {
  name: "conv3_8_0"
  type: "Convolution"
  bottom: "prelu3_7_4"
  top: "conv3_8_0"
  convolution_param {
    num_output: 32
    bias_term: true
    kernel_size: 1
    stride: 1
    weight_filler {
      type: "msra"
    }
    bias_filler {
      type: 
I0204 20:20:13.005028  9437 layer_factory.hpp:77] Creating layer data
I0204 20:20:13.005084  9437 net.cpp:100] Creating Layer data
I0204 20:20:13.005100  9437 net.cpp:408] data -> data
I0204 20:20:13.005133  9437 net.cpp:408] data -> label
I0204 20:20:13.005167  9437 dense_image_data_layer.cpp:50] Opening file /home/newuser/carmen_lcad/src/road_mapper/guarapari3_test.txt
I0204 20:20:13.010360  9437 dense_image_data_layer.cpp:65] A total of 3556 examples.
I0204 20:20:13.284993  9437 dense_image_data_layer.cpp:118] output data size top[0]: 16,3,120,120
I0204 20:20:13.285050  9437 dense_image_data_layer.cpp:121] output data size top[1]: 16,1,120,120
I0204 20:20:13.288682  9437 net.cpp:150] Setting up data
I0204 20:20:13.288733  9437 net.cpp:157] Top shape: 16 3 120 120 (691200)
I0204 20:20:13.288749  9437 net.cpp:157] Top shape: 16 1 120 120 (230400)
I0204 20:20:13.288758  9437 net.cpp:165] Memory required for data: 3686400
I0204 20:20:13.288776  9437 layer_factory.hpp:77] Creating layer data_data_0_split
I0204 20:20:13.288810  9437 net.cpp:100] Creating Layer data_data_0_split
I0204 20:20:13.288823  9437 net.cpp:434] data_data_0_split <- data
I0204 20:20:13.288848  9437 net.cpp:408] data_data_0_split -> data_data_0_split_0
I0204 20:20:13.288871  9437 net.cpp:408] data_data_0_split -> data_data_0_split_1
I0204 20:20:13.289240  9437 net.cpp:150] Setting up data_data_0_split
I0204 20:20:13.289316  9437 net.cpp:157] Top shape: 16 3 120 120 (691200)
I0204 20:20:13.289338  9437 net.cpp:157] Top shape: 16 3 120 120 (691200)
I0204 20:20:13.289355  9437 net.cpp:165] Memory required for data: 9216000
I0204 20:20:13.289374  9437 layer_factory.hpp:77] Creating layer conv0_1
I0204 20:20:13.289427  9437 net.cpp:100] Creating Layer conv0_1
I0204 20:20:13.289448  9437 net.cpp:434] conv0_1 <- data_data_0_split_0
I0204 20:20:13.289474  9437 net.cpp:408] conv0_1 -> conv0_1
I0204 20:20:13.756934  9437 net.cpp:150] Setting up conv0_1
I0204 20:20:13.757014  9437 net.cpp:157] Top shape: 16 13 60 60 (748800)
I0204 20:20:13.757027  9437 net.cpp:165] Memory required for data: 12211200
I0204 20:20:13.757063  9437 layer_factory.hpp:77] Creating layer pool0_1
I0204 20:20:13.757091  9437 net.cpp:100] Creating Layer pool0_1
I0204 20:20:13.757104  9437 net.cpp:434] pool0_1 <- data_data_0_split_1
I0204 20:20:13.757122  9437 net.cpp:408] pool0_1 -> pool0_1
I0204 20:20:13.757225  9437 net.cpp:150] Setting up pool0_1
I0204 20:20:13.757246  9437 net.cpp:157] Top shape: 16 3 60 60 (172800)
I0204 20:20:13.757254  9437 net.cpp:165] Memory required for data: 12902400
I0204 20:20:13.757264  9437 layer_factory.hpp:77] Creating layer concat0_1
I0204 20:20:13.757309  9437 net.cpp:100] Creating Layer concat0_1
I0204 20:20:13.757339  9437 net.cpp:434] concat0_1 <- conv0_1
I0204 20:20:13.757351  9437 net.cpp:434] concat0_1 <- pool0_1
I0204 20:20:13.757364  9437 net.cpp:408] concat0_1 -> concat0_1
I0204 20:20:13.757417  9437 net.cpp:150] Setting up concat0_1
I0204 20:20:13.757436  9437 net.cpp:157] Top shape: 16 16 60 60 (921600)
I0204 20:20:13.757444  9437 net.cpp:165] Memory required for data: 16588800
I0204 20:20:13.757454  9437 layer_factory.hpp:77] Creating layer bn0_1
I0204 20:20:13.757474  9437 net.cpp:100] Creating Layer bn0_1
I0204 20:20:13.757484  9437 net.cpp:434] bn0_1 <- concat0_1
I0204 20:20:13.757499  9437 net.cpp:408] bn0_1 -> bn0_1
I0204 20:20:13.757846  9437 net.cpp:150] Setting up bn0_1
I0204 20:20:13.757867  9437 net.cpp:157] Top shape: 16 16 60 60 (921600)
I0204 20:20:13.757876  9437 net.cpp:165] Memory required for data: 20275200
I0204 20:20:13.757894  9437 layer_factory.hpp:77] Creating layer prelu0_1
I0204 20:20:13.757908  9437 net.cpp:100] Creating Layer prelu0_1
I0204 20:20:13.757918  9437 net.cpp:434] prelu0_1 <- bn0_1
I0204 20:20:13.757931  9437 net.cpp:408] prelu0_1 -> prelu0_1
I0204 20:20:13.759778  9437 net.cpp:150] Setting up prelu0_1
I0204 20:20:13.759830  9437 net.cpp:157] Top shape: 16 16 60 60 (921600)
I0204 20:20:13.759840  9437 net.cpp:165] Memory required for data: 23961600
I0204 20:20:13.759862  9437 layer_factory.hpp:77] Creating layer prelu0_1_prelu0_1_0_split
I0204 20:20:13.759882  9437 net.cpp:100] Creating Layer prelu0_1_prelu0_1_0_split
I0204 20:20:13.759893  9437 net.cpp:434] prelu0_1_prelu0_1_0_split <- prelu0_1
I0204 20:20:13.759909  9437 net.cpp:408] prelu0_1_prelu0_1_0_split -> prelu0_1_prelu0_1_0_split_0
I0204 20:20:13.759927  9437 net.cpp:408] prelu0_1_prelu0_1_0_split -> prelu0_1_prelu0_1_0_split_1
I0204 20:20:13.759994  9437 net.cpp:150] Setting up prelu0_1_prelu0_1_0_split
I0204 20:20:13.760012  9437 net.cpp:157] Top shape: 16 16 60 60 (921600)
I0204 20:20:13.760023  9437 net.cpp:157] Top shape: 16 16 60 60 (921600)
I0204 20:20:13.760032  9437 net.cpp:165] Memory required for data: 31334400
I0204 20:20:13.760042  9437 layer_factory.hpp:77] Creating layer conv1_0_0
I0204 20:20:13.760069  9437 net.cpp:100] Creating Layer conv1_0_0
I0204 20:20:13.760079  9437 net.cpp:434] conv1_0_0 <- prelu0_1_prelu0_1_0_split_0
I0204 20:20:13.760095  9437 net.cpp:408] conv1_0_0 -> conv1_0_0
I0204 20:20:13.762974  9437 net.cpp:150] Setting up conv1_0_0
I0204 20:20:13.763032  9437 net.cpp:157] Top shape: 16 16 30 30 (230400)
I0204 20:20:13.763044  9437 net.cpp:165] Memory required for data: 32256000
I0204 20:20:13.763064  9437 layer_factory.hpp:77] Creating layer prelu1_0_0
I0204 20:20:13.763084  9437 net.cpp:100] Creating Layer prelu1_0_0
I0204 20:20:13.763095  9437 net.cpp:434] prelu1_0_0 <- conv1_0_0
I0204 20:20:13.763113  9437 net.cpp:408] prelu1_0_0 -> prelu1_0_0
I0204 20:20:13.764868  9437 net.cpp:150] Setting up prelu1_0_0
I0204 20:20:13.764900  9437 net.cpp:157] Top shape: 16 16 30 30 (230400)
I0204 20:20:13.764910  9437 net.cpp:165] Memory required for data: 33177600
I0204 20:20:13.764925  9437 layer_factory.hpp:77] Creating layer conv1_0_1
I0204 20:20:13.764948  9437 net.cpp:100] Creating Layer conv1_0_1
I0204 20:20:13.764958  9437 net.cpp:434] conv1_0_1 <- prelu1_0_0
I0204 20:20:13.764973  9437 net.cpp:408] conv1_0_1 -> conv1_0_1
I0204 20:20:13.767050  9437 net.cpp:150] Setting up conv1_0_1
I0204 20:20:13.767077  9437 net.cpp:157] Top shape: 16 16 30 30 (230400)
I0204 20:20:13.767087  9437 net.cpp:165] Memory required for data: 34099200
I0204 20:20:13.767110  9437 layer_factory.hpp:77] Creating layer prelu1_0_1
I0204 20:20:13.767125  9437 net.cpp:100] Creating Layer prelu1_0_1
I0204 20:20:13.767135  9437 net.cpp:434] prelu1_0_1 <- conv1_0_1
I0204 20:20:13.767148  9437 net.cpp:408] prelu1_0_1 -> prelu1_0_1
I0204 20:20:13.767312  9437 net.cpp:150] Setting up prelu1_0_1
I0204 20:20:13.767338  9437 net.cpp:157] Top shape: 16 16 30 30 (230400)
I0204 20:20:13.767347  9437 net.cpp:165] Memory required for data: 35020800
I0204 20:20:13.767375  9437 layer_factory.hpp:77] Creating layer conv1_0_2
I0204 20:20:13.767411  9437 net.cpp:100] Creating Layer conv1_0_2
I0204 20:20:13.767422  9437 net.cpp:434] conv1_0_2 <- prelu1_0_1
I0204 20:20:13.767436  9437 net.cpp:408] conv1_0_2 -> conv1_0_2
I0204 20:20:13.769346  9437 net.cpp:150] Setting up conv1_0_2
I0204 20:20:13.769373  9437 net.cpp:157] Top shape: 16 64 30 30 (921600)
I0204 20:20:13.769384  9437 net.cpp:165] Memory required for data: 38707200
I0204 20:20:13.769398  9437 layer_factory.hpp:77] Creating layer pool1_0_4
I0204 20:20:13.769409  9437 layer_factory.cpp:91] cuDNN does not support multiple tops. Using Caffe's own pooling layer.
I0204 20:20:13.769423  9437 net.cpp:100] Creating Layer pool1_0_4
I0204 20:20:13.769433  9437 net.cpp:434] pool1_0_4 <- prelu0_1_prelu0_1_0_split_1
I0204 20:20:13.769448  9437 net.cpp:408] pool1_0_4 -> pool1_0_4
I0204 20:20:13.769466  9437 net.cpp:408] pool1_0_4 -> pool1_0_4_mask
I0204 20:20:13.769539  9437 net.cpp:150] Setting up pool1_0_4
I0204 20:20:13.769559  9437 net.cpp:157] Top shape: 16 16 30 30 (230400)
I0204 20:20:13.769570  9437 net.cpp:157] Top shape: 16 16 30 30 (230400)
I0204 20:20:13.769579  9437 net.cpp:165] Memory required for data: 40550400
I0204 20:20:13.769588  9437 layer_factory.hpp:77] Creating layer conv1_0_4
I0204 20:20:13.769608  9437 net.cpp:100] Creating Layer conv1_0_4
I0204 20:20:13.769618  9437 net.cpp:434] conv1_0_4 <- pool1_0_4
I0204 20:20:13.769632  9437 net.cpp:408] conv1_0_4 -> conv1_0_4
I0204 20:20:13.771522  9437 net.cpp:150] Setting up conv1_0_4
I0204 20:20:13.771548  9437 net.cpp:157] Top shape: 16 64 30 30 (921600)
I0204 20:20:13.771559  9437 net.cpp:165] Memory required for data: 44236800
I0204 20:20:13.771574  9437 layer_factory.hpp:77] Creating layer eltwise1_0_4
I0204 20:20:13.771589  9437 net.cpp:100] Creating Layer eltwise1_0_4
I0204 20:20:13.771598  9437 net.cpp:434] eltwise1_0_4 <- conv1_0_4
I0204 20:20:13.771610  9437 net.cpp:434] eltwise1_0_4 <- conv1_0_2
I0204 20:20:13.771622  9437 net.cpp:408] eltwise1_0_4 -> eltwise1_0_4
I0204 20:20:13.771678  9437 net.cpp:150] Setting up eltwise1_0_4
I0204 20:20:13.771697  9437 net.cpp:157] Top shape: 16 64 30 30 (921600)
I0204 20:20:13.771706  9437 net.cpp:165] Memory required for data: 47923200
I0204 20:20:13.771715  9437 layer_factory.hpp:77] Creating layer prelu1_0_4
I0204 20:20:13.771733  9437 net.cpp:100] Creating Layer prelu1_0_4
I0204 20:20:13.771744  9437 net.cpp:434] prelu1_0_4 <- eltwise1_0_4
I0204 20:20:13.771757  9437 net.cpp:408] prelu1_0_4 -> prelu1_0_4
I0204 20:20:13.771956  9437 net.cpp:150] Setting up prelu1_0_4
I0204 20:20:13.771978  9437 net.cpp:157] Top shape: 16 64 30 30 (921600)
I0204 20:20:13.771988  9437 net.cpp:165] Memory required for data: 51609600
I0204 20:20:13.772001  9437 layer_factory.hpp:77] Creating layer prelu1_0_4_prelu1_0_4_0_split
I0204 20:20:13.772016  9437 net.cpp:100] Creating Layer prelu1_0_4_prelu1_0_4_0_split
I0204 20:20:13.772024  9437 net.cpp:434] prelu1_0_4_prelu1_0_4_0_split <- prelu1_0_4
I0204 20:20:13.772037  9437 net.cpp:408] prelu1_0_4_prelu1_0_4_0_split -> prelu1_0_4_prelu1_0_4_0_split_0
I0204 20:20:13.772053  9437 net.cpp:408] prelu1_0_4_prelu1_0_4_0_split -> prelu1_0_4_prelu1_0_4_0_split_1
I0204 20:20:13.772119  9437 net.cpp:150] Setting up prelu1_0_4_prelu1_0_4_0_split
I0204 20:20:13.772136  9437 net.cpp:157] Top shape: 16 64 30 30 (921600)
I0204 20:20:13.772147  9437 net.cpp:157] Top shape: 16 64 30 30 (921600)
I0204 20:20:13.772156  9437 net.cpp:165] Memory required for data: 58982400
I0204 20:20:13.772166  9437 layer_factory.hpp:77] Creating layer conv1_1_0
I0204 20:20:13.772184  9437 net.cpp:100] Creating Layer conv1_1_0
I0204 20:20:13.772194  9437 net.cpp:434] conv1_1_0 <- prelu1_0_4_prelu1_0_4_0_split_0
I0204 20:20:13.772209  9437 net.cpp:408] conv1_1_0 -> conv1_1_0
I0204 20:20:13.774116  9437 net.cpp:150] Setting up conv1_1_0
I0204 20:20:13.774147  9437 net.cpp:157] Top shape: 16 16 30 30 (230400)
I0204 20:20:13.774158  9437 net.cpp:165] Memory required for data: 59904000
I0204 20:20:13.774178  9437 layer_factory.hpp:77] Creating layer prelu1_1_0
I0204 20:20:13.774199  9437 net.cpp:100] Creating Layer prelu1_1_0
I0204 20:20:13.774221  9437 net.cpp:434] prelu1_1_0 <- conv1_1_0
I0204 20:20:13.774235  9437 net.cpp:408] prelu1_1_0 -> prelu1_1_0
I0204 20:20:13.774397  9437 net.cpp:150] Setting up prelu1_1_0
I0204 20:20:13.774420  9437 net.cpp:157] Top shape: 16 16 30 30 (230400)
I0204 20:20:13.774428  9437 net.cpp:165] Memory required for data: 60825600
I0204 20:20:13.774441  9437 layer_factory.hpp:77] Creating layer conv1_1_1
I0204 20:20:13.774459  9437 net.cpp:100] Creating Layer conv1_1_1
I0204 20:20:13.774469  9437 net.cpp:434] conv1_1_1 <- prelu1_1_0
I0204 20:20:13.774484  9437 net.cpp:408] conv1_1_1 -> conv1_1_1
I0204 20:20:13.776453  9437 net.cpp:150] Setting up conv1_1_1
I0204 20:20:13.776479  9437 net.cpp:157] Top shape: 16 16 30 30 (230400)
I0204 20:20:13.776489  9437 net.cpp:165] Memory required for data: 61747200
I0204 20:20:13.776504  9437 layer_factory.hpp:77] Creating layer prelu1_1_1
I0204 20:20:13.776518  9437 net.cpp:100] Creating Layer prelu1_1_1
I0204 20:20:13.776528  9437 net.cpp:434] prelu1_1_1 <- conv1_1_1
I0204 20:20:13.776541  9437 net.cpp:408] prelu1_1_1 -> prelu1_1_1
I0204 20:20:13.776742  9437 net.cpp:150] Setting up prelu1_1_1
I0204 20:20:13.776767  9437 net.cpp:157] Top shape: 16 16 30 30 (230400)
I0204 20:20:13.776775  9437 net.cpp:165] Memory required for data: 62668800
I0204 20:20:13.776788  9437 layer_factory.hpp:77] Creating layer conv1_1_2
I0204 20:20:13.776808  9437 net.cpp:100] Creating Layer conv1_1_2
I0204 20:20:13.776818  9437 net.cpp:434] conv1_1_2 <- prelu1_1_1
I0204 20:20:13.776832  9437 net.cpp:408] conv1_1_2 -> conv1_1_2
I0204 20:20:13.778810  9437 net.cpp:150] Setting up conv1_1_2
I0204 20:20:13.778841  9437 net.cpp:157] Top shape: 16 64 30 30 (921600)
I0204 20:20:13.778851  9437 net.cpp:165] Memory required for data: 66355200
I0204 20:20:13.778868  9437 layer_factory.hpp:77] Creating layer eltwise1_1_4
I0204 20:20:13.778882  9437 net.cpp:100] Creating Layer eltwise1_1_4
I0204 20:20:13.778892  9437 net.cpp:434] eltwise1_1_4 <- prelu1_0_4_prelu1_0_4_0_split_1
I0204 20:20:13.778904  9437 net.cpp:434] eltwise1_1_4 <- conv1_1_2
I0204 20:20:13.778919  9437 net.cpp:408] eltwise1_1_4 -> eltwise1_1_4
I0204 20:20:13.778969  9437 net.cpp:150] Setting up eltwise1_1_4
I0204 20:20:13.778986  9437 net.cpp:157] Top shape: 16 64 30 30 (921600)
I0204 20:20:13.778995  9437 net.cpp:165] Memory required for data: 70041600
I0204 20:20:13.779004  9437 layer_factory.hpp:77] Creating layer prelu1_1_4
I0204 20:20:13.779021  9437 net.cpp:100] Creating Layer prelu1_1_4
I0204 20:20:13.779031  9437 net.cpp:434] prelu1_1_4 <- eltwise1_1_4
I0204 20:20:13.779042  9437 net.cpp:408] prelu1_1_4 -> prelu1_1_4
I0204 20:20:13.779250  9437 net.cpp:150] Setting up prelu1_1_4
I0204 20:20:13.779273  9437 net.cpp:157] Top shape: 16 64 30 30 (921600)
I0204 20:20:13.779283  9437 net.cpp:165] Memory required for data: 73728000
I0204 20:20:13.779294  9437 layer_factory.hpp:77] Creating layer prelu1_1_4_prelu1_1_4_0_split
I0204 20:20:13.779310  9437 net.cpp:100] Creating Layer prelu1_1_4_prelu1_1_4_0_split
I0204 20:20:13.779320  9437 net.cpp:434] prelu1_1_4_prelu1_1_4_0_split <- prelu1_1_4
I0204 20:20:13.779332  9437 net.cpp:408] prelu1_1_4_prelu1_1_4_0_split -> prelu1_1_4_prelu1_1_4_0_split_0
I0204 20:20:13.779345  9437 net.cpp:408] prelu1_1_4_prelu1_1_4_0_split -> prelu1_1_4_prelu1_1_4_0_split_1
I0204 20:20:13.779417  9437 net.cpp:150] Setting up prelu1_1_4_prelu1_1_4_0_split
I0204 20:20:13.779434  9437 net.cpp:157] Top shape: 16 64 30 30 (921600)
I0204 20:20:13.779445  9437 net.cpp:157] Top shape: 16 64 30 30 (921600)
I0204 20:20:13.779454  9437 net.cpp:165] Memory required for data: 81100800
I0204 20:20:13.779464  9437 layer_factory.hpp:77] Creating layer conv1_2_0
I0204 20:20:13.779484  9437 net.cpp:100] Creating Layer conv1_2_0
I0204 20:20:13.779495  9437 net.cpp:434] conv1_2_0 <- prelu1_1_4_prelu1_1_4_0_split_0
I0204 20:20:13.779510  9437 net.cpp:408] conv1_2_0 -> conv1_2_0
I0204 20:20:13.781483  9437 net.cpp:150] Setting up conv1_2_0
I0204 20:20:13.781517  9437 net.cpp:157] Top shape: 16 16 30 30 (230400)
I0204 20:20:13.781538  9437 net.cpp:165] Memory required for data: 82022400
I0204 20:20:13.781553  9437 layer_factory.hpp:77] Creating layer prelu1_2_0
I0204 20:20:13.781570  9437 net.cpp:100] Creating Layer prelu1_2_0
I0204 20:20:13.781580  9437 net.cpp:434] prelu1_2_0 <- conv1_2_0
I0204 20:20:13.781594  9437 net.cpp:408] prelu1_2_0 -> prelu1_2_0
I0204 20:20:13.781764  9437 net.cpp:150] Setting up prelu1_2_0
I0204 20:20:13.781785  9437 net.cpp:157] Top shape: 16 16 30 30 (230400)
I0204 20:20:13.781793  9437 net.cpp:165] Memory required for data: 82944000
I0204 20:20:13.781805  9437 layer_factory.hpp:77] Creating layer conv1_2_1
I0204 20:20:13.781827  9437 net.cpp:100] Creating Layer conv1_2_1
I0204 20:20:13.781838  9437 net.cpp:434] conv1_2_1 <- prelu1_2_0
I0204 20:20:13.781852  9437 net.cpp:408] conv1_2_1 -> conv1_2_1
I0204 20:20:13.783890  9437 net.cpp:150] Setting up conv1_2_1
I0204 20:20:13.783915  9437 net.cpp:157] Top shape: 16 16 30 30 (230400)
I0204 20:20:13.783926  9437 net.cpp:165] Memory required for data: 83865600
I0204 20:20:13.783939  9437 layer_factory.hpp:77] Creating layer prelu1_2_1
I0204 20:20:13.783952  9437 net.cpp:100] Creating Layer prelu1_2_1
I0204 20:20:13.783962  9437 net.cpp:434] prelu1_2_1 <- conv1_2_1
I0204 20:20:13.783974  9437 net.cpp:408] prelu1_2_1 -> prelu1_2_1
I0204 20:20:13.784152  9437 net.cpp:150] Setting up prelu1_2_1
I0204 20:20:13.784173  9437 net.cpp:157] Top shape: 16 16 30 30 (230400)
I0204 20:20:13.784181  9437 net.cpp:165] Memory required for data: 84787200
I0204 20:20:13.784193  9437 layer_factory.hpp:77] Creating layer conv1_2_2
I0204 20:20:13.784214  9437 net.cpp:100] Creating Layer conv1_2_2
I0204 20:20:13.784224  9437 net.cpp:434] conv1_2_2 <- prelu1_2_1
I0204 20:20:13.784241  9437 net.cpp:408] conv1_2_2 -> conv1_2_2
I0204 20:20:13.786212  9437 net.cpp:150] Setting up conv1_2_2
I0204 20:20:13.786239  9437 net.cpp:157] Top shape: 16 64 30 30 (921600)
I0204 20:20:13.786248  9437 net.cpp:165] Memory required for data: 88473600
I0204 20:20:13.786274  9437 layer_factory.hpp:77] Creating layer eltwise1_2_4
I0204 20:20:13.786289  9437 net.cpp:100] Creating Layer eltwise1_2_4
I0204 20:20:13.786299  9437 net.cpp:434] eltwise1_2_4 <- prelu1_1_4_prelu1_1_4_0_split_1
I0204 20:20:13.786310  9437 net.cpp:434] eltwise1_2_4 <- conv1_2_2
I0204 20:20:13.786322  9437 net.cpp:408] eltwise1_2_4 -> eltwise1_2_4
I0204 20:20:13.786376  9437 net.cpp:150] Setting up eltwise1_2_4
I0204 20:20:13.786394  9437 net.cpp:157] Top shape: 16 64 30 30 (921600)
I0204 20:20:13.786403  9437 net.cpp:165] Memory required for data: 92160000
I0204 20:20:13.786413  9437 layer_factory.hpp:77] Creating layer prelu1_2_4
I0204 20:20:13.786430  9437 net.cpp:100] Creating Layer prelu1_2_4
I0204 20:20:13.786442  9437 net.cpp:434] prelu1_2_4 <- eltwise1_2_4
I0204 20:20:13.786461  9437 net.cpp:408] prelu1_2_4 -> prelu1_2_4
I0204 20:20:13.786675  9437 net.cpp:150] Setting up prelu1_2_4
I0204 20:20:13.786697  9437 net.cpp:157] Top shape: 16 64 30 30 (921600)
I0204 20:20:13.786706  9437 net.cpp:165] Memory required for data: 95846400
I0204 20:20:13.786718  9437 layer_factory.hpp:77] Creating layer prelu1_2_4_prelu1_2_4_0_split
I0204 20:20:13.786731  9437 net.cpp:100] Creating Layer prelu1_2_4_prelu1_2_4_0_split
I0204 20:20:13.786741  9437 net.cpp:434] prelu1_2_4_prelu1_2_4_0_split <- prelu1_2_4
I0204 20:20:13.786752  9437 net.cpp:408] prelu1_2_4_prelu1_2_4_0_split -> prelu1_2_4_prelu1_2_4_0_split_0
I0204 20:20:13.786767  9437 net.cpp:408] prelu1_2_4_prelu1_2_4_0_split -> prelu1_2_4_prelu1_2_4_0_split_1
I0204 20:20:13.786836  9437 net.cpp:150] Setting up prelu1_2_4_prelu1_2_4_0_split
I0204 20:20:13.786855  9437 net.cpp:157] Top shape: 16 64 30 30 (921600)
I0204 20:20:13.786866  9437 net.cpp:157] Top shape: 16 64 30 30 (921600)
I0204 20:20:13.786875  9437 net.cpp:165] Memory required for data: 103219200
I0204 20:20:13.786885  9437 layer_factory.hpp:77] Creating layer conv1_3_0
I0204 20:20:13.786905  9437 net.cpp:100] Creating Layer conv1_3_0
I0204 20:20:13.786921  9437 net.cpp:434] conv1_3_0 <- prelu1_2_4_prelu1_2_4_0_split_0
I0204 20:20:13.786948  9437 net.cpp:408] conv1_3_0 -> conv1_3_0
I0204 20:20:13.788959  9437 net.cpp:150] Setting up conv1_3_0
I0204 20:20:13.788985  9437 net.cpp:157] Top shape: 16 16 30 30 (230400)
I0204 20:20:13.788995  9437 net.cpp:165] Memory required for data: 104140800
I0204 20:20:13.789010  9437 layer_factory.hpp:77] Creating layer prelu1_3_0
I0204 20:20:13.789026  9437 net.cpp:100] Creating Layer prelu1_3_0
I0204 20:20:13.789036  9437 net.cpp:434] prelu1_3_0 <- conv1_3_0
I0204 20:20:13.789049  9437 net.cpp:408] prelu1_3_0 -> prelu1_3_0
I0204 20:20:13.789218  9437 net.cpp:150] Setting up prelu1_3_0
I0204 20:20:13.789243  9437 net.cpp:157] Top shape: 16 16 30 30 (230400)
I0204 20:20:13.789252  9437 net.cpp:165] Memory required for data: 105062400
I0204 20:20:13.789264  9437 layer_factory.hpp:77] Creating layer conv1_3_1
I0204 20:20:13.789281  9437 net.cpp:100] Creating Layer conv1_3_1
I0204 20:20:13.789291  9437 net.cpp:434] conv1_3_1 <- prelu1_3_0
I0204 20:20:13.789307  9437 net.cpp:408] conv1_3_1 -> conv1_3_1
I0204 20:20:13.790704  9437 net.cpp:150] Setting up conv1_3_1
I0204 20:20:13.790730  9437 net.cpp:157] Top shape: 16 16 30 30 (230400)
I0204 20:20:13.790740  9437 net.cpp:165] Memory required for data: 105984000
I0204 20:20:13.790755  9437 layer_factory.hpp:77] Creating layer prelu1_3_1
I0204 20:20:13.790768  9437 net.cpp:100] Creating Layer prelu1_3_1
I0204 20:20:13.790778  9437 net.cpp:434] prelu1_3_1 <- conv1_3_1
I0204 20:20:13.790791  9437 net.cpp:408] prelu1_3_1 -> prelu1_3_1
I0204 20:20:13.790964  9437 net.cpp:150] Setting up prelu1_3_1
I0204 20:20:13.790985  9437 net.cpp:157] Top shape: 16 16 30 30 (230400)
I0204 20:20:13.790994  9437 net.cpp:165] Memory required for data: 106905600
I0204 20:20:13.791007  9437 layer_factory.hpp:77] Creating layer conv1_3_2
I0204 20:20:13.791028  9437 net.cpp:100] Creating Layer conv1_3_2
I0204 20:20:13.791038  9437 net.cpp:434] conv1_3_2 <- prelu1_3_1
I0204 20:20:13.791052  9437 net.cpp:408] conv1_3_2 -> conv1_3_2
I0204 20:20:13.793066  9437 net.cpp:150] Setting up conv1_3_2
I0204 20:20:13.793092  9437 net.cpp:157] Top shape: 16 64 30 30 (921600)
I0204 20:20:13.793102  9437 net.cpp:165] Memory required for data: 110592000
I0204 20:20:13.793117  9437 layer_factory.hpp:77] Creating layer eltwise1_3_4
I0204 20:20:13.793133  9437 net.cpp:100] Creating Layer eltwise1_3_4
I0204 20:20:13.793144  9437 net.cpp:434] eltwise1_3_4 <- prelu1_2_4_prelu1_2_4_0_split_1
I0204 20:20:13.793155  9437 net.cpp:434] eltwise1_3_4 <- conv1_3_2
I0204 20:20:13.793169  9437 net.cpp:408] eltwise1_3_4 -> eltwise1_3_4
I0204 20:20:13.793221  9437 net.cpp:150] Setting up eltwise1_3_4
I0204 20:20:13.793239  9437 net.cpp:157] Top shape: 16 64 30 30 (921600)
I0204 20:20:13.793248  9437 net.cpp:165] Memory required for data: 114278400
I0204 20:20:13.793257  9437 layer_factory.hpp:77] Creating layer prelu1_3_4
I0204 20:20:13.793273  9437 net.cpp:100] Creating Layer prelu1_3_4
I0204 20:20:13.793283  9437 net.cpp:434] prelu1_3_4 <- eltwise1_3_4
I0204 20:20:13.793296  9437 net.cpp:408] prelu1_3_4 -> prelu1_3_4
I0204 20:20:13.793512  9437 net.cpp:150] Setting up prelu1_3_4
I0204 20:20:13.793534  9437 net.cpp:157] Top shape: 16 64 30 30 (921600)
I0204 20:20:13.793543  9437 net.cpp:165] Memory required for data: 117964800
I0204 20:20:13.793556  9437 layer_factory.hpp:77] Creating layer prelu1_3_4_prelu1_3_4_0_split
I0204 20:20:13.793570  9437 net.cpp:100] Creating Layer prelu1_3_4_prelu1_3_4_0_split
I0204 20:20:13.793578  9437 net.cpp:434] prelu1_3_4_prelu1_3_4_0_split <- prelu1_3_4
I0204 20:20:13.793594  9437 net.cpp:408] prelu1_3_4_prelu1_3_4_0_split -> prelu1_3_4_prelu1_3_4_0_split_0
I0204 20:20:13.793609  9437 net.cpp:408] prelu1_3_4_prelu1_3_4_0_split -> prelu1_3_4_prelu1_3_4_0_split_1
I0204 20:20:13.793680  9437 net.cpp:150] Setting up prelu1_3_4_prelu1_3_4_0_split
I0204 20:20:13.793699  9437 net.cpp:157] Top shape: 16 64 30 30 (921600)
I0204 20:20:13.793709  9437 net.cpp:157] Top shape: 16 64 30 30 (921600)
I0204 20:20:13.793717  9437 net.cpp:165] Memory required for data: 125337600
I0204 20:20:13.793746  9437 layer_factory.hpp:77] Creating layer conv1_4_0
I0204 20:20:13.793767  9437 net.cpp:100] Creating Layer conv1_4_0
I0204 20:20:13.793778  9437 net.cpp:434] conv1_4_0 <- prelu1_3_4_prelu1_3_4_0_split_0
I0204 20:20:13.793792  9437 net.cpp:408] conv1_4_0 -> conv1_4_0
I0204 20:20:13.795750  9437 net.cpp:150] Setting up conv1_4_0
I0204 20:20:13.795776  9437 net.cpp:157] Top shape: 16 16 30 30 (230400)
I0204 20:20:13.795786  9437 net.cpp:165] Memory required for data: 126259200
I0204 20:20:13.795800  9437 layer_factory.hpp:77] Creating layer prelu1_4_0
I0204 20:20:13.795814  9437 net.cpp:100] Creating Layer prelu1_4_0
I0204 20:20:13.795825  9437 net.cpp:434] prelu1_4_0 <- conv1_4_0
I0204 20:20:13.795840  9437 net.cpp:408] prelu1_4_0 -> prelu1_4_0
I0204 20:20:13.796020  9437 net.cpp:150] Setting up prelu1_4_0
I0204 20:20:13.796041  9437 net.cpp:157] Top shape: 16 16 30 30 (230400)
I0204 20:20:13.796049  9437 net.cpp:165] Memory required for data: 127180800
I0204 20:20:13.796061  9437 layer_factory.hpp:77] Creating layer conv1_4_1
I0204 20:20:13.796082  9437 net.cpp:100] Creating Layer conv1_4_1
I0204 20:20:13.796092  9437 net.cpp:434] conv1_4_1 <- prelu1_4_0
I0204 20:20:13.796109  9437 net.cpp:408] conv1_4_1 -> conv1_4_1
I0204 20:20:13.798171  9437 net.cpp:150] Setting up conv1_4_1
I0204 20:20:13.798197  9437 net.cpp:157] Top shape: 16 16 30 30 (230400)
I0204 20:20:13.798207  9437 net.cpp:165] Memory required for data: 128102400
I0204 20:20:13.798223  9437 layer_factory.hpp:77] Creating layer prelu1_4_1
I0204 20:20:13.798238  9437 net.cpp:100] Creating Layer prelu1_4_1
I0204 20:20:13.798249  9437 net.cpp:434] prelu1_4_1 <- conv1_4_1
I0204 20:20:13.798262  9437 net.cpp:408] prelu1_4_1 -> prelu1_4_1
I0204 20:20:13.798445  9437 net.cpp:150] Setting up prelu1_4_1
I0204 20:20:13.798466  9437 net.cpp:157] Top shape: 16 16 30 30 (230400)
I0204 20:20:13.798475  9437 net.cpp:165] Memory required for data: 129024000
I0204 20:20:13.798487  9437 layer_factory.hpp:77] Creating layer conv1_4_2
I0204 20:20:13.798508  9437 net.cpp:100] Creating Layer conv1_4_2
I0204 20:20:13.798519  9437 net.cpp:434] conv1_4_2 <- prelu1_4_1
I0204 20:20:13.798535  9437 net.cpp:408] conv1_4_2 -> conv1_4_2
I0204 20:20:13.800530  9437 net.cpp:150] Setting up conv1_4_2
I0204 20:20:13.800560  9437 net.cpp:157] Top shape: 16 64 30 30 (921600)
I0204 20:20:13.800570  9437 net.cpp:165] Memory required for data: 132710400
I0204 20:20:13.800585  9437 layer_factory.hpp:77] Creating layer eltwise1_4_4
I0204 20:20:13.800598  9437 net.cpp:100] Creating Layer eltwise1_4_4
I0204 20:20:13.800608  9437 net.cpp:434] eltwise1_4_4 <- prelu1_3_4_prelu1_3_4_0_split_1
I0204 20:20:13.800621  9437 net.cpp:434] eltwise1_4_4 <- conv1_4_2
I0204 20:20:13.800731  9437 net.cpp:408] eltwise1_4_4 -> eltwise1_4_4
I0204 20:20:13.800796  9437 net.cpp:150] Setting up eltwise1_4_4
I0204 20:20:13.800814  9437 net.cpp:157] Top shape: 16 64 30 30 (921600)
I0204 20:20:13.800823  9437 net.cpp:165] Memory required for data: 136396800
I0204 20:20:13.800832  9437 layer_factory.hpp:77] Creating layer prelu1_4_4
I0204 20:20:13.800844  9437 net.cpp:100] Creating Layer prelu1_4_4
I0204 20:20:13.800854  9437 net.cpp:434] prelu1_4_4 <- eltwise1_4_4
I0204 20:20:13.800869  9437 net.cpp:408] prelu1_4_4 -> prelu1_4_4
I0204 20:20:13.801090  9437 net.cpp:150] Setting up prelu1_4_4
I0204 20:20:13.801112  9437 net.cpp:157] Top shape: 16 64 30 30 (921600)
I0204 20:20:13.801121  9437 net.cpp:165] Memory required for data: 140083200
I0204 20:20:13.801134  9437 layer_factory.hpp:77] Creating layer prelu1_4_4_prelu1_4_4_0_split
I0204 20:20:13.801146  9437 net.cpp:100] Creating Layer prelu1_4_4_prelu1_4_4_0_split
I0204 20:20:13.801156  9437 net.cpp:434] prelu1_4_4_prelu1_4_4_0_split <- prelu1_4_4
I0204 20:20:13.801168  9437 net.cpp:408] prelu1_4_4_prelu1_4_4_0_split -> prelu1_4_4_prelu1_4_4_0_split_0
I0204 20:20:13.801187  9437 net.cpp:408] prelu1_4_4_prelu1_4_4_0_split -> prelu1_4_4_prelu1_4_4_0_split_1
I0204 20:20:13.801256  9437 net.cpp:150] Setting up prelu1_4_4_prelu1_4_4_0_split
I0204 20:20:13.801282  9437 net.cpp:157] Top shape: 16 64 30 30 (921600)
I0204 20:20:13.801304  9437 net.cpp:157] Top shape: 16 64 30 30 (921600)
I0204 20:20:13.801313  9437 net.cpp:165] Memory required for data: 147456000
I0204 20:20:13.801323  9437 layer_factory.hpp:77] Creating layer conv2_0_0
I0204 20:20:13.801344  9437 net.cpp:100] Creating Layer conv2_0_0
I0204 20:20:13.801355  9437 net.cpp:434] conv2_0_0 <- prelu1_4_4_prelu1_4_4_0_split_0
I0204 20:20:13.801369  9437 net.cpp:408] conv2_0_0 -> conv2_0_0
I0204 20:20:13.804406  9437 net.cpp:150] Setting up conv2_0_0
I0204 20:20:13.804432  9437 net.cpp:157] Top shape: 16 32 15 15 (115200)
I0204 20:20:13.804442  9437 net.cpp:165] Memory required for data: 147916800
I0204 20:20:13.804456  9437 layer_factory.hpp:77] Creating layer prelu2_0_0
I0204 20:20:13.804473  9437 net.cpp:100] Creating Layer prelu2_0_0
I0204 20:20:13.804483  9437 net.cpp:434] prelu2_0_0 <- conv2_0_0
I0204 20:20:13.804497  9437 net.cpp:408] prelu2_0_0 -> prelu2_0_0
I0204 20:20:13.804682  9437 net.cpp:150] Setting up prelu2_0_0
I0204 20:20:13.804704  9437 net.cpp:157] Top shape: 16 32 15 15 (115200)
I0204 20:20:13.804713  9437 net.cpp:165] Memory required for data: 148377600
I0204 20:20:13.804725  9437 layer_factory.hpp:77] Creating layer conv2_0_1
I0204 20:20:13.804744  9437 net.cpp:100] Creating Layer conv2_0_1
I0204 20:20:13.804755  9437 net.cpp:434] conv2_0_1 <- prelu2_0_0
I0204 20:20:13.804771  9437 net.cpp:408] conv2_0_1 -> conv2_0_1
I0204 20:20:13.807229  9437 net.cpp:150] Setting up conv2_0_1
I0204 20:20:13.807255  9437 net.cpp:157] Top shape: 16 32 15 15 (115200)
I0204 20:20:13.807265  9437 net.cpp:165] Memory required for data: 148838400
I0204 20:20:13.807281  9437 layer_factory.hpp:77] Creating layer prelu2_0_1
I0204 20:20:13.807297  9437 net.cpp:100] Creating Layer prelu2_0_1
I0204 20:20:13.807308  9437 net.cpp:434] prelu2_0_1 <- conv2_0_1
I0204 20:20:13.807320  9437 net.cpp:408] prelu2_0_1 -> prelu2_0_1
I0204 20:20:13.807487  9437 net.cpp:150] Setting up prelu2_0_1
I0204 20:20:13.807507  9437 net.cpp:157] Top shape: 16 32 15 15 (115200)
I0204 20:20:13.807516  9437 net.cpp:165] Memory required for data: 149299200
I0204 20:20:13.807528  9437 layer_factory.hpp:77] Creating layer conv2_0_2
I0204 20:20:13.807548  9437 net.cpp:100] Creating Layer conv2_0_2
I0204 20:20:13.807559  9437 net.cpp:434] conv2_0_2 <- prelu2_0_1
I0204 20:20:13.807577  9437 net.cpp:408] conv2_0_2 -> conv2_0_2
I0204 20:20:13.809729  9437 net.cpp:150] Setting up conv2_0_2
I0204 20:20:13.809756  9437 net.cpp:157] Top shape: 16 128 15 15 (460800)
I0204 20:20:13.809767  9437 net.cpp:165] Memory required for data: 151142400
I0204 20:20:13.809783  9437 layer_factory.hpp:77] Creating layer pool2_0_4
I0204 20:20:13.809795  9437 layer_factory.cpp:91] cuDNN does not support multiple tops. Using Caffe's own pooling layer.
I0204 20:20:13.809808  9437 net.cpp:100] Creating Layer pool2_0_4
I0204 20:20:13.809818  9437 net.cpp:434] pool2_0_4 <- prelu1_4_4_prelu1_4_4_0_split_1
I0204 20:20:13.809834  9437 net.cpp:408] pool2_0_4 -> pool2_0_4
I0204 20:20:13.809864  9437 net.cpp:408] pool2_0_4 -> pool2_0_4_mask
I0204 20:20:13.809944  9437 net.cpp:150] Setting up pool2_0_4
I0204 20:20:13.809963  9437 net.cpp:157] Top shape: 16 64 15 15 (230400)
I0204 20:20:13.809975  9437 net.cpp:157] Top shape: 16 64 15 15 (230400)
I0204 20:20:13.809983  9437 net.cpp:165] Memory required for data: 152985600
I0204 20:20:13.809993  9437 layer_factory.hpp:77] Creating layer conv2_0_4
I0204 20:20:13.810015  9437 net.cpp:100] Creating Layer conv2_0_4
I0204 20:20:13.810026  9437 net.cpp:434] conv2_0_4 <- pool2_0_4
I0204 20:20:13.810040  9437 net.cpp:408] conv2_0_4 -> conv2_0_4
I0204 20:20:13.812381  9437 net.cpp:150] Setting up conv2_0_4
I0204 20:20:13.812414  9437 net.cpp:157] Top shape: 16 128 15 15 (460800)
I0204 20:20:13.812425  9437 net.cpp:165] Memory required for data: 154828800
I0204 20:20:13.812439  9437 layer_factory.hpp:77] Creating layer eltwise2_0_4
I0204 20:20:13.812453  9437 net.cpp:100] Creating Layer eltwise2_0_4
I0204 20:20:13.812470  9437 net.cpp:434] eltwise2_0_4 <- conv2_0_4
I0204 20:20:13.812494  9437 net.cpp:434] eltwise2_0_4 <- conv2_0_2
I0204 20:20:13.812507  9437 net.cpp:408] eltwise2_0_4 -> eltwise2_0_4
I0204 20:20:13.812568  9437 net.cpp:150] Setting up eltwise2_0_4
I0204 20:20:13.812587  9437 net.cpp:157] Top shape: 16 128 15 15 (460800)
I0204 20:20:13.812597  9437 net.cpp:165] Memory required for data: 156672000
I0204 20:20:13.812605  9437 layer_factory.hpp:77] Creating layer prelu2_0_4
I0204 20:20:13.812620  9437 net.cpp:100] Creating Layer prelu2_0_4
I0204 20:20:13.812652  9437 net.cpp:434] prelu2_0_4 <- eltwise2_0_4
I0204 20:20:13.812670  9437 net.cpp:408] prelu2_0_4 -> prelu2_0_4
I0204 20:20:13.812857  9437 net.cpp:150] Setting up prelu2_0_4
I0204 20:20:13.812880  9437 net.cpp:157] Top shape: 16 128 15 15 (460800)
I0204 20:20:13.812888  9437 net.cpp:165] Memory required for data: 158515200
I0204 20:20:13.812901  9437 layer_factory.hpp:77] Creating layer prelu2_0_4_prelu2_0_4_0_split
I0204 20:20:13.812913  9437 net.cpp:100] Creating Layer prelu2_0_4_prelu2_0_4_0_split
I0204 20:20:13.812923  9437 net.cpp:434] prelu2_0_4_prelu2_0_4_0_split <- prelu2_0_4
I0204 20:20:13.812938  9437 net.cpp:408] prelu2_0_4_prelu2_0_4_0_split -> prelu2_0_4_prelu2_0_4_0_split_0
I0204 20:20:13.812952  9437 net.cpp:408] prelu2_0_4_prelu2_0_4_0_split -> prelu2_0_4_prelu2_0_4_0_split_1
I0204 20:20:13.813022  9437 net.cpp:150] Setting up prelu2_0_4_prelu2_0_4_0_split
I0204 20:20:13.813043  9437 net.cpp:157] Top shape: 16 128 15 15 (460800)
I0204 20:20:13.813055  9437 net.cpp:157] Top shape: 16 128 15 15 (460800)
I0204 20:20:13.813063  9437 net.cpp:165] Memory required for data: 162201600
I0204 20:20:13.813072  9437 layer_factory.hpp:77] Creating layer conv2_1_0
I0204 20:20:13.813091  9437 net.cpp:100] Creating Layer conv2_1_0
I0204 20:20:13.813102  9437 net.cpp:434] conv2_1_0 <- prelu2_0_4_prelu2_0_4_0_split_0
I0204 20:20:13.813115  9437 net.cpp:408] conv2_1_0 -> conv2_1_0
I0204 20:20:13.815263  9437 net.cpp:150] Setting up conv2_1_0
I0204 20:20:13.815287  9437 net.cpp:157] Top shape: 16 32 15 15 (115200)
I0204 20:20:13.815297  9437 net.cpp:165] Memory required for data: 162662400
I0204 20:20:13.815327  9437 layer_factory.hpp:77] Creating layer prelu2_1_0
I0204 20:20:13.815345  9437 net.cpp:100] Creating Layer prelu2_1_0
I0204 20:20:13.815356  9437 net.cpp:434] prelu2_1_0 <- conv2_1_0
I0204 20:20:13.815368  9437 net.cpp:408] prelu2_1_0 -> prelu2_1_0
I0204 20:20:13.815543  9437 net.cpp:150] Setting up prelu2_1_0
I0204 20:20:13.815564  9437 net.cpp:157] Top shape: 16 32 15 15 (115200)
I0204 20:20:13.815573  9437 net.cpp:165] Memory required for data: 163123200
I0204 20:20:13.815585  9437 layer_factory.hpp:77] Creating layer conv2_1_1
I0204 20:20:13.815605  9437 net.cpp:100] Creating Layer conv2_1_1
I0204 20:20:13.815615  9437 net.cpp:434] conv2_1_1 <- prelu2_1_0
I0204 20:20:13.815632  9437 net.cpp:408] conv2_1_1 -> conv2_1_1
I0204 20:20:13.817387  9437 net.cpp:150] Setting up conv2_1_1
I0204 20:20:13.817412  9437 net.cpp:157] Top shape: 16 32 15 15 (115200)
I0204 20:20:13.817421  9437 net.cpp:165] Memory required for data: 163584000
I0204 20:20:13.817436  9437 layer_factory.hpp:77] Creating layer prelu2_1_1
I0204 20:20:13.817452  9437 net.cpp:100] Creating Layer prelu2_1_1
I0204 20:20:13.817463  9437 net.cpp:434] prelu2_1_1 <- conv2_1_1
I0204 20:20:13.817476  9437 net.cpp:408] prelu2_1_1 -> prelu2_1_1
I0204 20:20:13.817646  9437 net.cpp:150] Setting up prelu2_1_1
I0204 20:20:13.817667  9437 net.cpp:157] Top shape: 16 32 15 15 (115200)
I0204 20:20:13.817677  9437 net.cpp:165] Memory required for data: 164044800
I0204 20:20:13.817688  9437 layer_factory.hpp:77] Creating layer conv2_1_2
I0204 20:20:13.817718  9437 net.cpp:100] Creating Layer conv2_1_2
I0204 20:20:13.817731  9437 net.cpp:434] conv2_1_2 <- prelu2_1_1
I0204 20:20:13.817751  9437 net.cpp:408] conv2_1_2 -> conv2_1_2
I0204 20:20:13.819908  9437 net.cpp:150] Setting up conv2_1_2
I0204 20:20:13.819934  9437 net.cpp:157] Top shape: 16 128 15 15 (460800)
I0204 20:20:13.819944  9437 net.cpp:165] Memory required for data: 165888000
I0204 20:20:13.819967  9437 layer_factory.hpp:77] Creating layer eltwise2_1_4
I0204 20:20:13.819990  9437 net.cpp:100] Creating Layer eltwise2_1_4
I0204 20:20:13.820001  9437 net.cpp:434] eltwise2_1_4 <- prelu2_0_4_prelu2_0_4_0_split_1
I0204 20:20:13.820013  9437 net.cpp:434] eltwise2_1_4 <- conv2_1_2
I0204 20:20:13.820029  9437 net.cpp:408] eltwise2_1_4 -> eltwise2_1_4
I0204 20:20:13.820081  9437 net.cpp:150] Setting up eltwise2_1_4
I0204 20:20:13.820104  9437 net.cpp:157] Top shape: 16 128 15 15 (460800)
I0204 20:20:13.820113  9437 net.cpp:165] Memory required for data: 167731200
I0204 20:20:13.820123  9437 layer_factory.hpp:77] Creating layer prelu2_1_4
I0204 20:20:13.820134  9437 net.cpp:100] Creating Layer prelu2_1_4
I0204 20:20:13.820144  9437 net.cpp:434] prelu2_1_4 <- eltwise2_1_4
I0204 20:20:13.820156  9437 net.cpp:408] prelu2_1_4 -> prelu2_1_4
I0204 20:20:13.820338  9437 net.cpp:150] Setting up prelu2_1_4
I0204 20:20:13.820359  9437 net.cpp:157] Top shape: 16 128 15 15 (460800)
I0204 20:20:13.820369  9437 net.cpp:165] Memory required for data: 169574400
I0204 20:20:13.820380  9437 layer_factory.hpp:77] Creating layer prelu2_1_4_prelu2_1_4_0_split
I0204 20:20:13.820396  9437 net.cpp:100] Creating Layer prelu2_1_4_prelu2_1_4_0_split
I0204 20:20:13.820406  9437 net.cpp:434] prelu2_1_4_prelu2_1_4_0_split <- prelu2_1_4
I0204 20:20:13.820418  9437 net.cpp:408] prelu2_1_4_prelu2_1_4_0_split -> prelu2_1_4_prelu2_1_4_0_split_0
I0204 20:20:13.820432  9437 net.cpp:408] prelu2_1_4_prelu2_1_4_0_split -> prelu2_1_4_prelu2_1_4_0_split_1
I0204 20:20:13.820507  9437 net.cpp:150] Setting up prelu2_1_4_prelu2_1_4_0_split
I0204 20:20:13.820524  9437 net.cpp:157] Top shape: 16 128 15 15 (460800)
I0204 20:20:13.820535  9437 net.cpp:157] Top shape: 16 128 15 15 (460800)
I0204 20:20:13.820544  9437 net.cpp:165] Memory required for data: 173260800
I0204 20:20:13.820554  9437 layer_factory.hpp:77] Creating layer conv2_2_0
I0204 20:20:13.820572  9437 net.cpp:100] Creating Layer conv2_2_0
I0204 20:20:13.820583  9437 net.cpp:434] conv2_2_0 <- prelu2_1_4_prelu2_1_4_0_split_0
I0204 20:20:13.820602  9437 net.cpp:408] conv2_2_0 -> conv2_2_0
I0204 20:20:13.822752  9437 net.cpp:150] Setting up conv2_2_0
I0204 20:20:13.822787  9437 net.cpp:157] Top shape: 16 32 15 15 (115200)
I0204 20:20:13.822798  9437 net.cpp:165] Memory required for data: 173721600
I0204 20:20:13.822813  9437 layer_factory.hpp:77] Creating layer prelu2_2_0
I0204 20:20:13.822825  9437 net.cpp:100] Creating Layer prelu2_2_0
I0204 20:20:13.822835  9437 net.cpp:434] prelu2_2_0 <- conv2_2_0
I0204 20:20:13.822852  9437 net.cpp:408] prelu2_2_0 -> prelu2_2_0
I0204 20:20:13.823030  9437 net.cpp:150] Setting up prelu2_2_0
I0204 20:20:13.823051  9437 net.cpp:157] Top shape: 16 32 15 15 (115200)
I0204 20:20:13.823060  9437 net.cpp:165] Memory required for data: 174182400
I0204 20:20:13.823072  9437 layer_factory.hpp:77] Creating layer conv2_2_1
I0204 20:20:13.823093  9437 net.cpp:100] Creating Layer conv2_2_1
I0204 20:20:13.823104  9437 net.cpp:434] conv2_2_1 <- prelu2_2_0
I0204 20:20:13.823118  9437 net.cpp:408] conv2_2_1 -> conv2_2_1
I0204 20:20:13.823997  9437 net.cpp:150] Setting up conv2_2_1
I0204 20:20:13.824018  9437 net.cpp:157] Top shape: 16 32 15 15 (115200)
I0204 20:20:13.824028  9437 net.cpp:165] Memory required for data: 174643200
I0204 20:20:13.824040  9437 layer_factory.hpp:77] Creating layer prelu2_2_1
I0204 20:20:13.824054  9437 net.cpp:100] Creating Layer prelu2_2_1
I0204 20:20:13.824062  9437 net.cpp:434] prelu2_2_1 <- conv2_2_1
I0204 20:20:13.824082  9437 net.cpp:408] prelu2_2_1 -> prelu2_2_1
I0204 20:20:13.824251  9437 net.cpp:150] Setting up prelu2_2_1
I0204 20:20:13.824271  9437 net.cpp:157] Top shape: 16 32 15 15 (115200)
I0204 20:20:13.824280  9437 net.cpp:165] Memory required for data: 175104000
I0204 20:20:13.824292  9437 layer_factory.hpp:77] Creating layer conv2_2_2
I0204 20:20:13.824312  9437 net.cpp:100] Creating Layer conv2_2_2
I0204 20:20:13.824323  9437 net.cpp:434] conv2_2_2 <- prelu2_2_1
I0204 20:20:13.824339  9437 net.cpp:408] conv2_2_2 -> conv2_2_2
I0204 20:20:13.826505  9437 net.cpp:150] Setting up conv2_2_2
I0204 20:20:13.826545  9437 net.cpp:157] Top shape: 16 128 15 15 (460800)
I0204 20:20:13.826555  9437 net.cpp:165] Memory required for data: 176947200
I0204 20:20:13.826568  9437 layer_factory.hpp:77] Creating layer eltwise2_2_4
I0204 20:20:13.826587  9437 net.cpp:100] Creating Layer eltwise2_2_4
I0204 20:20:13.826598  9437 net.cpp:434] eltwise2_2_4 <- prelu2_1_4_prelu2_1_4_0_split_1
I0204 20:20:13.826611  9437 net.cpp:434] eltwise2_2_4 <- conv2_2_2
I0204 20:20:13.826625  9437 net.cpp:408] eltwise2_2_4 -> eltwise2_2_4
I0204 20:20:13.826678  9437 net.cpp:150] Setting up eltwise2_2_4
I0204 20:20:13.826696  9437 net.cpp:157] Top shape: 16 128 15 15 (460800)
I0204 20:20:13.826705  9437 net.cpp:165] Memory required for data: 178790400
I0204 20:20:13.826715  9437 layer_factory.hpp:77] Creating layer prelu2_2_4
I0204 20:20:13.826731  9437 net.cpp:100] Creating Layer prelu2_2_4
I0204 20:20:13.826741  9437 net.cpp:434] prelu2_2_4 <- eltwise2_2_4
I0204 20:20:13.826755  9437 net.cpp:408] prelu2_2_4 -> prelu2_2_4
I0204 20:20:13.826937  9437 net.cpp:150] Setting up prelu2_2_4
I0204 20:20:13.826959  9437 net.cpp:157] Top shape: 16 128 15 15 (460800)
I0204 20:20:13.826968  9437 net.cpp:165] Memory required for data: 180633600
I0204 20:20:13.826980  9437 layer_factory.hpp:77] Creating layer prelu2_2_4_prelu2_2_4_0_split
I0204 20:20:13.826993  9437 net.cpp:100] Creating Layer prelu2_2_4_prelu2_2_4_0_split
I0204 20:20:13.827003  9437 net.cpp:434] prelu2_2_4_prelu2_2_4_0_split <- prelu2_2_4
I0204 20:20:13.827019  9437 net.cpp:408] prelu2_2_4_prelu2_2_4_0_split -> prelu2_2_4_prelu2_2_4_0_split_0
I0204 20:20:13.827034  9437 net.cpp:408] prelu2_2_4_prelu2_2_4_0_split -> prelu2_2_4_prelu2_2_4_0_split_1
I0204 20:20:13.827106  9437 net.cpp:150] Setting up prelu2_2_4_prelu2_2_4_0_split
I0204 20:20:13.827124  9437 net.cpp:157] Top shape: 16 128 15 15 (460800)
I0204 20:20:13.827137  9437 net.cpp:157] Top shape: 16 128 15 15 (460800)
I0204 20:20:13.827147  9437 net.cpp:165] Memory required for data: 184320000
I0204 20:20:13.827155  9437 layer_factory.hpp:77] Creating layer conv2_3_0
I0204 20:20:13.827178  9437 net.cpp:100] Creating Layer conv2_3_0
I0204 20:20:13.827189  9437 net.cpp:434] conv2_3_0 <- prelu2_2_4_prelu2_2_4_0_split_0
I0204 20:20:13.827203  9437 net.cpp:408] conv2_3_0 -> conv2_3_0
I0204 20:20:13.829380  9437 net.cpp:150] Setting up conv2_3_0
I0204 20:20:13.829406  9437 net.cpp:157] Top shape: 16 32 15 15 (115200)
I0204 20:20:13.829416  9437 net.cpp:165] Memory required for data: 184780800
I0204 20:20:13.829429  9437 layer_factory.hpp:77] Creating layer prelu2_3_0
I0204 20:20:13.829443  9437 net.cpp:100] Creating Layer prelu2_3_0
I0204 20:20:13.829453  9437 net.cpp:434] prelu2_3_0 <- conv2_3_0
I0204 20:20:13.829469  9437 net.cpp:408] prelu2_3_0 -> prelu2_3_0
I0204 20:20:13.829649  9437 net.cpp:150] Setting up prelu2_3_0
I0204 20:20:13.829670  9437 net.cpp:157] Top shape: 16 32 15 15 (115200)
I0204 20:20:13.829679  9437 net.cpp:165] Memory required for data: 185241600
I0204 20:20:13.829691  9437 layer_factory.hpp:77] Creating layer conv2_3_1_a
I0204 20:20:13.829711  9437 net.cpp:100] Creating Layer conv2_3_1_a
I0204 20:20:13.829723  9437 net.cpp:434] conv2_3_1_a <- prelu2_3_0
I0204 20:20:13.829744  9437 net.cpp:408] conv2_3_1_a -> conv2_3_1_a
I0204 20:20:13.832651  9437 net.cpp:150] Setting up conv2_3_1_a
I0204 20:20:13.832679  9437 net.cpp:157] Top shape: 16 32 13 17 (113152)
I0204 20:20:13.832689  9437 net.cpp:165] Memory required for data: 185694208
I0204 20:20:13.832705  9437 layer_factory.hpp:77] Creating layer conv2_3_1
I0204 20:20:13.832726  9437 net.cpp:100] Creating Layer conv2_3_1
I0204 20:20:13.832737  9437 net.cpp:434] conv2_3_1 <- conv2_3_1_a
I0204 20:20:13.832753  9437 net.cpp:408] conv2_3_1 -> conv2_3_1
I0204 20:20:13.835041  9437 net.cpp:150] Setting up conv2_3_1
I0204 20:20:13.835072  9437 net.cpp:157] Top shape: 16 32 15 15 (115200)
I0204 20:20:13.835083  9437 net.cpp:165] Memory required for data: 186155008
I0204 20:20:13.835104  9437 layer_factory.hpp:77] Creating layer prelu2_3_1
I0204 20:20:13.835132  9437 net.cpp:100] Creating Layer prelu2_3_1
I0204 20:20:13.835144  9437 net.cpp:434] prelu2_3_1 <- conv2_3_1
I0204 20:20:13.835157  9437 net.cpp:408] prelu2_3_1 -> prelu2_3_1
I0204 20:20:13.835336  9437 net.cpp:150] Setting up prelu2_3_1
I0204 20:20:13.835357  9437 net.cpp:157] Top shape: 16 32 15 15 (115200)
I0204 20:20:13.835366  9437 net.cpp:165] Memory required for data: 186615808
I0204 20:20:13.835378  9437 layer_factory.hpp:77] Creating layer conv2_3_2
I0204 20:20:13.835398  9437 net.cpp:100] Creating Layer conv2_3_2
I0204 20:20:13.835409  9437 net.cpp:434] conv2_3_2 <- prelu2_3_1
I0204 20:20:13.835425  9437 net.cpp:408] conv2_3_2 -> conv2_3_2
I0204 20:20:13.837749  9437 net.cpp:150] Setting up conv2_3_2
I0204 20:20:13.837777  9437 net.cpp:157] Top shape: 16 128 15 15 (460800)
I0204 20:20:13.837787  9437 net.cpp:165] Memory required for data: 188459008
I0204 20:20:13.837802  9437 layer_factory.hpp:77] Creating layer eltwise2_3_4
I0204 20:20:13.837816  9437 net.cpp:100] Creating Layer eltwise2_3_4
I0204 20:20:13.837827  9437 net.cpp:434] eltwise2_3_4 <- prelu2_2_4_prelu2_2_4_0_split_1
I0204 20:20:13.837839  9437 net.cpp:434] eltwise2_3_4 <- conv2_3_2
I0204 20:20:13.837855  9437 net.cpp:408] eltwise2_3_4 -> eltwise2_3_4
I0204 20:20:13.837913  9437 net.cpp:150] Setting up eltwise2_3_4
I0204 20:20:13.837935  9437 net.cpp:157] Top shape: 16 128 15 15 (460800)
I0204 20:20:13.837945  9437 net.cpp:165] Memory required for data: 190302208
I0204 20:20:13.837954  9437 layer_factory.hpp:77] Creating layer prelu2_3_4
I0204 20:20:13.837966  9437 net.cpp:100] Creating Layer prelu2_3_4
I0204 20:20:13.837976  9437 net.cpp:434] prelu2_3_4 <- eltwise2_3_4
I0204 20:20:13.837988  9437 net.cpp:408] prelu2_3_4 -> prelu2_3_4
I0204 20:20:13.838181  9437 net.cpp:150] Setting up prelu2_3_4
I0204 20:20:13.838202  9437 net.cpp:157] Top shape: 16 128 15 15 (460800)
I0204 20:20:13.838212  9437 net.cpp:165] Memory required for data: 192145408
I0204 20:20:13.838223  9437 layer_factory.hpp:77] Creating layer prelu2_3_4_prelu2_3_4_0_split
I0204 20:20:13.838239  9437 net.cpp:100] Creating Layer prelu2_3_4_prelu2_3_4_0_split
I0204 20:20:13.838249  9437 net.cpp:434] prelu2_3_4_prelu2_3_4_0_split <- prelu2_3_4
I0204 20:20:13.838261  9437 net.cpp:408] prelu2_3_4_prelu2_3_4_0_split -> prelu2_3_4_prelu2_3_4_0_split_0
I0204 20:20:13.838275  9437 net.cpp:408] prelu2_3_4_prelu2_3_4_0_split -> prelu2_3_4_prelu2_3_4_0_split_1
I0204 20:20:13.838351  9437 net.cpp:150] Setting up prelu2_3_4_prelu2_3_4_0_split
I0204 20:20:13.838368  9437 net.cpp:157] Top shape: 16 128 15 15 (460800)
I0204 20:20:13.838379  9437 net.cpp:157] Top shape: 16 128 15 15 (460800)
I0204 20:20:13.838388  9437 net.cpp:165] Memory required for data: 195831808
I0204 20:20:13.838397  9437 layer_factory.hpp:77] Creating layer conv2_4_0
I0204 20:20:13.838416  9437 net.cpp:100] Creating Layer conv2_4_0
I0204 20:20:13.838428  9437 net.cpp:434] conv2_4_0 <- prelu2_3_4_prelu2_3_4_0_split_0
I0204 20:20:13.838443  9437 net.cpp:408] conv2_4_0 -> conv2_4_0
I0204 20:20:13.840658  9437 net.cpp:150] Setting up conv2_4_0
I0204 20:20:13.840684  9437 net.cpp:157] Top shape: 16 32 15 15 (115200)
I0204 20:20:13.840694  9437 net.cpp:165] Memory required for data: 196292608
I0204 20:20:13.840709  9437 layer_factory.hpp:77] Creating layer prelu2_4_0
I0204 20:20:13.840723  9437 net.cpp:100] Creating Layer prelu2_4_0
I0204 20:20:13.840736  9437 net.cpp:434] prelu2_4_0 <- conv2_4_0
I0204 20:20:13.840749  9437 net.cpp:408] prelu2_4_0 -> prelu2_4_0
I0204 20:20:13.840934  9437 net.cpp:150] Setting up prelu2_4_0
I0204 20:20:13.840955  9437 net.cpp:157] Top shape: 16 32 15 15 (115200)
I0204 20:20:13.840963  9437 net.cpp:165] Memory required for data: 196753408
I0204 20:20:13.840975  9437 layer_factory.hpp:77] Creating layer conv2_4_1
I0204 20:20:13.840996  9437 net.cpp:100] Creating Layer conv2_4_1
I0204 20:20:13.841006  9437 net.cpp:434] conv2_4_1 <- prelu2_4_0
I0204 20:20:13.841023  9437 net.cpp:408] conv2_4_1 -> conv2_4_1
I0204 20:20:13.841928  9437 net.cpp:150] Setting up conv2_4_1
I0204 20:20:13.841961  9437 net.cpp:157] Top shape: 16 32 15 15 (115200)
I0204 20:20:13.841971  9437 net.cpp:165] Memory required for data: 197214208
I0204 20:20:13.841985  9437 layer_factory.hpp:77] Creating layer prelu2_4_1
I0204 20:20:13.841998  9437 net.cpp:100] Creating Layer prelu2_4_1
I0204 20:20:13.842008  9437 net.cpp:434] prelu2_4_1 <- conv2_4_1
I0204 20:20:13.842025  9437 net.cpp:408] prelu2_4_1 -> prelu2_4_1
I0204 20:20:13.842200  9437 net.cpp:150] Setting up prelu2_4_1
I0204 20:20:13.842221  9437 net.cpp:157] Top shape: 16 32 15 15 (115200)
I0204 20:20:13.842231  9437 net.cpp:165] Memory required for data: 197675008
I0204 20:20:13.842242  9437 layer_factory.hpp:77] Creating layer conv2_4_2
I0204 20:20:13.842262  9437 net.cpp:100] Creating Layer conv2_4_2
I0204 20:20:13.842273  9437 net.cpp:434] conv2_4_2 <- prelu2_4_1
I0204 20:20:13.842289  9437 net.cpp:408] conv2_4_2 -> conv2_4_2
I0204 20:20:13.844494  9437 net.cpp:150] Setting up conv2_4_2
I0204 20:20:13.844521  9437 net.cpp:157] Top shape: 16 128 15 15 (460800)
I0204 20:20:13.844530  9437 net.cpp:165] Memory required for data: 199518208
I0204 20:20:13.844544  9437 layer_factory.hpp:77] Creating layer eltwise2_4_4
I0204 20:20:13.844558  9437 net.cpp:100] Creating Layer eltwise2_4_4
I0204 20:20:13.844568  9437 net.cpp:434] eltwise2_4_4 <- prelu2_3_4_prelu2_3_4_0_split_1
I0204 20:20:13.844579  9437 net.cpp:434] eltwise2_4_4 <- conv2_4_2
I0204 20:20:13.844595  9437 net.cpp:408] eltwise2_4_4 -> eltwise2_4_4
I0204 20:20:13.844663  9437 net.cpp:150] Setting up eltwise2_4_4
I0204 20:20:13.844684  9437 net.cpp:157] Top shape: 16 128 15 15 (460800)
I0204 20:20:13.844693  9437 net.cpp:165] Memory required for data: 201361408
I0204 20:20:13.844703  9437 layer_factory.hpp:77] Creating layer prelu2_4_4
I0204 20:20:13.844718  9437 net.cpp:100] Creating Layer prelu2_4_4
I0204 20:20:13.844729  9437 net.cpp:434] prelu2_4_4 <- eltwise2_4_4
I0204 20:20:13.844741  9437 net.cpp:408] prelu2_4_4 -> prelu2_4_4
I0204 20:20:13.844935  9437 net.cpp:150] Setting up prelu2_4_4
I0204 20:20:13.844957  9437 net.cpp:157] Top shape: 16 128 15 15 (460800)
I0204 20:20:13.844966  9437 net.cpp:165] Memory required for data: 203204608
I0204 20:20:13.844979  9437 layer_factory.hpp:77] Creating layer prelu2_4_4_prelu2_4_4_0_split
I0204 20:20:13.844991  9437 net.cpp:100] Creating Layer prelu2_4_4_prelu2_4_4_0_split
I0204 20:20:13.845000  9437 net.cpp:434] prelu2_4_4_prelu2_4_4_0_split <- prelu2_4_4
I0204 20:20:13.845016  9437 net.cpp:408] prelu2_4_4_prelu2_4_4_0_split -> prelu2_4_4_prelu2_4_4_0_split_0
I0204 20:20:13.845031  9437 net.cpp:408] prelu2_4_4_prelu2_4_4_0_split -> prelu2_4_4_prelu2_4_4_0_split_1
I0204 20:20:13.845108  9437 net.cpp:150] Setting up prelu2_4_4_prelu2_4_4_0_split
I0204 20:20:13.845126  9437 net.cpp:157] Top shape: 16 128 15 15 (460800)
I0204 20:20:13.845137  9437 net.cpp:157] Top shape: 16 128 15 15 (460800)
I0204 20:20:13.845145  9437 net.cpp:165] Memory required for data: 206891008
I0204 20:20:13.845155  9437 layer_factory.hpp:77] Creating layer conv2_5_0
I0204 20:20:13.845175  9437 net.cpp:100] Creating Layer conv2_5_0
I0204 20:20:13.845185  9437 net.cpp:434] conv2_5_0 <- prelu2_4_4_prelu2_4_4_0_split_0
I0204 20:20:13.845199  9437 net.cpp:408] conv2_5_0 -> conv2_5_0
I0204 20:20:13.846740  9437 net.cpp:150] Setting up conv2_5_0
I0204 20:20:13.846770  9437 net.cpp:157] Top shape: 16 32 15 15 (115200)
I0204 20:20:13.846779  9437 net.cpp:165] Memory required for data: 207351808
I0204 20:20:13.846793  9437 layer_factory.hpp:77] Creating layer prelu2_5_0
I0204 20:20:13.846807  9437 net.cpp:100] Creating Layer prelu2_5_0
I0204 20:20:13.846817  9437 net.cpp:434] prelu2_5_0 <- conv2_5_0
I0204 20:20:13.846832  9437 net.cpp:408] prelu2_5_0 -> prelu2_5_0
I0204 20:20:13.847028  9437 net.cpp:150] Setting up prelu2_5_0
I0204 20:20:13.847048  9437 net.cpp:157] Top shape: 16 32 15 15 (115200)
I0204 20:20:13.847057  9437 net.cpp:165] Memory required for data: 207812608
I0204 20:20:13.847070  9437 layer_factory.hpp:77] Creating layer conv2_5_1
I0204 20:20:13.847100  9437 net.cpp:100] Creating Layer conv2_5_1
I0204 20:20:13.847121  9437 net.cpp:434] conv2_5_1 <- prelu2_5_0
I0204 20:20:13.847136  9437 net.cpp:408] conv2_5_1 -> conv2_5_1
I0204 20:20:13.849617  9437 net.cpp:150] Setting up conv2_5_1
I0204 20:20:13.849642  9437 net.cpp:157] Top shape: 16 32 15 15 (115200)
I0204 20:20:13.849653  9437 net.cpp:165] Memory required for data: 208273408
I0204 20:20:13.849668  9437 layer_factory.hpp:77] Creating layer prelu2_5_1
I0204 20:20:13.849684  9437 net.cpp:100] Creating Layer prelu2_5_1
I0204 20:20:13.849694  9437 net.cpp:434] prelu2_5_1 <- conv2_5_1
I0204 20:20:13.849707  9437 net.cpp:408] prelu2_5_1 -> prelu2_5_1
I0204 20:20:13.849889  9437 net.cpp:150] Setting up prelu2_5_1
I0204 20:20:13.849910  9437 net.cpp:157] Top shape: 16 32 15 15 (115200)
I0204 20:20:13.849918  9437 net.cpp:165] Memory required for data: 208734208
I0204 20:20:13.849931  9437 layer_factory.hpp:77] Creating layer conv2_5_2
I0204 20:20:13.849951  9437 net.cpp:100] Creating Layer conv2_5_2
I0204 20:20:13.849962  9437 net.cpp:434] conv2_5_2 <- prelu2_5_1
I0204 20:20:13.849978  9437 net.cpp:408] conv2_5_2 -> conv2_5_2
I0204 20:20:13.852164  9437 net.cpp:150] Setting up conv2_5_2
I0204 20:20:13.852190  9437 net.cpp:157] Top shape: 16 128 15 15 (460800)
I0204 20:20:13.852200  9437 net.cpp:165] Memory required for data: 210577408
I0204 20:20:13.852213  9437 layer_factory.hpp:77] Creating layer eltwise2_5_4
I0204 20:20:13.852226  9437 net.cpp:100] Creating Layer eltwise2_5_4
I0204 20:20:13.852236  9437 net.cpp:434] eltwise2_5_4 <- prelu2_4_4_prelu2_4_4_0_split_1
I0204 20:20:13.852248  9437 net.cpp:434] eltwise2_5_4 <- conv2_5_2
I0204 20:20:13.852264  9437 net.cpp:408] eltwise2_5_4 -> eltwise2_5_4
I0204 20:20:13.852319  9437 net.cpp:150] Setting up eltwise2_5_4
I0204 20:20:13.852336  9437 net.cpp:157] Top shape: 16 128 15 15 (460800)
I0204 20:20:13.852345  9437 net.cpp:165] Memory required for data: 212420608
I0204 20:20:13.852355  9437 layer_factory.hpp:77] Creating layer prelu2_5_4
I0204 20:20:13.852371  9437 net.cpp:100] Creating Layer prelu2_5_4
I0204 20:20:13.852381  9437 net.cpp:434] prelu2_5_4 <- eltwise2_5_4
I0204 20:20:13.852397  9437 net.cpp:408] prelu2_5_4 -> prelu2_5_4
I0204 20:20:13.852584  9437 net.cpp:150] Setting up prelu2_5_4
I0204 20:20:13.852607  9437 net.cpp:157] Top shape: 16 128 15 15 (460800)
I0204 20:20:13.852615  9437 net.cpp:165] Memory required for data: 214263808
I0204 20:20:13.852627  9437 layer_factory.hpp:77] Creating layer prelu2_5_4_prelu2_5_4_0_split
I0204 20:20:13.852654  9437 net.cpp:100] Creating Layer prelu2_5_4_prelu2_5_4_0_split
I0204 20:20:13.852664  9437 net.cpp:434] prelu2_5_4_prelu2_5_4_0_split <- prelu2_5_4
I0204 20:20:13.852680  9437 net.cpp:408] prelu2_5_4_prelu2_5_4_0_split -> prelu2_5_4_prelu2_5_4_0_split_0
I0204 20:20:13.852695  9437 net.cpp:408] prelu2_5_4_prelu2_5_4_0_split -> prelu2_5_4_prelu2_5_4_0_split_1
I0204 20:20:13.852773  9437 net.cpp:150] Setting up prelu2_5_4_prelu2_5_4_0_split
I0204 20:20:13.852792  9437 net.cpp:157] Top shape: 16 128 15 15 (460800)
I0204 20:20:13.852803  9437 net.cpp:157] Top shape: 16 128 15 15 (460800)
I0204 20:20:13.852813  9437 net.cpp:165] Memory required for data: 217950208
I0204 20:20:13.852821  9437 layer_factory.hpp:77] Creating layer conv2_6_0
I0204 20:20:13.852840  9437 net.cpp:100] Creating Layer conv2_6_0
I0204 20:20:13.852851  9437 net.cpp:434] conv2_6_0 <- prelu2_5_4_prelu2_5_4_0_split_0
I0204 20:20:13.852865  9437 net.cpp:408] conv2_6_0 -> conv2_6_0
I0204 20:20:13.855084  9437 net.cpp:150] Setting up conv2_6_0
I0204 20:20:13.855109  9437 net.cpp:157] Top shape: 16 32 15 15 (115200)
I0204 20:20:13.855119  9437 net.cpp:165] Memory required for data: 218411008
I0204 20:20:13.855134  9437 layer_factory.hpp:77] Creating layer prelu2_6_0
I0204 20:20:13.855147  9437 net.cpp:100] Creating Layer prelu2_6_0
I0204 20:20:13.855157  9437 net.cpp:434] prelu2_6_0 <- conv2_6_0
I0204 20:20:13.855175  9437 net.cpp:408] prelu2_6_0 -> prelu2_6_0
I0204 20:20:13.855365  9437 net.cpp:150] Setting up prelu2_6_0
I0204 20:20:13.855391  9437 net.cpp:157] Top shape: 16 32 15 15 (115200)
I0204 20:20:13.855412  9437 net.cpp:165] Memory required for data: 218871808
I0204 20:20:13.855425  9437 layer_factory.hpp:77] Creating layer conv2_6_1
I0204 20:20:13.855445  9437 net.cpp:100] Creating Layer conv2_6_1
I0204 20:20:13.855456  9437 net.cpp:434] conv2_6_1 <- prelu2_6_0
I0204 20:20:13.855473  9437 net.cpp:408] conv2_6_1 -> conv2_6_1
I0204 20:20:13.856374  9437 net.cpp:150] Setting up conv2_6_1
I0204 20:20:13.856395  9437 net.cpp:157] Top shape: 16 32 15 15 (115200)
I0204 20:20:13.856405  9437 net.cpp:165] Memory required for data: 219332608
I0204 20:20:13.856418  9437 layer_factory.hpp:77] Creating layer prelu2_6_1
I0204 20:20:13.856434  9437 net.cpp:100] Creating Layer prelu2_6_1
I0204 20:20:13.856444  9437 net.cpp:434] prelu2_6_1 <- conv2_6_1
I0204 20:20:13.856457  9437 net.cpp:408] prelu2_6_1 -> prelu2_6_1
I0204 20:20:13.856643  9437 net.cpp:150] Setting up prelu2_6_1
I0204 20:20:13.856667  9437 net.cpp:157] Top shape: 16 32 15 15 (115200)
I0204 20:20:13.856674  9437 net.cpp:165] Memory required for data: 219793408
I0204 20:20:13.856686  9437 layer_factory.hpp:77] Creating layer conv2_6_2
I0204 20:20:13.856706  9437 net.cpp:100] Creating Layer conv2_6_2
I0204 20:20:13.856717  9437 net.cpp:434] conv2_6_2 <- prelu2_6_1
I0204 20:20:13.856734  9437 net.cpp:408] conv2_6_2 -> conv2_6_2
I0204 20:20:13.858958  9437 net.cpp:150] Setting up conv2_6_2
I0204 20:20:13.858989  9437 net.cpp:157] Top shape: 16 128 15 15 (460800)
I0204 20:20:13.858999  9437 net.cpp:165] Memory required for data: 221636608
I0204 20:20:13.859014  9437 layer_factory.hpp:77] Creating layer eltwise2_6_4
I0204 20:20:13.859027  9437 net.cpp:100] Creating Layer eltwise2_6_4
I0204 20:20:13.859037  9437 net.cpp:434] eltwise2_6_4 <- prelu2_5_4_prelu2_5_4_0_split_1
I0204 20:20:13.859050  9437 net.cpp:434] eltwise2_6_4 <- conv2_6_2
I0204 20:20:13.859066  9437 net.cpp:408] eltwise2_6_4 -> eltwise2_6_4
I0204 20:20:13.859122  9437 net.cpp:150] Setting up eltwise2_6_4
I0204 20:20:13.859143  9437 net.cpp:157] Top shape: 16 128 15 15 (460800)
I0204 20:20:13.859153  9437 net.cpp:165] Memory required for data: 223479808
I0204 20:20:13.859163  9437 layer_factory.hpp:77] Creating layer prelu2_6_4
I0204 20:20:13.859174  9437 net.cpp:100] Creating Layer prelu2_6_4
I0204 20:20:13.859184  9437 net.cpp:434] prelu2_6_4 <- eltwise2_6_4
I0204 20:20:13.859196  9437 net.cpp:408] prelu2_6_4 -> prelu2_6_4
I0204 20:20:13.860874  9437 net.cpp:150] Setting up prelu2_6_4
I0204 20:20:13.860903  9437 net.cpp:157] Top shape: 16 128 15 15 (460800)
I0204 20:20:13.860913  9437 net.cpp:165] Memory required for data: 225323008
I0204 20:20:13.860925  9437 layer_factory.hpp:77] Creating layer prelu2_6_4_prelu2_6_4_0_split
I0204 20:20:13.860942  9437 net.cpp:100] Creating Layer prelu2_6_4_prelu2_6_4_0_split
I0204 20:20:13.860954  9437 net.cpp:434] prelu2_6_4_prelu2_6_4_0_split <- prelu2_6_4
I0204 20:20:13.860966  9437 net.cpp:408] prelu2_6_4_prelu2_6_4_0_split -> prelu2_6_4_prelu2_6_4_0_split_0
I0204 20:20:13.860980  9437 net.cpp:408] prelu2_6_4_prelu2_6_4_0_split -> prelu2_6_4_prelu2_6_4_0_split_1
I0204 20:20:13.861060  9437 net.cpp:150] Setting up prelu2_6_4_prelu2_6_4_0_split
I0204 20:20:13.861079  9437 net.cpp:157] Top shape: 16 128 15 15 (460800)
I0204 20:20:13.861090  9437 net.cpp:157] Top shape: 16 128 15 15 (460800)
I0204 20:20:13.861099  9437 net.cpp:165] Memory required for data: 229009408
I0204 20:20:13.861109  9437 layer_factory.hpp:77] Creating layer conv2_7_0
I0204 20:20:13.861131  9437 net.cpp:100] Creating Layer conv2_7_0
I0204 20:20:13.861142  9437 net.cpp:434] conv2_7_0 <- prelu2_6_4_prelu2_6_4_0_split_0
I0204 20:20:13.861161  9437 net.cpp:408] conv2_7_0 -> conv2_7_0
I0204 20:20:13.863466  9437 net.cpp:150] Setting up conv2_7_0
I0204 20:20:13.863492  9437 net.cpp:157] Top shape: 16 32 15 15 (115200)
I0204 20:20:13.863502  9437 net.cpp:165] Memory required for data: 229470208
I0204 20:20:13.863515  9437 layer_factory.hpp:77] Creating layer prelu2_7_0
I0204 20:20:13.863529  9437 net.cpp:100] Creating Layer prelu2_7_0
I0204 20:20:13.863548  9437 net.cpp:434] prelu2_7_0 <- conv2_7_0
I0204 20:20:13.863575  9437 net.cpp:408] prelu2_7_0 -> prelu2_7_0
I0204 20:20:13.863770  9437 net.cpp:150] Setting up prelu2_7_0
I0204 20:20:13.863790  9437 net.cpp:157] Top shape: 16 32 15 15 (115200)
I0204 20:20:13.863800  9437 net.cpp:165] Memory required for data: 229931008
I0204 20:20:13.863811  9437 layer_factory.hpp:77] Creating layer conv2_7_1_a
I0204 20:20:13.863832  9437 net.cpp:100] Creating Layer conv2_7_1_a
I0204 20:20:13.863847  9437 net.cpp:434] conv2_7_1_a <- prelu2_7_0
I0204 20:20:13.863860  9437 net.cpp:408] conv2_7_1_a -> conv2_7_1_a
I0204 20:20:13.866194  9437 net.cpp:150] Setting up conv2_7_1_a
I0204 20:20:13.866221  9437 net.cpp:157] Top shape: 16 32 13 17 (113152)
I0204 20:20:13.866231  9437 net.cpp:165] Memory required for data: 230383616
I0204 20:20:13.866246  9437 layer_factory.hpp:77] Creating layer conv2_7_1
I0204 20:20:13.866266  9437 net.cpp:100] Creating Layer conv2_7_1
I0204 20:20:13.866278  9437 net.cpp:434] conv2_7_1 <- conv2_7_1_a
I0204 20:20:13.866294  9437 net.cpp:408] conv2_7_1 -> conv2_7_1
I0204 20:20:13.869252  9437 net.cpp:150] Setting up conv2_7_1
I0204 20:20:13.869283  9437 net.cpp:157] Top shape: 16 32 15 15 (115200)
I0204 20:20:13.869294  9437 net.cpp:165] Memory required for data: 230844416
I0204 20:20:13.869309  9437 layer_factory.hpp:77] Creating layer prelu2_7_1
I0204 20:20:13.869326  9437 net.cpp:100] Creating Layer prelu2_7_1
I0204 20:20:13.869338  9437 net.cpp:434] prelu2_7_1 <- conv2_7_1
I0204 20:20:13.869350  9437 net.cpp:408] prelu2_7_1 -> prelu2_7_1
I0204 20:20:13.869535  9437 net.cpp:150] Setting up prelu2_7_1
I0204 20:20:13.869556  9437 net.cpp:157] Top shape: 16 32 15 15 (115200)
I0204 20:20:13.869565  9437 net.cpp:165] Memory required for data: 231305216
I0204 20:20:13.869577  9437 layer_factory.hpp:77] Creating layer conv2_7_2
I0204 20:20:13.869598  9437 net.cpp:100] Creating Layer conv2_7_2
I0204 20:20:13.869609  9437 net.cpp:434] conv2_7_2 <- prelu2_7_1
I0204 20:20:13.869626  9437 net.cpp:408] conv2_7_2 -> conv2_7_2
I0204 20:20:13.871839  9437 net.cpp:150] Setting up conv2_7_2
I0204 20:20:13.871865  9437 net.cpp:157] Top shape: 16 128 15 15 (460800)
I0204 20:20:13.871875  9437 net.cpp:165] Memory required for data: 233148416
I0204 20:20:13.871914  9437 layer_factory.hpp:77] Creating layer eltwise2_7_4
I0204 20:20:13.871935  9437 net.cpp:100] Creating Layer eltwise2_7_4
I0204 20:20:13.871947  9437 net.cpp:434] eltwise2_7_4 <- prelu2_6_4_prelu2_6_4_0_split_1
I0204 20:20:13.871958  9437 net.cpp:434] eltwise2_7_4 <- conv2_7_2
I0204 20:20:13.871971  9437 net.cpp:408] eltwise2_7_4 -> eltwise2_7_4
I0204 20:20:13.872030  9437 net.cpp:150] Setting up eltwise2_7_4
I0204 20:20:13.872048  9437 net.cpp:157] Top shape: 16 128 15 15 (460800)
I0204 20:20:13.872056  9437 net.cpp:165] Memory required for data: 234991616
I0204 20:20:13.872066  9437 layer_factory.hpp:77] Creating layer prelu2_7_4
I0204 20:20:13.872082  9437 net.cpp:100] Creating Layer prelu2_7_4
I0204 20:20:13.872092  9437 net.cpp:434] prelu2_7_4 <- eltwise2_7_4
I0204 20:20:13.872105  9437 net.cpp:408] prelu2_7_4 -> prelu2_7_4
I0204 20:20:13.872289  9437 net.cpp:150] Setting up prelu2_7_4
I0204 20:20:13.872311  9437 net.cpp:157] Top shape: 16 128 15 15 (460800)
I0204 20:20:13.872320  9437 net.cpp:165] Memory required for data: 236834816
I0204 20:20:13.872333  9437 layer_factory.hpp:77] Creating layer prelu2_7_4_prelu2_7_4_0_split
I0204 20:20:13.872345  9437 net.cpp:100] Creating Layer prelu2_7_4_prelu2_7_4_0_split
I0204 20:20:13.872355  9437 net.cpp:434] prelu2_7_4_prelu2_7_4_0_split <- prelu2_7_4
I0204 20:20:13.872371  9437 net.cpp:408] prelu2_7_4_prelu2_7_4_0_split -> prelu2_7_4_prelu2_7_4_0_split_0
I0204 20:20:13.872386  9437 net.cpp:408] prelu2_7_4_prelu2_7_4_0_split -> prelu2_7_4_prelu2_7_4_0_split_1
I0204 20:20:13.872462  9437 net.cpp:150] Setting up prelu2_7_4_prelu2_7_4_0_split
I0204 20:20:13.872480  9437 net.cpp:157] Top shape: 16 128 15 15 (460800)
I0204 20:20:13.872491  9437 net.cpp:157] Top shape: 16 128 15 15 (460800)
I0204 20:20:13.872508  9437 net.cpp:165] Memory required for data: 240521216
I0204 20:20:13.872526  9437 layer_factory.hpp:77] Creating layer conv2_8_0
I0204 20:20:13.872546  9437 net.cpp:100] Creating Layer conv2_8_0
I0204 20:20:13.872558  9437 net.cpp:434] conv2_8_0 <- prelu2_7_4_prelu2_7_4_0_split_0
I0204 20:20:13.872572  9437 net.cpp:408] conv2_8_0 -> conv2_8_0
I0204 20:20:13.874838  9437 net.cpp:150] Setting up conv2_8_0
I0204 20:20:13.874866  9437 net.cpp:157] Top shape: 16 32 15 15 (115200)
I0204 20:20:13.874876  9437 net.cpp:165] Memory required for data: 240982016
I0204 20:20:13.874889  9437 layer_factory.hpp:77] Creating layer prelu2_8_0
I0204 20:20:13.874908  9437 net.cpp:100] Creating Layer prelu2_8_0
I0204 20:20:13.874919  9437 net.cpp:434] prelu2_8_0 <- conv2_8_0
I0204 20:20:13.874935  9437 net.cpp:408] prelu2_8_0 -> prelu2_8_0
I0204 20:20:13.875128  9437 net.cpp:150] Setting up prelu2_8_0
I0204 20:20:13.875149  9437 net.cpp:157] Top shape: 16 32 15 15 (115200)
I0204 20:20:13.875159  9437 net.cpp:165] Memory required for data: 241442816
I0204 20:20:13.875170  9437 layer_factory.hpp:77] Creating layer conv2_8_1
I0204 20:20:13.875195  9437 net.cpp:100] Creating Layer conv2_8_1
I0204 20:20:13.875205  9437 net.cpp:434] conv2_8_1 <- prelu2_8_0
I0204 20:20:13.875219  9437 net.cpp:408] conv2_8_1 -> conv2_8_1
I0204 20:20:13.876132  9437 net.cpp:150] Setting up conv2_8_1
I0204 20:20:13.876153  9437 net.cpp:157] Top shape: 16 32 15 15 (115200)
I0204 20:20:13.876163  9437 net.cpp:165] Memory required for data: 241903616
I0204 20:20:13.876175  9437 layer_factory.hpp:77] Creating layer prelu2_8_1
I0204 20:20:13.876188  9437 net.cpp:100] Creating Layer prelu2_8_1
I0204 20:20:13.876199  9437 net.cpp:434] prelu2_8_1 <- conv2_8_1
I0204 20:20:13.876214  9437 net.cpp:408] prelu2_8_1 -> prelu2_8_1
I0204 20:20:13.876396  9437 net.cpp:150] Setting up prelu2_8_1
I0204 20:20:13.876417  9437 net.cpp:157] Top shape: 16 32 15 15 (115200)
I0204 20:20:13.876426  9437 net.cpp:165] Memory required for data: 242364416
I0204 20:20:13.876438  9437 layer_factory.hpp:77] Creating layer conv2_8_2
I0204 20:20:13.876458  9437 net.cpp:100] Creating Layer conv2_8_2
I0204 20:20:13.876469  9437 net.cpp:434] conv2_8_2 <- prelu2_8_1
I0204 20:20:13.876483  9437 net.cpp:408] conv2_8_2 -> conv2_8_2
I0204 20:20:13.878077  9437 net.cpp:150] Setting up conv2_8_2
I0204 20:20:13.878104  9437 net.cpp:157] Top shape: 16 128 15 15 (460800)
I0204 20:20:13.878114  9437 net.cpp:165] Memory required for data: 244207616
I0204 20:20:13.878129  9437 layer_factory.hpp:77] Creating layer eltwise2_8_4
I0204 20:20:13.878142  9437 net.cpp:100] Creating Layer eltwise2_8_4
I0204 20:20:13.878152  9437 net.cpp:434] eltwise2_8_4 <- prelu2_7_4_prelu2_7_4_0_split_1
I0204 20:20:13.878165  9437 net.cpp:434] eltwise2_8_4 <- conv2_8_2
I0204 20:20:13.878176  9437 net.cpp:408] eltwise2_8_4 -> eltwise2_8_4
I0204 20:20:13.878235  9437 net.cpp:150] Setting up eltwise2_8_4
I0204 20:20:13.878254  9437 net.cpp:157] Top shape: 16 128 15 15 (460800)
I0204 20:20:13.878263  9437 net.cpp:165] Memory required for data: 246050816
I0204 20:20:13.878273  9437 layer_factory.hpp:77] Creating layer prelu2_8_4
I0204 20:20:13.878288  9437 net.cpp:100] Creating Layer prelu2_8_4
I0204 20:20:13.878298  9437 net.cpp:434] prelu2_8_4 <- eltwise2_8_4
I0204 20:20:13.878310  9437 net.cpp:408] prelu2_8_4 -> prelu2_8_4
I0204 20:20:13.878501  9437 net.cpp:150] Setting up prelu2_8_4
I0204 20:20:13.878523  9437 net.cpp:157] Top shape: 16 128 15 15 (460800)
I0204 20:20:13.878532  9437 net.cpp:165] Memory required for data: 247894016
I0204 20:20:13.878545  9437 layer_factory.hpp:77] Creating layer prelu2_8_4_prelu2_8_4_0_split
I0204 20:20:13.878557  9437 net.cpp:100] Creating Layer prelu2_8_4_prelu2_8_4_0_split
I0204 20:20:13.878567  9437 net.cpp:434] prelu2_8_4_prelu2_8_4_0_split <- prelu2_8_4
I0204 20:20:13.878582  9437 net.cpp:408] prelu2_8_4_prelu2_8_4_0_split -> prelu2_8_4_prelu2_8_4_0_split_0
I0204 20:20:13.878597  9437 net.cpp:408] prelu2_8_4_prelu2_8_4_0_split -> prelu2_8_4_prelu2_8_4_0_split_1
I0204 20:20:13.878674  9437 net.cpp:150] Setting up prelu2_8_4_prelu2_8_4_0_split
I0204 20:20:13.878718  9437 net.cpp:157] Top shape: 16 128 15 15 (460800)
I0204 20:20:13.878731  9437 net.cpp:157] Top shape: 16 128 15 15 (460800)
I0204 20:20:13.878739  9437 net.cpp:165] Memory required for data: 251580416
I0204 20:20:13.878749  9437 layer_factory.hpp:77] Creating layer conv3_1_0
I0204 20:20:13.878768  9437 net.cpp:100] Creating Layer conv3_1_0
I0204 20:20:13.878779  9437 net.cpp:434] conv3_1_0 <- prelu2_8_4_prelu2_8_4_0_split_0
I0204 20:20:13.878794  9437 net.cpp:408] conv3_1_0 -> conv3_1_0
I0204 20:20:13.881068  9437 net.cpp:150] Setting up conv3_1_0
I0204 20:20:13.881100  9437 net.cpp:157] Top shape: 16 32 15 15 (115200)
I0204 20:20:13.881111  9437 net.cpp:165] Memory required for data: 252041216
I0204 20:20:13.881125  9437 layer_factory.hpp:77] Creating layer prelu3_1_0
I0204 20:20:13.881142  9437 net.cpp:100] Creating Layer prelu3_1_0
I0204 20:20:13.881153  9437 net.cpp:434] prelu3_1_0 <- conv3_1_0
I0204 20:20:13.881166  9437 net.cpp:408] prelu3_1_0 -> prelu3_1_0
I0204 20:20:13.881364  9437 net.cpp:150] Setting up prelu3_1_0
I0204 20:20:13.881386  9437 net.cpp:157] Top shape: 16 32 15 15 (115200)
I0204 20:20:13.881393  9437 net.cpp:165] Memory required for data: 252502016
I0204 20:20:13.881405  9437 layer_factory.hpp:77] Creating layer conv3_1_1
I0204 20:20:13.881445  9437 net.cpp:100] Creating Layer conv3_1_1
I0204 20:20:13.881458  9437 net.cpp:434] conv3_1_1 <- prelu3_1_0
I0204 20:20:13.881472  9437 net.cpp:408] conv3_1_1 -> conv3_1_1
I0204 20:20:13.883998  9437 net.cpp:150] Setting up conv3_1_1
I0204 20:20:13.884024  9437 net.cpp:157] Top shape: 16 32 15 15 (115200)
I0204 20:20:13.884034  9437 net.cpp:165] Memory required for data: 252962816
I0204 20:20:13.884049  9437 layer_factory.hpp:77] Creating layer prelu3_1_1
I0204 20:20:13.884066  9437 net.cpp:100] Creating Layer prelu3_1_1
I0204 20:20:13.884076  9437 net.cpp:434] prelu3_1_1 <- conv3_1_1
I0204 20:20:13.884089  9437 net.cpp:408] prelu3_1_1 -> prelu3_1_1
I0204 20:20:13.884274  9437 net.cpp:150] Setting up prelu3_1_1
I0204 20:20:13.884295  9437 net.cpp:157] Top shape: 16 32 15 15 (115200)
I0204 20:20:13.884305  9437 net.cpp:165] Memory required for data: 253423616
I0204 20:20:13.884316  9437 layer_factory.hpp:77] Creating layer conv3_1_2
I0204 20:20:13.884337  9437 net.cpp:100] Creating Layer conv3_1_2
I0204 20:20:13.884348  9437 net.cpp:434] conv3_1_2 <- prelu3_1_1
I0204 20:20:13.884364  9437 net.cpp:408] conv3_1_2 -> conv3_1_2
I0204 20:20:13.886641  9437 net.cpp:150] Setting up conv3_1_2
I0204 20:20:13.886668  9437 net.cpp:157] Top shape: 16 128 15 15 (460800)
I0204 20:20:13.886678  9437 net.cpp:165] Memory required for data: 255266816
I0204 20:20:13.886693  9437 layer_factory.hpp:77] Creating layer eltwise3_1_4
I0204 20:20:13.886706  9437 net.cpp:100] Creating Layer eltwise3_1_4
I0204 20:20:13.886716  9437 net.cpp:434] eltwise3_1_4 <- prelu2_8_4_prelu2_8_4_0_split_1
I0204 20:20:13.886729  9437 net.cpp:434] eltwise3_1_4 <- conv3_1_2
I0204 20:20:13.886744  9437 net.cpp:408] eltwise3_1_4 -> eltwise3_1_4
I0204 20:20:13.886804  9437 net.cpp:150] Setting up eltwise3_1_4
I0204 20:20:13.886823  9437 net.cpp:157] Top shape: 16 128 15 15 (460800)
I0204 20:20:13.886832  9437 net.cpp:165] Memory required for data: 257110016
I0204 20:20:13.886842  9437 layer_factory.hpp:77] Creating layer prelu3_1_4
I0204 20:20:13.886853  9437 net.cpp:100] Creating Layer prelu3_1_4
I0204 20:20:13.886862  9437 net.cpp:434] prelu3_1_4 <- eltwise3_1_4
I0204 20:20:13.886875  9437 net.cpp:408] prelu3_1_4 -> prelu3_1_4
I0204 20:20:13.887071  9437 net.cpp:150] Setting up prelu3_1_4
I0204 20:20:13.887094  9437 net.cpp:157] Top shape: 16 128 15 15 (460800)
I0204 20:20:13.887102  9437 net.cpp:165] Memory required for data: 258953216
I0204 20:20:13.887115  9437 layer_factory.hpp:77] Creating layer prelu3_1_4_prelu3_1_4_0_split
I0204 20:20:13.887130  9437 net.cpp:100] Creating Layer prelu3_1_4_prelu3_1_4_0_split
I0204 20:20:13.887140  9437 net.cpp:434] prelu3_1_4_prelu3_1_4_0_split <- prelu3_1_4
I0204 20:20:13.887152  9437 net.cpp:408] prelu3_1_4_prelu3_1_4_0_split -> prelu3_1_4_prelu3_1_4_0_split_0
I0204 20:20:13.887183  9437 net.cpp:408] prelu3_1_4_prelu3_1_4_0_split -> prelu3_1_4_prelu3_1_4_0_split_1
I0204 20:20:13.887266  9437 net.cpp:150] Setting up prelu3_1_4_prelu3_1_4_0_split
I0204 20:20:13.887285  9437 net.cpp:157] Top shape: 16 128 15 15 (460800)
I0204 20:20:13.887296  9437 net.cpp:157] Top shape: 16 128 15 15 (460800)
I0204 20:20:13.887305  9437 net.cpp:165] Memory required for data: 262639616
I0204 20:20:13.887315  9437 layer_factory.hpp:77] Creating layer conv3_2_0
I0204 20:20:13.887333  9437 net.cpp:100] Creating Layer conv3_2_0
I0204 20:20:13.887344  9437 net.cpp:434] conv3_2_0 <- prelu3_1_4_prelu3_1_4_0_split_0
I0204 20:20:13.887362  9437 net.cpp:408] conv3_2_0 -> conv3_2_0
I0204 20:20:13.889633  9437 net.cpp:150] Setting up conv3_2_0
I0204 20:20:13.889660  9437 net.cpp:157] Top shape: 16 32 15 15 (115200)
I0204 20:20:13.889670  9437 net.cpp:165] Memory required for data: 263100416
I0204 20:20:13.889684  9437 layer_factory.hpp:77] Creating layer prelu3_2_0
I0204 20:20:13.889700  9437 net.cpp:100] Creating Layer prelu3_2_0
I0204 20:20:13.889711  9437 net.cpp:434] prelu3_2_0 <- conv3_2_0
I0204 20:20:13.889724  9437 net.cpp:408] prelu3_2_0 -> prelu3_2_0
I0204 20:20:13.889920  9437 net.cpp:150] Setting up prelu3_2_0
I0204 20:20:13.889941  9437 net.cpp:157] Top shape: 16 32 15 15 (115200)
I0204 20:20:13.889950  9437 net.cpp:165] Memory required for data: 263561216
I0204 20:20:13.889962  9437 layer_factory.hpp:77] Creating layer conv3_2_1
I0204 20:20:13.889982  9437 net.cpp:100] Creating Layer conv3_2_1
I0204 20:20:13.889993  9437 net.cpp:434] conv3_2_1 <- prelu3_2_0
I0204 20:20:13.890009  9437 net.cpp:408] conv3_2_1 -> conv3_2_1
I0204 20:20:13.890935  9437 net.cpp:150] Setting up conv3_2_1
I0204 20:20:13.890957  9437 net.cpp:157] Top shape: 16 32 15 15 (115200)
I0204 20:20:13.890966  9437 net.cpp:165] Memory required for data: 264022016
I0204 20:20:13.890980  9437 layer_factory.hpp:77] Creating layer prelu3_2_1
I0204 20:20:13.890996  9437 net.cpp:100] Creating Layer prelu3_2_1
I0204 20:20:13.891006  9437 net.cpp:434] prelu3_2_1 <- conv3_2_1
I0204 20:20:13.891019  9437 net.cpp:408] prelu3_2_1 -> prelu3_2_1
I0204 20:20:13.891201  9437 net.cpp:150] Setting up prelu3_2_1
I0204 20:20:13.891222  9437 net.cpp:157] Top shape: 16 32 15 15 (115200)
I0204 20:20:13.891232  9437 net.cpp:165] Memory required for data: 264482816
I0204 20:20:13.891243  9437 layer_factory.hpp:77] Creating layer conv3_2_2
I0204 20:20:13.891264  9437 net.cpp:100] Creating Layer conv3_2_2
I0204 20:20:13.891275  9437 net.cpp:434] conv3_2_2 <- prelu3_2_1
I0204 20:20:13.891293  9437 net.cpp:408] conv3_2_2 -> conv3_2_2
I0204 20:20:13.893579  9437 net.cpp:150] Setting up conv3_2_2
I0204 20:20:13.893611  9437 net.cpp:157] Top shape: 16 128 15 15 (460800)
I0204 20:20:13.893621  9437 net.cpp:165] Memory required for data: 266326016
I0204 20:20:13.893636  9437 layer_factory.hpp:77] Creating layer eltwise3_2_4
I0204 20:20:13.893649  9437 net.cpp:100] Creating Layer eltwise3_2_4
I0204 20:20:13.893661  9437 net.cpp:434] eltwise3_2_4 <- prelu3_1_4_prelu3_1_4_0_split_1
I0204 20:20:13.893671  9437 net.cpp:434] eltwise3_2_4 <- conv3_2_2
I0204 20:20:13.893687  9437 net.cpp:408] eltwise3_2_4 -> eltwise3_2_4
I0204 20:20:13.893744  9437 net.cpp:150] Setting up eltwise3_2_4
I0204 20:20:13.893764  9437 net.cpp:157] Top shape: 16 128 15 15 (460800)
I0204 20:20:13.893772  9437 net.cpp:165] Memory required for data: 268169216
I0204 20:20:13.893781  9437 layer_factory.hpp:77] Creating layer prelu3_2_4
I0204 20:20:13.893797  9437 net.cpp:100] Creating Layer prelu3_2_4
I0204 20:20:13.893808  9437 net.cpp:434] prelu3_2_4 <- eltwise3_2_4
I0204 20:20:13.893823  9437 net.cpp:408] prelu3_2_4 -> prelu3_2_4
I0204 20:20:13.894018  9437 net.cpp:150] Setting up prelu3_2_4
I0204 20:20:13.894040  9437 net.cpp:157] Top shape: 16 128 15 15 (460800)
I0204 20:20:13.894048  9437 net.cpp:165] Memory required for data: 270012416
I0204 20:20:13.894062  9437 layer_factory.hpp:77] Creating layer prelu3_2_4_prelu3_2_4_0_split
I0204 20:20:13.894081  9437 net.cpp:100] Creating Layer prelu3_2_4_prelu3_2_4_0_split
I0204 20:20:13.894101  9437 net.cpp:434] prelu3_2_4_prelu3_2_4_0_split <- prelu3_2_4
I0204 20:20:13.894119  9437 net.cpp:408] prelu3_2_4_prelu3_2_4_0_split -> prelu3_2_4_prelu3_2_4_0_split_0
I0204 20:20:13.894134  9437 net.cpp:408] prelu3_2_4_prelu3_2_4_0_split -> prelu3_2_4_prelu3_2_4_0_split_1
I0204 20:20:13.894217  9437 net.cpp:150] Setting up prelu3_2_4_prelu3_2_4_0_split
I0204 20:20:13.894237  9437 net.cpp:157] Top shape: 16 128 15 15 (460800)
I0204 20:20:13.894248  9437 net.cpp:157] Top shape: 16 128 15 15 (460800)
I0204 20:20:13.894255  9437 net.cpp:165] Memory required for data: 273698816
I0204 20:20:13.894265  9437 layer_factory.hpp:77] Creating layer conv3_3_0
I0204 20:20:13.894284  9437 net.cpp:100] Creating Layer conv3_3_0
I0204 20:20:13.894295  9437 net.cpp:434] conv3_3_0 <- prelu3_2_4_prelu3_2_4_0_split_0
I0204 20:20:13.894309  9437 net.cpp:408] conv3_3_0 -> conv3_3_0
I0204 20:20:13.896576  9437 net.cpp:150] Setting up conv3_3_0
I0204 20:20:13.896601  9437 net.cpp:157] Top shape: 16 32 15 15 (115200)
I0204 20:20:13.896611  9437 net.cpp:165] Memory required for data: 274159616
I0204 20:20:13.896626  9437 layer_factory.hpp:77] Creating layer prelu3_3_0
I0204 20:20:13.896667  9437 net.cpp:100] Creating Layer prelu3_3_0
I0204 20:20:13.896678  9437 net.cpp:434] prelu3_3_0 <- conv3_3_0
I0204 20:20:13.896695  9437 net.cpp:408] prelu3_3_0 -> prelu3_3_0
I0204 20:20:13.896896  9437 net.cpp:150] Setting up prelu3_3_0
I0204 20:20:13.896917  9437 net.cpp:157] Top shape: 16 32 15 15 (115200)
I0204 20:20:13.896926  9437 net.cpp:165] Memory required for data: 274620416
I0204 20:20:13.896939  9437 layer_factory.hpp:77] Creating layer conv3_3_1_a
I0204 20:20:13.896960  9437 net.cpp:100] Creating Layer conv3_3_1_a
I0204 20:20:13.896970  9437 net.cpp:434] conv3_3_1_a <- prelu3_3_0
I0204 20:20:13.896987  9437 net.cpp:408] conv3_3_1_a -> conv3_3_1_a
I0204 20:20:13.899314  9437 net.cpp:150] Setting up conv3_3_1_a
I0204 20:20:13.899343  9437 net.cpp:157] Top shape: 16 32 13 17 (113152)
I0204 20:20:13.899353  9437 net.cpp:165] Memory required for data: 275073024
I0204 20:20:13.899368  9437 layer_factory.hpp:77] Creating layer conv3_3_1
I0204 20:20:13.899385  9437 net.cpp:100] Creating Layer conv3_3_1
I0204 20:20:13.899395  9437 net.cpp:434] conv3_3_1 <- conv3_3_1_a
I0204 20:20:13.899412  9437 net.cpp:408] conv3_3_1 -> conv3_3_1
I0204 20:20:13.901801  9437 net.cpp:150] Setting up conv3_3_1
I0204 20:20:13.901827  9437 net.cpp:157] Top shape: 16 32 15 15 (115200)
I0204 20:20:13.901837  9437 net.cpp:165] Memory required for data: 275533824
I0204 20:20:13.901852  9437 layer_factory.hpp:77] Creating layer prelu3_3_1
I0204 20:20:13.901868  9437 net.cpp:100] Creating Layer prelu3_3_1
I0204 20:20:13.901880  9437 net.cpp:434] prelu3_3_1 <- conv3_3_1
I0204 20:20:13.901892  9437 net.cpp:408] prelu3_3_1 -> prelu3_3_1
I0204 20:20:13.902089  9437 net.cpp:150] Setting up prelu3_3_1
I0204 20:20:13.902112  9437 net.cpp:157] Top shape: 16 32 15 15 (115200)
I0204 20:20:13.902119  9437 net.cpp:165] Memory required for data: 275994624
I0204 20:20:13.902132  9437 layer_factory.hpp:77] Creating layer conv3_3_2
I0204 20:20:13.902154  9437 net.cpp:100] Creating Layer conv3_3_2
I0204 20:20:13.902165  9437 net.cpp:434] conv3_3_2 <- prelu3_3_1
I0204 20:20:13.902179  9437 net.cpp:408] conv3_3_2 -> conv3_3_2
I0204 20:20:13.904458  9437 net.cpp:150] Setting up conv3_3_2
I0204 20:20:13.904489  9437 net.cpp:157] Top shape: 16 128 15 15 (460800)
I0204 20:20:13.904500  9437 net.cpp:165] Memory required for data: 277837824
I0204 20:20:13.904513  9437 layer_factory.hpp:77] Creating layer eltwise3_3_4
I0204 20:20:13.904531  9437 net.cpp:100] Creating Layer eltwise3_3_4
I0204 20:20:13.904541  9437 net.cpp:434] eltwise3_3_4 <- prelu3_2_4_prelu3_2_4_0_split_1
I0204 20:20:13.904552  9437 net.cpp:434] eltwise3_3_4 <- conv3_3_2
I0204 20:20:13.904566  9437 net.cpp:408] eltwise3_3_4 -> eltwise3_3_4
I0204 20:20:13.904623  9437 net.cpp:150] Setting up eltwise3_3_4
I0204 20:20:13.904660  9437 net.cpp:157] Top shape: 16 128 15 15 (460800)
I0204 20:20:13.904686  9437 net.cpp:165] Memory required for data: 279681024
I0204 20:20:13.904696  9437 layer_factory.hpp:77] Creating layer prelu3_3_4
I0204 20:20:13.904708  9437 net.cpp:100] Creating Layer prelu3_3_4
I0204 20:20:13.904718  9437 net.cpp:434] prelu3_3_4 <- eltwise3_3_4
I0204 20:20:13.904734  9437 net.cpp:408] prelu3_3_4 -> prelu3_3_4
I0204 20:20:13.904932  9437 net.cpp:150] Setting up prelu3_3_4
I0204 20:20:13.904954  9437 net.cpp:157] Top shape: 16 128 15 15 (460800)
I0204 20:20:13.904963  9437 net.cpp:165] Memory required for data: 281524224
I0204 20:20:13.904975  9437 layer_factory.hpp:77] Creating layer prelu3_3_4_prelu3_3_4_0_split
I0204 20:20:13.904991  9437 net.cpp:100] Creating Layer prelu3_3_4_prelu3_3_4_0_split
I0204 20:20:13.905002  9437 net.cpp:434] prelu3_3_4_prelu3_3_4_0_split <- prelu3_3_4
I0204 20:20:13.905014  9437 net.cpp:408] prelu3_3_4_prelu3_3_4_0_split -> prelu3_3_4_prelu3_3_4_0_split_0
I0204 20:20:13.905028  9437 net.cpp:408] prelu3_3_4_prelu3_3_4_0_split -> prelu3_3_4_prelu3_3_4_0_split_1
I0204 20:20:13.905112  9437 net.cpp:150] Setting up prelu3_3_4_prelu3_3_4_0_split
I0204 20:20:13.905130  9437 net.cpp:157] Top shape: 16 128 15 15 (460800)
I0204 20:20:13.905141  9437 net.cpp:157] Top shape: 16 128 15 15 (460800)
I0204 20:20:13.905149  9437 net.cpp:165] Memory required for data: 285210624
I0204 20:20:13.905159  9437 layer_factory.hpp:77] Creating layer conv3_4_0
I0204 20:20:13.905179  9437 net.cpp:100] Creating Layer conv3_4_0
I0204 20:20:13.905190  9437 net.cpp:434] conv3_4_0 <- prelu3_3_4_prelu3_3_4_0_split_0
I0204 20:20:13.905207  9437 net.cpp:408] conv3_4_0 -> conv3_4_0
I0204 20:20:13.906827  9437 net.cpp:150] Setting up conv3_4_0
I0204 20:20:13.906852  9437 net.cpp:157] Top shape: 16 32 15 15 (115200)
I0204 20:20:13.906862  9437 net.cpp:165] Memory required for data: 285671424
I0204 20:20:13.906875  9437 layer_factory.hpp:77] Creating layer prelu3_4_0
I0204 20:20:13.906891  9437 net.cpp:100] Creating Layer prelu3_4_0
I0204 20:20:13.906903  9437 net.cpp:434] prelu3_4_0 <- conv3_4_0
I0204 20:20:13.906915  9437 net.cpp:408] prelu3_4_0 -> prelu3_4_0
I0204 20:20:13.907114  9437 net.cpp:150] Setting up prelu3_4_0
I0204 20:20:13.907135  9437 net.cpp:157] Top shape: 16 32 15 15 (115200)
I0204 20:20:13.907145  9437 net.cpp:165] Memory required for data: 286132224
I0204 20:20:13.907156  9437 layer_factory.hpp:77] Creating layer conv3_4_1
I0204 20:20:13.907176  9437 net.cpp:100] Creating Layer conv3_4_1
I0204 20:20:13.907187  9437 net.cpp:434] conv3_4_1 <- prelu3_4_0
I0204 20:20:13.907203  9437 net.cpp:408] conv3_4_1 -> conv3_4_1
I0204 20:20:13.908143  9437 net.cpp:150] Setting up conv3_4_1
I0204 20:20:13.908165  9437 net.cpp:157] Top shape: 16 32 15 15 (115200)
I0204 20:20:13.908174  9437 net.cpp:165] Memory required for data: 286593024
I0204 20:20:13.908188  9437 layer_factory.hpp:77] Creating layer prelu3_4_1
I0204 20:20:13.908205  9437 net.cpp:100] Creating Layer prelu3_4_1
I0204 20:20:13.908215  9437 net.cpp:434] prelu3_4_1 <- conv3_4_1
I0204 20:20:13.908227  9437 net.cpp:408] prelu3_4_1 -> prelu3_4_1
I0204 20:20:13.908416  9437 net.cpp:150] Setting up prelu3_4_1
I0204 20:20:13.908437  9437 net.cpp:157] Top shape: 16 32 15 15 (115200)
I0204 20:20:13.908447  9437 net.cpp:165] Memory required for data: 287053824
I0204 20:20:13.908458  9437 layer_factory.hpp:77] Creating layer conv3_4_2
I0204 20:20:13.908481  9437 net.cpp:100] Creating Layer conv3_4_2
I0204 20:20:13.908493  9437 net.cpp:434] conv3_4_2 <- prelu3_4_1
I0204 20:20:13.908507  9437 net.cpp:408] conv3_4_2 -> conv3_4_2
I0204 20:20:13.910804  9437 net.cpp:150] Setting up conv3_4_2
I0204 20:20:13.910830  9437 net.cpp:157] Top shape: 16 128 15 15 (460800)
I0204 20:20:13.910840  9437 net.cpp:165] Memory required for data: 288897024
I0204 20:20:13.910854  9437 layer_factory.hpp:77] Creating layer eltwise3_4_4
I0204 20:20:13.910871  9437 net.cpp:100] Creating Layer eltwise3_4_4
I0204 20:20:13.910882  9437 net.cpp:434] eltwise3_4_4 <- prelu3_3_4_prelu3_3_4_0_split_1
I0204 20:20:13.910902  9437 net.cpp:434] eltwise3_4_4 <- conv3_4_2
I0204 20:20:13.910925  9437 net.cpp:408] eltwise3_4_4 -> eltwise3_4_4
I0204 20:20:13.910984  9437 net.cpp:150] Setting up eltwise3_4_4
I0204 20:20:13.911002  9437 net.cpp:157] Top shape: 16 128 15 15 (460800)
I0204 20:20:13.911010  9437 net.cpp:165] Memory required for data: 290740224
I0204 20:20:13.911020  9437 layer_factory.hpp:77] Creating layer prelu3_4_4
I0204 20:20:13.911036  9437 net.cpp:100] Creating Layer prelu3_4_4
I0204 20:20:13.911047  9437 net.cpp:434] prelu3_4_4 <- eltwise3_4_4
I0204 20:20:13.911063  9437 net.cpp:408] prelu3_4_4 -> prelu3_4_4
I0204 20:20:13.911259  9437 net.cpp:150] Setting up prelu3_4_4
I0204 20:20:13.911281  9437 net.cpp:157] Top shape: 16 128 15 15 (460800)
I0204 20:20:13.911290  9437 net.cpp:165] Memory required for data: 292583424
I0204 20:20:13.911303  9437 layer_factory.hpp:77] Creating layer prelu3_4_4_prelu3_4_4_0_split
I0204 20:20:13.911319  9437 net.cpp:100] Creating Layer prelu3_4_4_prelu3_4_4_0_split
I0204 20:20:13.911329  9437 net.cpp:434] prelu3_4_4_prelu3_4_4_0_split <- prelu3_4_4
I0204 20:20:13.911341  9437 net.cpp:408] prelu3_4_4_prelu3_4_4_0_split -> prelu3_4_4_prelu3_4_4_0_split_0
I0204 20:20:13.911355  9437 net.cpp:408] prelu3_4_4_prelu3_4_4_0_split -> prelu3_4_4_prelu3_4_4_0_split_1
I0204 20:20:13.911438  9437 net.cpp:150] Setting up prelu3_4_4_prelu3_4_4_0_split
I0204 20:20:13.911458  9437 net.cpp:157] Top shape: 16 128 15 15 (460800)
I0204 20:20:13.911468  9437 net.cpp:157] Top shape: 16 128 15 15 (460800)
I0204 20:20:13.911476  9437 net.cpp:165] Memory required for data: 296269824
I0204 20:20:13.911486  9437 layer_factory.hpp:77] Creating layer conv3_5_0
I0204 20:20:13.911505  9437 net.cpp:100] Creating Layer conv3_5_0
I0204 20:20:13.911517  9437 net.cpp:434] conv3_5_0 <- prelu3_4_4_prelu3_4_4_0_split_0
I0204 20:20:13.911533  9437 net.cpp:408] conv3_5_0 -> conv3_5_0
I0204 20:20:13.913827  9437 net.cpp:150] Setting up conv3_5_0
I0204 20:20:13.913854  9437 net.cpp:157] Top shape: 16 32 15 15 (115200)
I0204 20:20:13.913864  9437 net.cpp:165] Memory required for data: 296730624
I0204 20:20:13.913878  9437 layer_factory.hpp:77] Creating layer prelu3_5_0
I0204 20:20:13.913892  9437 net.cpp:100] Creating Layer prelu3_5_0
I0204 20:20:13.913902  9437 net.cpp:434] prelu3_5_0 <- conv3_5_0
I0204 20:20:13.913918  9437 net.cpp:408] prelu3_5_0 -> prelu3_5_0
I0204 20:20:13.914124  9437 net.cpp:150] Setting up prelu3_5_0
I0204 20:20:13.914144  9437 net.cpp:157] Top shape: 16 32 15 15 (115200)
I0204 20:20:13.914153  9437 net.cpp:165] Memory required for data: 297191424
I0204 20:20:13.914165  9437 layer_factory.hpp:77] Creating layer conv3_5_1
I0204 20:20:13.914186  9437 net.cpp:100] Creating Layer conv3_5_1
I0204 20:20:13.914196  9437 net.cpp:434] conv3_5_1 <- prelu3_5_0
I0204 20:20:13.914213  9437 net.cpp:408] conv3_5_1 -> conv3_5_1
I0204 20:20:13.916787  9437 net.cpp:150] Setting up conv3_5_1
I0204 20:20:13.916818  9437 net.cpp:157] Top shape: 16 32 15 15 (115200)
I0204 20:20:13.916829  9437 net.cpp:165] Memory required for data: 297652224
I0204 20:20:13.916843  9437 layer_factory.hpp:77] Creating layer prelu3_5_1
I0204 20:20:13.916860  9437 net.cpp:100] Creating Layer prelu3_5_1
I0204 20:20:13.916872  9437 net.cpp:434] prelu3_5_1 <- conv3_5_1
I0204 20:20:13.916884  9437 net.cpp:408] prelu3_5_1 -> prelu3_5_1
I0204 20:20:13.917078  9437 net.cpp:150] Setting up prelu3_5_1
I0204 20:20:13.917098  9437 net.cpp:157] Top shape: 16 32 15 15 (115200)
I0204 20:20:13.917107  9437 net.cpp:165] Memory required for data: 298113024
I0204 20:20:13.917120  9437 layer_factory.hpp:77] Creating layer conv3_5_2
I0204 20:20:13.917138  9437 net.cpp:100] Creating Layer conv3_5_2
I0204 20:20:13.917148  9437 net.cpp:434] conv3_5_2 <- prelu3_5_1
I0204 20:20:13.917162  9437 net.cpp:408] conv3_5_2 -> conv3_5_2
I0204 20:20:13.919467  9437 net.cpp:150] Setting up conv3_5_2
I0204 20:20:13.919493  9437 net.cpp:157] Top shape: 16 128 15 15 (460800)
I0204 20:20:13.919503  9437 net.cpp:165] Memory required for data: 299956224
I0204 20:20:13.919517  9437 layer_factory.hpp:77] Creating layer eltwise3_5_4
I0204 20:20:13.919538  9437 net.cpp:100] Creating Layer eltwise3_5_4
I0204 20:20:13.919559  9437 net.cpp:434] eltwise3_5_4 <- prelu3_4_4_prelu3_4_4_0_split_1
I0204 20:20:13.919572  9437 net.cpp:434] eltwise3_5_4 <- conv3_5_2
I0204 20:20:13.919589  9437 net.cpp:408] eltwise3_5_4 -> eltwise3_5_4
I0204 20:20:13.919651  9437 net.cpp:150] Setting up eltwise3_5_4
I0204 20:20:13.919669  9437 net.cpp:157] Top shape: 16 128 15 15 (460800)
I0204 20:20:13.919678  9437 net.cpp:165] Memory required for data: 301799424
I0204 20:20:13.919688  9437 layer_factory.hpp:77] Creating layer prelu3_5_4
I0204 20:20:13.919699  9437 net.cpp:100] Creating Layer prelu3_5_4
I0204 20:20:13.919709  9437 net.cpp:434] prelu3_5_4 <- eltwise3_5_4
I0204 20:20:13.919721  9437 net.cpp:408] prelu3_5_4 -> prelu3_5_4
I0204 20:20:13.919925  9437 net.cpp:150] Setting up prelu3_5_4
I0204 20:20:13.919947  9437 net.cpp:157] Top shape: 16 128 15 15 (460800)
I0204 20:20:13.919956  9437 net.cpp:165] Memory required for data: 303642624
I0204 20:20:13.919968  9437 layer_factory.hpp:77] Creating layer prelu3_5_4_prelu3_5_4_0_split
I0204 20:20:13.919984  9437 net.cpp:100] Creating Layer prelu3_5_4_prelu3_5_4_0_split
I0204 20:20:13.919996  9437 net.cpp:434] prelu3_5_4_prelu3_5_4_0_split <- prelu3_5_4
I0204 20:20:13.920007  9437 net.cpp:408] prelu3_5_4_prelu3_5_4_0_split -> prelu3_5_4_prelu3_5_4_0_split_0
I0204 20:20:13.920022  9437 net.cpp:408] prelu3_5_4_prelu3_5_4_0_split -> prelu3_5_4_prelu3_5_4_0_split_1
I0204 20:20:13.920104  9437 net.cpp:150] Setting up prelu3_5_4_prelu3_5_4_0_split
I0204 20:20:13.920122  9437 net.cpp:157] Top shape: 16 128 15 15 (460800)
I0204 20:20:13.920133  9437 net.cpp:157] Top shape: 16 128 15 15 (460800)
I0204 20:20:13.920141  9437 net.cpp:165] Memory required for data: 307329024
I0204 20:20:13.920150  9437 layer_factory.hpp:77] Creating layer conv3_6_0
I0204 20:20:13.920171  9437 net.cpp:100] Creating Layer conv3_6_0
I0204 20:20:13.920181  9437 net.cpp:434] conv3_6_0 <- prelu3_5_4_prelu3_5_4_0_split_0
I0204 20:20:13.920197  9437 net.cpp:408] conv3_6_0 -> conv3_6_0
I0204 20:20:13.922546  9437 net.cpp:150] Setting up conv3_6_0
I0204 20:20:13.922572  9437 net.cpp:157] Top shape: 16 32 15 15 (115200)
I0204 20:20:13.922582  9437 net.cpp:165] Memory required for data: 307789824
I0204 20:20:13.922596  9437 layer_factory.hpp:77] Creating layer prelu3_6_0
I0204 20:20:13.922612  9437 net.cpp:100] Creating Layer prelu3_6_0
I0204 20:20:13.922623  9437 net.cpp:434] prelu3_6_0 <- conv3_6_0
I0204 20:20:13.922636  9437 net.cpp:408] prelu3_6_0 -> prelu3_6_0
I0204 20:20:13.922837  9437 net.cpp:150] Setting up prelu3_6_0
I0204 20:20:13.922857  9437 net.cpp:157] Top shape: 16 32 15 15 (115200)
I0204 20:20:13.922866  9437 net.cpp:165] Memory required for data: 308250624
I0204 20:20:13.922878  9437 layer_factory.hpp:77] Creating layer conv3_6_1
I0204 20:20:13.922899  9437 net.cpp:100] Creating Layer conv3_6_1
I0204 20:20:13.922910  9437 net.cpp:434] conv3_6_1 <- prelu3_6_0
I0204 20:20:13.922927  9437 net.cpp:408] conv3_6_1 -> conv3_6_1
I0204 20:20:13.923864  9437 net.cpp:150] Setting up conv3_6_1
I0204 20:20:13.923887  9437 net.cpp:157] Top shape: 16 32 15 15 (115200)
I0204 20:20:13.923894  9437 net.cpp:165] Memory required for data: 308711424
I0204 20:20:13.923908  9437 layer_factory.hpp:77] Creating layer prelu3_6_1
I0204 20:20:13.923924  9437 net.cpp:100] Creating Layer prelu3_6_1
I0204 20:20:13.923935  9437 net.cpp:434] prelu3_6_1 <- conv3_6_1
I0204 20:20:13.923948  9437 net.cpp:408] prelu3_6_1 -> prelu3_6_1
I0204 20:20:13.924135  9437 net.cpp:150] Setting up prelu3_6_1
I0204 20:20:13.924156  9437 net.cpp:157] Top shape: 16 32 15 15 (115200)
I0204 20:20:13.924165  9437 net.cpp:165] Memory required for data: 309172224
I0204 20:20:13.924176  9437 layer_factory.hpp:77] Creating layer conv3_6_2
I0204 20:20:13.924196  9437 net.cpp:100] Creating Layer conv3_6_2
I0204 20:20:13.924207  9437 net.cpp:434] conv3_6_2 <- prelu3_6_1
I0204 20:20:13.924224  9437 net.cpp:408] conv3_6_2 -> conv3_6_2
I0204 20:20:13.926503  9437 net.cpp:150] Setting up conv3_6_2
I0204 20:20:13.926537  9437 net.cpp:157] Top shape: 16 128 15 15 (460800)
I0204 20:20:13.926556  9437 net.cpp:165] Memory required for data: 311015424
I0204 20:20:13.926571  9437 layer_factory.hpp:77] Creating layer eltwise3_6_4
I0204 20:20:13.926589  9437 net.cpp:100] Creating Layer eltwise3_6_4
I0204 20:20:13.926600  9437 net.cpp:434] eltwise3_6_4 <- prelu3_5_4_prelu3_5_4_0_split_1
I0204 20:20:13.926612  9437 net.cpp:434] eltwise3_6_4 <- conv3_6_2
I0204 20:20:13.926625  9437 net.cpp:408] eltwise3_6_4 -> eltwise3_6_4
I0204 20:20:13.926682  9437 net.cpp:150] Setting up eltwise3_6_4
I0204 20:20:13.926702  9437 net.cpp:157] Top shape: 16 128 15 15 (460800)
I0204 20:20:13.926710  9437 net.cpp:165] Memory required for data: 312858624
I0204 20:20:13.926719  9437 layer_factory.hpp:77] Creating layer prelu3_6_4
I0204 20:20:13.926735  9437 net.cpp:100] Creating Layer prelu3_6_4
I0204 20:20:13.926745  9437 net.cpp:434] prelu3_6_4 <- eltwise3_6_4
I0204 20:20:13.926760  9437 net.cpp:408] prelu3_6_4 -> prelu3_6_4
I0204 20:20:13.926965  9437 net.cpp:150] Setting up prelu3_6_4
I0204 20:20:13.926987  9437 net.cpp:157] Top shape: 16 128 15 15 (460800)
I0204 20:20:13.926996  9437 net.cpp:165] Memory required for data: 314701824
I0204 20:20:13.927008  9437 layer_factory.hpp:77] Creating layer prelu3_6_4_prelu3_6_4_0_split
I0204 20:20:13.927024  9437 net.cpp:100] Creating Layer prelu3_6_4_prelu3_6_4_0_split
I0204 20:20:13.927036  9437 net.cpp:434] prelu3_6_4_prelu3_6_4_0_split <- prelu3_6_4
I0204 20:20:13.927048  9437 net.cpp:408] prelu3_6_4_prelu3_6_4_0_split -> prelu3_6_4_prelu3_6_4_0_split_0
I0204 20:20:13.927062  9437 net.cpp:408] prelu3_6_4_prelu3_6_4_0_split -> prelu3_6_4_prelu3_6_4_0_split_1
I0204 20:20:13.927145  9437 net.cpp:150] Setting up prelu3_6_4_prelu3_6_4_0_split
I0204 20:20:13.927163  9437 net.cpp:157] Top shape: 16 128 15 15 (460800)
I0204 20:20:13.927175  9437 net.cpp:157] Top shape: 16 128 15 15 (460800)
I0204 20:20:13.927183  9437 net.cpp:165] Memory required for data: 318388224
I0204 20:20:13.927192  9437 layer_factory.hpp:77] Creating layer conv3_7_0
I0204 20:20:13.927213  9437 net.cpp:100] Creating Layer conv3_7_0
I0204 20:20:13.927224  9437 net.cpp:434] conv3_7_0 <- prelu3_6_4_prelu3_6_4_0_split_0
I0204 20:20:13.927242  9437 net.cpp:408] conv3_7_0 -> conv3_7_0
I0204 20:20:13.929560  9437 net.cpp:150] Setting up conv3_7_0
I0204 20:20:13.929586  9437 net.cpp:157] Top shape: 16 32 15 15 (115200)
I0204 20:20:13.929596  9437 net.cpp:165] Memory required for data: 318849024
I0204 20:20:13.929610  9437 layer_factory.hpp:77] Creating layer prelu3_7_0
I0204 20:20:13.929625  9437 net.cpp:100] Creating Layer prelu3_7_0
I0204 20:20:13.929635  9437 net.cpp:434] prelu3_7_0 <- conv3_7_0
I0204 20:20:13.929651  9437 net.cpp:408] prelu3_7_0 -> prelu3_7_0
I0204 20:20:13.931346  9437 net.cpp:150] Setting up prelu3_7_0
I0204 20:20:13.931375  9437 net.cpp:157] Top shape: 16 32 15 15 (115200)
I0204 20:20:13.931385  9437 net.cpp:165] Memory required for data: 319309824
I0204 20:20:13.931397  9437 layer_factory.hpp:77] Creating layer conv3_7_1_a
I0204 20:20:13.931421  9437 net.cpp:100] Creating Layer conv3_7_1_a
I0204 20:20:13.931432  9437 net.cpp:434] conv3_7_1_a <- prelu3_7_0
I0204 20:20:13.931452  9437 net.cpp:408] conv3_7_1_a -> conv3_7_1_a
I0204 20:20:13.934512  9437 net.cpp:150] Setting up conv3_7_1_a
I0204 20:20:13.934541  9437 net.cpp:157] Top shape: 16 32 13 17 (113152)
I0204 20:20:13.934552  9437 net.cpp:165] Memory required for data: 319762432
I0204 20:20:13.934567  9437 layer_factory.hpp:77] Creating layer conv3_7_1
I0204 20:20:13.934584  9437 net.cpp:100] Creating Layer conv3_7_1
I0204 20:20:13.934594  9437 net.cpp:434] conv3_7_1 <- conv3_7_1_a
I0204 20:20:13.934612  9437 net.cpp:408] conv3_7_1 -> conv3_7_1
I0204 20:20:13.936992  9437 net.cpp:150] Setting up conv3_7_1
I0204 20:20:13.937019  9437 net.cpp:157] Top shape: 16 32 15 15 (115200)
I0204 20:20:13.937029  9437 net.cpp:165] Memory required for data: 320223232
I0204 20:20:13.937043  9437 layer_factory.hpp:77] Creating layer prelu3_7_1
I0204 20:20:13.937067  9437 net.cpp:100] Creating Layer prelu3_7_1
I0204 20:20:13.937089  9437 net.cpp:434] prelu3_7_1 <- conv3_7_1
I0204 20:20:13.937103  9437 net.cpp:408] prelu3_7_1 -> prelu3_7_1
I0204 20:20:13.937296  9437 net.cpp:150] Setting up prelu3_7_1
I0204 20:20:13.937321  9437 net.cpp:157] Top shape: 16 32 15 15 (115200)
I0204 20:20:13.937330  9437 net.cpp:165] Memory required for data: 320684032
I0204 20:20:13.937343  9437 layer_factory.hpp:77] Creating layer conv3_7_2
I0204 20:20:13.937366  9437 net.cpp:100] Creating Layer conv3_7_2
I0204 20:20:13.937377  9437 net.cpp:434] conv3_7_2 <- prelu3_7_1
I0204 20:20:13.937391  9437 net.cpp:408] conv3_7_2 -> conv3_7_2
I0204 20:20:13.939020  9437 net.cpp:150] Setting up conv3_7_2
I0204 20:20:13.939044  9437 net.cpp:157] Top shape: 16 128 15 15 (460800)
I0204 20:20:13.939054  9437 net.cpp:165] Memory required for data: 322527232
I0204 20:20:13.939067  9437 layer_factory.hpp:77] Creating layer eltwise3_7_4
I0204 20:20:13.939085  9437 net.cpp:100] Creating Layer eltwise3_7_4
I0204 20:20:13.939096  9437 net.cpp:434] eltwise3_7_4 <- prelu3_6_4_prelu3_6_4_0_split_1
I0204 20:20:13.939107  9437 net.cpp:434] eltwise3_7_4 <- conv3_7_2
I0204 20:20:13.939121  9437 net.cpp:408] eltwise3_7_4 -> eltwise3_7_4
I0204 20:20:13.939182  9437 net.cpp:150] Setting up eltwise3_7_4
I0204 20:20:13.939200  9437 net.cpp:157] Top shape: 16 128 15 15 (460800)
I0204 20:20:13.939209  9437 net.cpp:165] Memory required for data: 324370432
I0204 20:20:13.939218  9437 layer_factory.hpp:77] Creating layer prelu3_7_4
I0204 20:20:13.939230  9437 net.cpp:100] Creating Layer prelu3_7_4
I0204 20:20:13.939240  9437 net.cpp:434] prelu3_7_4 <- eltwise3_7_4
I0204 20:20:13.939256  9437 net.cpp:408] prelu3_7_4 -> prelu3_7_4
I0204 20:20:13.939465  9437 net.cpp:150] Setting up prelu3_7_4
I0204 20:20:13.939489  9437 net.cpp:157] Top shape: 16 128 15 15 (460800)
I0204 20:20:13.939498  9437 net.cpp:165] Memory required for data: 326213632
I0204 20:20:13.939512  9437 layer_factory.hpp:77] Creating layer prelu3_7_4_prelu3_7_4_0_split
I0204 20:20:13.939523  9437 net.cpp:100] Creating Layer prelu3_7_4_prelu3_7_4_0_split
I0204 20:20:13.939533  9437 net.cpp:434] prelu3_7_4_prelu3_7_4_0_split <- prelu3_7_4
I0204 20:20:13.939545  9437 net.cpp:408] prelu3_7_4_prelu3_7_4_0_split -> prelu3_7_4_prelu3_7_4_0_split_0
I0204 20:20:13.939560  9437 net.cpp:408] prelu3_7_4_prelu3_7_4_0_split -> prelu3_7_4_prelu3_7_4_0_split_1
I0204 20:20:13.939643  9437 net.cpp:150] Setting up prelu3_7_4_prelu3_7_4_0_split
I0204 20:20:13.939662  9437 net.cpp:157] Top shape: 16 128 15 15 (460800)
I0204 20:20:13.939673  9437 net.cpp:157] Top shape: 16 128 15 15 (460800)
I0204 20:20:13.939682  9437 net.cpp:165] Memory required for data: 329900032
I0204 20:20:13.939692  9437 layer_factory.hpp:77] Creating layer conv3_8_0
I0204 20:20:13.939710  9437 net.cpp:100] Creating Layer conv3_8_0
I0204 20:20:13.939721  9437 net.cpp:434] conv3_8_0 <- prelu3_7_4_prelu3_7_4_0_split_0
I0204 20:20:13.939738  9437 net.cpp:408] conv3_8_0 -> conv3_8_0
I0204 20:20:13.942025  9437 net.cpp:150] Setting up conv3_8_0
I0204 20:20:13.942052  9437 net.cpp:157] Top shape: 16 32 15 15 (115200)
I0204 20:20:13.942062  9437 net.cpp:165] Memory required for data: 330360832
I0204 20:20:13.942076  9437 layer_factory.hpp:77] Creating layer prelu3_8_0
I0204 20:20:13.942092  9437 net.cpp:100] Creating Layer prelu3_8_0
I0204 20:20:13.942103  9437 net.cpp:434] prelu3_8_0 <- conv3_8_0
I0204 20:20:13.942116  9437 net.cpp:408] prelu3_8_0 -> prelu3_8_0
I0204 20:20:13.942313  9437 net.cpp:150] Setting up prelu3_8_0
I0204 20:20:13.942337  9437 net.cpp:157] Top shape: 16 32 15 15 (115200)
I0204 20:20:13.942347  9437 net.cpp:165] Memory required for data: 330821632
I0204 20:20:13.942359  9437 layer_factory.hpp:77] Creating layer conv3_8_1
I0204 20:20:13.942376  9437 net.cpp:100] Creating Layer conv3_8_1
I0204 20:20:13.942386  9437 net.cpp:434] conv3_8_1 <- prelu3_8_0
I0204 20:20:13.942404  9437 net.cpp:408] conv3_8_1 -> conv3_8_1
I0204 20:20:13.943346  9437 net.cpp:150] Setting up conv3_8_1
I0204 20:20:13.943367  9437 net.cpp:157] Top shape: 16 32 15 15 (115200)
I0204 20:20:13.943383  9437 net.cpp:165] Memory required for data: 331282432
I0204 20:20:13.943408  9437 layer_factory.hpp:77] Creating layer prelu3_8_1
I0204 20:20:13.943425  9437 net.cpp:100] Creating Layer prelu3_8_1
I0204 20:20:13.943436  9437 net.cpp:434] prelu3_8_1 <- conv3_8_1
I0204 20:20:13.943449  9437 net.cpp:408] prelu3_8_1 -> prelu3_8_1
I0204 20:20:13.943635  9437 net.cpp:150] Setting up prelu3_8_1
I0204 20:20:13.943656  9437 net.cpp:157] Top shape: 16 32 15 15 (115200)
I0204 20:20:13.943665  9437 net.cpp:165] Memory required for data: 331743232
I0204 20:20:13.943677  9437 layer_factory.hpp:77] Creating layer conv3_8_2
I0204 20:20:13.943698  9437 net.cpp:100] Creating Layer conv3_8_2
I0204 20:20:13.943709  9437 net.cpp:434] conv3_8_2 <- prelu3_8_1
I0204 20:20:13.943723  9437 net.cpp:408] conv3_8_2 -> conv3_8_2
I0204 20:20:13.946041  9437 net.cpp:150] Setting up conv3_8_2
I0204 20:20:13.946068  9437 net.cpp:157] Top shape: 16 128 15 15 (460800)
I0204 20:20:13.946077  9437 net.cpp:165] Memory required for data: 333586432
I0204 20:20:13.946092  9437 layer_factory.hpp:77] Creating layer eltwise3_8_4
I0204 20:20:13.946110  9437 net.cpp:100] Creating Layer eltwise3_8_4
I0204 20:20:13.946120  9437 net.cpp:434] eltwise3_8_4 <- prelu3_7_4_prelu3_7_4_0_split_1
I0204 20:20:13.946132  9437 net.cpp:434] eltwise3_8_4 <- conv3_8_2
I0204 20:20:13.946146  9437 net.cpp:408] eltwise3_8_4 -> eltwise3_8_4
I0204 20:20:13.946208  9437 net.cpp:150] Setting up eltwise3_8_4
I0204 20:20:13.946228  9437 net.cpp:157] Top shape: 16 128 15 15 (460800)
I0204 20:20:13.946235  9437 net.cpp:165] Memory required for data: 335429632
I0204 20:20:13.946245  9437 layer_factory.hpp:77] Creating layer prelu3_8_4
I0204 20:20:13.946257  9437 net.cpp:100] Creating Layer prelu3_8_4
I0204 20:20:13.946267  9437 net.cpp:434] prelu3_8_4 <- eltwise3_8_4
I0204 20:20:13.946282  9437 net.cpp:408] prelu3_8_4 -> prelu3_8_4
I0204 20:20:13.946487  9437 net.cpp:150] Setting up prelu3_8_4
I0204 20:20:13.946509  9437 net.cpp:157] Top shape: 16 128 15 15 (460800)
I0204 20:20:13.946518  9437 net.cpp:165] Memory required for data: 337272832
I0204 20:20:13.946530  9437 layer_factory.hpp:77] Creating layer prelu3_8_4_prelu3_8_4_0_split
I0204 20:20:13.946547  9437 net.cpp:100] Creating Layer prelu3_8_4_prelu3_8_4_0_split
I0204 20:20:13.946557  9437 net.cpp:434] prelu3_8_4_prelu3_8_4_0_split <- prelu3_8_4
I0204 20:20:13.946569  9437 net.cpp:408] prelu3_8_4_prelu3_8_4_0_split -> prelu3_8_4_prelu3_8_4_0_split_0
I0204 20:20:13.946583  9437 net.cpp:408] prelu3_8_4_prelu3_8_4_0_split -> prelu3_8_4_prelu3_8_4_0_split_1
I0204 20:20:13.946667  9437 net.cpp:150] Setting up prelu3_8_4_prelu3_8_4_0_split
I0204 20:20:13.946686  9437 net.cpp:157] Top shape: 16 128 15 15 (460800)
I0204 20:20:13.946697  9437 net.cpp:157] Top shape: 16 128 15 15 (460800)
I0204 20:20:13.946705  9437 net.cpp:165] Memory required for data: 340959232
I0204 20:20:13.946714  9437 layer_factory.hpp:77] Creating layer conv4_0_0
I0204 20:20:13.946734  9437 net.cpp:100] Creating Layer conv4_0_0
I0204 20:20:13.946745  9437 net.cpp:434] conv4_0_0 <- prelu3_8_4_prelu3_8_4_0_split_0
I0204 20:20:13.946761  9437 net.cpp:408] conv4_0_0 -> conv4_0_0
I0204 20:20:13.948998  9437 net.cpp:150] Setting up conv4_0_0
I0204 20:20:13.949029  9437 net.cpp:157] Top shape: 16 16 15 15 (57600)
I0204 20:20:13.949040  9437 net.cpp:165] Memory required for data: 341189632
I0204 20:20:13.949055  9437 layer_factory.hpp:77] Creating layer prelu4_0_0
I0204 20:20:13.949069  9437 net.cpp:100] Creating Layer prelu4_0_0
I0204 20:20:13.949079  9437 net.cpp:434] prelu4_0_0 <- conv4_0_0
I0204 20:20:13.949097  9437 net.cpp:408] prelu4_0_0 -> prelu4_0_0
I0204 20:20:13.949476  9437 net.cpp:150] Setting up prelu4_0_0
I0204 20:20:13.949499  9437 net.cpp:157] Top shape: 16 16 15 15 (57600)
I0204 20:20:13.949508  9437 net.cpp:165] Memory required for data: 341420032
I0204 20:20:13.949518  9437 layer_factory.hpp:77] Creating layer deconv4_0_1
I0204 20:20:13.949537  9437 net.cpp:100] Creating Layer deconv4_0_1
I0204 20:20:13.949555  9437 net.cpp:434] deconv4_0_1 <- prelu4_0_0
I0204 20:20:13.949581  9437 net.cpp:408] deconv4_0_1 -> deconv4_0_1
I0204 20:20:13.950078  9437 net.cpp:150] Setting up deconv4_0_1
I0204 20:20:13.950100  9437 net.cpp:157] Top shape: 16 16 30 30 (230400)
I0204 20:20:13.950109  9437 net.cpp:165] Memory required for data: 342341632
I0204 20:20:13.950124  9437 layer_factory.hpp:77] Creating layer bn4_0_1
I0204 20:20:13.950147  9437 net.cpp:100] Creating Layer bn4_0_1
I0204 20:20:13.950158  9437 net.cpp:434] bn4_0_1 <- deconv4_0_1
I0204 20:20:13.950172  9437 net.cpp:408] bn4_0_1 -> bn4_0_1
I0204 20:20:13.950626  9437 net.cpp:150] Setting up bn4_0_1
I0204 20:20:13.950646  9437 net.cpp:157] Top shape: 16 16 30 30 (230400)
I0204 20:20:13.950655  9437 net.cpp:165] Memory required for data: 343263232
I0204 20:20:13.950670  9437 layer_factory.hpp:77] Creating layer prelu4_0_1
I0204 20:20:13.950682  9437 net.cpp:100] Creating Layer prelu4_0_1
I0204 20:20:13.950692  9437 net.cpp:434] prelu4_0_1 <- bn4_0_1
I0204 20:20:13.950709  9437 net.cpp:408] prelu4_0_1 -> prelu4_0_1
I0204 20:20:13.951731  9437 net.cpp:150] Setting up prelu4_0_1
I0204 20:20:13.951756  9437 net.cpp:157] Top shape: 16 16 30 30 (230400)
I0204 20:20:13.951766  9437 net.cpp:165] Memory required for data: 344184832
I0204 20:20:13.951776  9437 layer_factory.hpp:77] Creating layer conv4_0_2
I0204 20:20:13.951797  9437 net.cpp:100] Creating Layer conv4_0_2
I0204 20:20:13.951808  9437 net.cpp:434] conv4_0_2 <- prelu4_0_1
I0204 20:20:13.951825  9437 net.cpp:408] conv4_0_2 -> conv4_0_2
I0204 20:20:13.954018  9437 net.cpp:150] Setting up conv4_0_2
I0204 20:20:13.954046  9437 net.cpp:157] Top shape: 16 64 30 30 (921600)
I0204 20:20:13.954054  9437 net.cpp:165] Memory required for data: 347871232
I0204 20:20:13.954069  9437 layer_factory.hpp:77] Creating layer conv4_0_4
I0204 20:20:13.954092  9437 net.cpp:100] Creating Layer conv4_0_4
I0204 20:20:13.954104  9437 net.cpp:434] conv4_0_4 <- prelu3_8_4_prelu3_8_4_0_split_1
I0204 20:20:13.954119  9437 net.cpp:408] conv4_0_4 -> conv4_0_4
I0204 20:20:13.955994  9437 net.cpp:150] Setting up conv4_0_4
I0204 20:20:13.956018  9437 net.cpp:157] Top shape: 16 64 15 15 (230400)
I0204 20:20:13.956028  9437 net.cpp:165] Memory required for data: 348792832
I0204 20:20:13.956043  9437 layer_factory.hpp:77] Creating layer upsample4_0_4
I0204 20:20:13.956061  9437 net.cpp:100] Creating Layer upsample4_0_4
I0204 20:20:13.956073  9437 net.cpp:434] upsample4_0_4 <- conv4_0_4
I0204 20:20:13.956084  9437 net.cpp:434] upsample4_0_4 <- pool2_0_4_mask
I0204 20:20:13.956097  9437 net.cpp:408] upsample4_0_4 -> upsample4_0_4
I0204 20:20:13.956117  9437 upsample_layer.cpp:27] Params 'pad_out_{}_' are deprecated. Please declare upsample height and width useing the upsample_h, upsample_w parameters.
I0204 20:20:13.956177  9437 net.cpp:150] Setting up upsample4_0_4
I0204 20:20:13.956197  9437 net.cpp:157] Top shape: 16 64 30 30 (921600)
I0204 20:20:13.956204  9437 net.cpp:165] Memory required for data: 352479232
I0204 20:20:13.956214  9437 layer_factory.hpp:77] Creating layer eltwise4_0_4
I0204 20:20:13.956226  9437 net.cpp:100] Creating Layer eltwise4_0_4
I0204 20:20:13.956236  9437 net.cpp:434] eltwise4_0_4 <- upsample4_0_4
I0204 20:20:13.956248  9437 net.cpp:434] eltwise4_0_4 <- conv4_0_2
I0204 20:20:13.956264  9437 net.cpp:408] eltwise4_0_4 -> eltwise4_0_4
I0204 20:20:13.956320  9437 net.cpp:150] Setting up eltwise4_0_4
I0204 20:20:13.956337  9437 net.cpp:157] Top shape: 16 64 30 30 (921600)
I0204 20:20:13.956346  9437 net.cpp:165] Memory required for data: 356165632
I0204 20:20:13.956356  9437 layer_factory.hpp:77] Creating layer prelu4_0_4
I0204 20:20:13.956372  9437 net.cpp:100] Creating Layer prelu4_0_4
I0204 20:20:13.956382  9437 net.cpp:434] prelu4_0_4 <- eltwise4_0_4
I0204 20:20:13.956394  9437 net.cpp:408] prelu4_0_4 -> prelu4_0_4
I0204 20:20:13.957422  9437 net.cpp:150] Setting up prelu4_0_4
I0204 20:20:13.957453  9437 net.cpp:157] Top shape: 16 64 30 30 (921600)
I0204 20:20:13.957463  9437 net.cpp:165] Memory required for data: 359852032
I0204 20:20:13.957479  9437 layer_factory.hpp:77] Creating layer prelu4_0_4_prelu4_0_4_0_split
I0204 20:20:13.957502  9437 net.cpp:100] Creating Layer prelu4_0_4_prelu4_0_4_0_split
I0204 20:20:13.957512  9437 net.cpp:434] prelu4_0_4_prelu4_0_4_0_split <- prelu4_0_4
I0204 20:20:13.957525  9437 net.cpp:408] prelu4_0_4_prelu4_0_4_0_split -> prelu4_0_4_prelu4_0_4_0_split_0
I0204 20:20:13.957540  9437 net.cpp:408] prelu4_0_4_prelu4_0_4_0_split -> prelu4_0_4_prelu4_0_4_0_split_1
I0204 20:20:13.957628  9437 net.cpp:150] Setting up prelu4_0_4_prelu4_0_4_0_split
I0204 20:20:13.957646  9437 net.cpp:157] Top shape: 16 64 30 30 (921600)
I0204 20:20:13.957657  9437 net.cpp:157] Top shape: 16 64 30 30 (921600)
I0204 20:20:13.957665  9437 net.cpp:165] Memory required for data: 367224832
I0204 20:20:13.957675  9437 layer_factory.hpp:77] Creating layer conv4_1_0
I0204 20:20:13.957695  9437 net.cpp:100] Creating Layer conv4_1_0
I0204 20:20:13.957705  9437 net.cpp:434] conv4_1_0 <- prelu4_0_4_prelu4_0_4_0_split_0
I0204 20:20:13.957722  9437 net.cpp:408] conv4_1_0 -> conv4_1_0
I0204 20:20:13.959882  9437 net.cpp:150] Setting up conv4_1_0
I0204 20:20:13.959913  9437 net.cpp:157] Top shape: 16 16 30 30 (230400)
I0204 20:20:13.959923  9437 net.cpp:165] Memory required for data: 368146432
I0204 20:20:13.959938  9437 layer_factory.hpp:77] Creating layer prelu4_1_0
I0204 20:20:13.959951  9437 net.cpp:100] Creating Layer prelu4_1_0
I0204 20:20:13.959961  9437 net.cpp:434] prelu4_1_0 <- conv4_1_0
I0204 20:20:13.959978  9437 net.cpp:408] prelu4_1_0 -> prelu4_1_0
I0204 20:20:13.960336  9437 net.cpp:150] Setting up prelu4_1_0
I0204 20:20:13.960360  9437 net.cpp:157] Top shape: 16 16 30 30 (230400)
I0204 20:20:13.960369  9437 net.cpp:165] Memory required for data: 369068032
I0204 20:20:13.960379  9437 layer_factory.hpp:77] Creating layer conv4_1_1
I0204 20:20:13.960399  9437 net.cpp:100] Creating Layer conv4_1_1
I0204 20:20:13.960410  9437 net.cpp:434] conv4_1_1 <- prelu4_1_0
I0204 20:20:13.960427  9437 net.cpp:408] conv4_1_1 -> conv4_1_1
I0204 20:20:13.962695  9437 net.cpp:150] Setting up conv4_1_1
I0204 20:20:13.962721  9437 net.cpp:157] Top shape: 16 16 30 30 (230400)
I0204 20:20:13.962731  9437 net.cpp:165] Memory required for data: 369989632
I0204 20:20:13.962746  9437 layer_factory.hpp:77] Creating layer prelu4_1_1
I0204 20:20:13.962759  9437 net.cpp:100] Creating Layer prelu4_1_1
I0204 20:20:13.962769  9437 net.cpp:434] prelu4_1_1 <- conv4_1_1
I0204 20:20:13.962787  9437 net.cpp:408] prelu4_1_1 -> prelu4_1_1
I0204 20:20:13.963145  9437 net.cpp:150] Setting up prelu4_1_1
I0204 20:20:13.963168  9437 net.cpp:157] Top shape: 16 16 30 30 (230400)
I0204 20:20:13.963177  9437 net.cpp:165] Memory required for data: 370911232
I0204 20:20:13.963187  9437 layer_factory.hpp:77] Creating layer conv4_1_2
I0204 20:20:13.963207  9437 net.cpp:100] Creating Layer conv4_1_2
I0204 20:20:13.963219  9437 net.cpp:434] conv4_1_2 <- prelu4_1_1
I0204 20:20:13.963233  9437 net.cpp:408] conv4_1_2 -> conv4_1_2
I0204 20:20:13.965414  9437 net.cpp:150] Setting up conv4_1_2
I0204 20:20:13.965440  9437 net.cpp:157] Top shape: 16 64 30 30 (921600)
I0204 20:20:13.965450  9437 net.cpp:165] Memory required for data: 374597632
I0204 20:20:13.965464  9437 layer_factory.hpp:77] Creating layer eltwise4_1_4
I0204 20:20:13.965481  9437 net.cpp:100] Creating Layer eltwise4_1_4
I0204 20:20:13.965492  9437 net.cpp:434] eltwise4_1_4 <- prelu4_0_4_prelu4_0_4_0_split_1
I0204 20:20:13.965503  9437 net.cpp:434] eltwise4_1_4 <- conv4_1_2
I0204 20:20:13.965517  9437 net.cpp:408] eltwise4_1_4 -> eltwise4_1_4
I0204 20:20:13.965577  9437 net.cpp:150] Setting up eltwise4_1_4
I0204 20:20:13.965596  9437 net.cpp:157] Top shape: 16 64 30 30 (921600)
I0204 20:20:13.965605  9437 net.cpp:165] Memory required for data: 378284032
I0204 20:20:13.965615  9437 layer_factory.hpp:77] Creating layer prelu4_1_4
I0204 20:20:13.965627  9437 net.cpp:100] Creating Layer prelu4_1_4
I0204 20:20:13.965636  9437 net.cpp:434] prelu4_1_4 <- eltwise4_1_4
I0204 20:20:13.965652  9437 net.cpp:408] prelu4_1_4 -> prelu4_1_4
I0204 20:20:13.966024  9437 net.cpp:150] Setting up prelu4_1_4
I0204 20:20:13.966059  9437 net.cpp:157] Top shape: 16 64 30 30 (921600)
I0204 20:20:13.966069  9437 net.cpp:165] Memory required for data: 381970432
I0204 20:20:13.966079  9437 layer_factory.hpp:77] Creating layer prelu4_1_4_prelu4_1_4_0_split
I0204 20:20:13.966095  9437 net.cpp:100] Creating Layer prelu4_1_4_prelu4_1_4_0_split
I0204 20:20:13.966105  9437 net.cpp:434] prelu4_1_4_prelu4_1_4_0_split <- prelu4_1_4
I0204 20:20:13.966118  9437 net.cpp:408] prelu4_1_4_prelu4_1_4_0_split -> prelu4_1_4_prelu4_1_4_0_split_0
I0204 20:20:13.966133  9437 net.cpp:408] prelu4_1_4_prelu4_1_4_0_split -> prelu4_1_4_prelu4_1_4_0_split_1
I0204 20:20:13.966220  9437 net.cpp:150] Setting up prelu4_1_4_prelu4_1_4_0_split
I0204 20:20:13.966239  9437 net.cpp:157] Top shape: 16 64 30 30 (921600)
I0204 20:20:13.966251  9437 net.cpp:157] Top shape: 16 64 30 30 (921600)
I0204 20:20:13.966259  9437 net.cpp:165] Memory required for data: 389343232
I0204 20:20:13.966269  9437 layer_factory.hpp:77] Creating layer conv4_2_0
I0204 20:20:13.966289  9437 net.cpp:100] Creating Layer conv4_2_0
I0204 20:20:13.966300  9437 net.cpp:434] conv4_2_0 <- prelu4_1_4_prelu4_1_4_0_split_0
I0204 20:20:13.966315  9437 net.cpp:408] conv4_2_0 -> conv4_2_0
I0204 20:20:13.968502  9437 net.cpp:150] Setting up conv4_2_0
I0204 20:20:13.968528  9437 net.cpp:157] Top shape: 16 16 30 30 (230400)
I0204 20:20:13.968538  9437 net.cpp:165] Memory required for data: 390264832
I0204 20:20:13.968551  9437 layer_factory.hpp:77] Creating layer prelu4_2_0
I0204 20:20:13.968564  9437 net.cpp:100] Creating Layer prelu4_2_0
I0204 20:20:13.968575  9437 net.cpp:434] prelu4_2_0 <- conv4_2_0
I0204 20:20:13.968588  9437 net.cpp:408] prelu4_2_0 -> prelu4_2_0
I0204 20:20:13.968982  9437 net.cpp:150] Setting up prelu4_2_0
I0204 20:20:13.969007  9437 net.cpp:157] Top shape: 16 16 30 30 (230400)
I0204 20:20:13.969015  9437 net.cpp:165] Memory required for data: 391186432
I0204 20:20:13.969025  9437 layer_factory.hpp:77] Creating layer conv4_2_1
I0204 20:20:13.969045  9437 net.cpp:100] Creating Layer conv4_2_1
I0204 20:20:13.969056  9437 net.cpp:434] conv4_2_1 <- prelu4_2_0
I0204 20:20:13.969074  9437 net.cpp:408] conv4_2_1 -> conv4_2_1
I0204 20:20:13.971305  9437 net.cpp:150] Setting up conv4_2_1
I0204 20:20:13.971335  9437 net.cpp:157] Top shape: 16 16 30 30 (230400)
I0204 20:20:13.971345  9437 net.cpp:165] Memory required for data: 392108032
I0204 20:20:13.971360  9437 layer_factory.hpp:77] Creating layer prelu4_2_1
I0204 20:20:13.971377  9437 net.cpp:100] Creating Layer prelu4_2_1
I0204 20:20:13.971388  9437 net.cpp:434] prelu4_2_1 <- conv4_2_1
I0204 20:20:13.971405  9437 net.cpp:408] prelu4_2_1 -> prelu4_2_1
I0204 20:20:13.972415  9437 net.cpp:150] Setting up prelu4_2_1
I0204 20:20:13.972443  9437 net.cpp:157] Top shape: 16 16 30 30 (230400)
I0204 20:20:13.972453  9437 net.cpp:165] Memory required for data: 393029632
I0204 20:20:13.972462  9437 layer_factory.hpp:77] Creating layer conv4_2_2
I0204 20:20:13.972482  9437 net.cpp:100] Creating Layer conv4_2_2
I0204 20:20:13.972493  9437 net.cpp:434] conv4_2_2 <- prelu4_2_1
I0204 20:20:13.972508  9437 net.cpp:408] conv4_2_2 -> conv4_2_2
I0204 20:20:13.974126  9437 net.cpp:150] Setting up conv4_2_2
I0204 20:20:13.974151  9437 net.cpp:157] Top shape: 16 64 30 30 (921600)
I0204 20:20:13.974161  9437 net.cpp:165] Memory required for data: 396716032
I0204 20:20:13.974175  9437 layer_factory.hpp:77] Creating layer eltwise4_2_4
I0204 20:20:13.974191  9437 net.cpp:100] Creating Layer eltwise4_2_4
I0204 20:20:13.974202  9437 net.cpp:434] eltwise4_2_4 <- prelu4_1_4_prelu4_1_4_0_split_1
I0204 20:20:13.974215  9437 net.cpp:434] eltwise4_2_4 <- conv4_2_2
I0204 20:20:13.974226  9437 net.cpp:408] eltwise4_2_4 -> eltwise4_2_4
I0204 20:20:13.974289  9437 net.cpp:150] Setting up eltwise4_2_4
I0204 20:20:13.974308  9437 net.cpp:157] Top shape: 16 64 30 30 (921600)
I0204 20:20:13.974318  9437 net.cpp:165] Memory required for data: 400402432
I0204 20:20:13.974326  9437 layer_factory.hpp:77] Creating layer prelu4_2_4
I0204 20:20:13.974346  9437 net.cpp:100] Creating Layer prelu4_2_4
I0204 20:20:13.974366  9437 net.cpp:434] prelu4_2_4 <- eltwise4_2_4
I0204 20:20:13.974383  9437 net.cpp:408] prelu4_2_4 -> prelu4_2_4
I0204 20:20:13.975409  9437 net.cpp:150] Setting up prelu4_2_4
I0204 20:20:13.975433  9437 net.cpp:157] Top shape: 16 64 30 30 (921600)
I0204 20:20:13.975443  9437 net.cpp:165] Memory required for data: 404088832
I0204 20:20:13.975452  9437 layer_factory.hpp:77] Creating layer prelu4_2_4_prelu4_2_4_0_split
I0204 20:20:13.975466  9437 net.cpp:100] Creating Layer prelu4_2_4_prelu4_2_4_0_split
I0204 20:20:13.975476  9437 net.cpp:434] prelu4_2_4_prelu4_2_4_0_split <- prelu4_2_4
I0204 20:20:13.975492  9437 net.cpp:408] prelu4_2_4_prelu4_2_4_0_split -> prelu4_2_4_prelu4_2_4_0_split_0
I0204 20:20:13.975507  9437 net.cpp:408] prelu4_2_4_prelu4_2_4_0_split -> prelu4_2_4_prelu4_2_4_0_split_1
I0204 20:20:13.975591  9437 net.cpp:150] Setting up prelu4_2_4_prelu4_2_4_0_split
I0204 20:20:13.975615  9437 net.cpp:157] Top shape: 16 64 30 30 (921600)
I0204 20:20:13.975626  9437 net.cpp:157] Top shape: 16 64 30 30 (921600)
I0204 20:20:13.975634  9437 net.cpp:165] Memory required for data: 411461632
I0204 20:20:13.975643  9437 layer_factory.hpp:77] Creating layer conv5_0_0
I0204 20:20:13.975666  9437 net.cpp:100] Creating Layer conv5_0_0
I0204 20:20:13.975677  9437 net.cpp:434] conv5_0_0 <- prelu4_2_4_prelu4_2_4_0_split_0
I0204 20:20:13.975692  9437 net.cpp:408] conv5_0_0 -> conv5_0_0
I0204 20:20:13.977828  9437 net.cpp:150] Setting up conv5_0_0
I0204 20:20:13.977859  9437 net.cpp:157] Top shape: 16 4 30 30 (57600)
I0204 20:20:13.977869  9437 net.cpp:165] Memory required for data: 411692032
I0204 20:20:13.977883  9437 layer_factory.hpp:77] Creating layer prelu5_0_0
I0204 20:20:13.977896  9437 net.cpp:100] Creating Layer prelu5_0_0
I0204 20:20:13.977906  9437 net.cpp:434] prelu5_0_0 <- conv5_0_0
I0204 20:20:13.977919  9437 net.cpp:408] prelu5_0_0 -> prelu5_0_0
I0204 20:20:13.978289  9437 net.cpp:150] Setting up prelu5_0_0
I0204 20:20:13.978313  9437 net.cpp:157] Top shape: 16 4 30 30 (57600)
I0204 20:20:13.978322  9437 net.cpp:165] Memory required for data: 411922432
I0204 20:20:13.978332  9437 layer_factory.hpp:77] Creating layer deconv5_0_1
I0204 20:20:13.978346  9437 net.cpp:100] Creating Layer deconv5_0_1
I0204 20:20:13.978356  9437 net.cpp:434] deconv5_0_1 <- prelu5_0_0
I0204 20:20:13.978374  9437 net.cpp:408] deconv5_0_1 -> deconv5_0_1
I0204 20:20:13.978863  9437 net.cpp:150] Setting up deconv5_0_1
I0204 20:20:13.978883  9437 net.cpp:157] Top shape: 16 4 60 60 (230400)
I0204 20:20:13.978893  9437 net.cpp:165] Memory required for data: 412844032
I0204 20:20:13.978907  9437 layer_factory.hpp:77] Creating layer bn5_0_1
I0204 20:20:13.978926  9437 net.cpp:100] Creating Layer bn5_0_1
I0204 20:20:13.978937  9437 net.cpp:434] bn5_0_1 <- deconv5_0_1
I0204 20:20:13.978955  9437 net.cpp:408] bn5_0_1 -> bn5_0_1
I0204 20:20:13.979421  9437 net.cpp:150] Setting up bn5_0_1
I0204 20:20:13.979444  9437 net.cpp:157] Top shape: 16 4 60 60 (230400)
I0204 20:20:13.979452  9437 net.cpp:165] Memory required for data: 413765632
I0204 20:20:13.979466  9437 layer_factory.hpp:77] Creating layer prelu5_0_1
I0204 20:20:13.979480  9437 net.cpp:100] Creating Layer prelu5_0_1
I0204 20:20:13.979488  9437 net.cpp:434] prelu5_0_1 <- bn5_0_1
I0204 20:20:13.979504  9437 net.cpp:408] prelu5_0_1 -> prelu5_0_1
I0204 20:20:13.979866  9437 net.cpp:150] Setting up prelu5_0_1
I0204 20:20:13.979888  9437 net.cpp:157] Top shape: 16 4 60 60 (230400)
I0204 20:20:13.979897  9437 net.cpp:165] Memory required for data: 414687232
I0204 20:20:13.979907  9437 layer_factory.hpp:77] Creating layer conv5_0_2
I0204 20:20:13.979929  9437 net.cpp:100] Creating Layer conv5_0_2
I0204 20:20:13.979941  9437 net.cpp:434] conv5_0_2 <- prelu5_0_1
I0204 20:20:13.979955  9437 net.cpp:408] conv5_0_2 -> conv5_0_2
I0204 20:20:13.982115  9437 net.cpp:150] Setting up conv5_0_2
I0204 20:20:13.982148  9437 net.cpp:157] Top shape: 16 16 60 60 (921600)
I0204 20:20:13.982159  9437 net.cpp:165] Memory required for data: 418373632
I0204 20:20:13.982182  9437 layer_factory.hpp:77] Creating layer conv5_0_4
I0204 20:20:13.982213  9437 net.cpp:100] Creating Layer conv5_0_4
I0204 20:20:13.982226  9437 net.cpp:434] conv5_0_4 <- prelu4_2_4_prelu4_2_4_0_split_1
I0204 20:20:13.982241  9437 net.cpp:408] conv5_0_4 -> conv5_0_4
I0204 20:20:13.985110  9437 net.cpp:150] Setting up conv5_0_4
I0204 20:20:13.985137  9437 net.cpp:157] Top shape: 16 16 30 30 (230400)
I0204 20:20:13.985147  9437 net.cpp:165] Memory required for data: 419295232
I0204 20:20:13.985162  9437 layer_factory.hpp:77] Creating layer upsample5_0_4
I0204 20:20:13.985177  9437 net.cpp:100] Creating Layer upsample5_0_4
I0204 20:20:13.985186  9437 net.cpp:434] upsample5_0_4 <- conv5_0_4
I0204 20:20:13.985198  9437 net.cpp:434] upsample5_0_4 <- pool1_0_4_mask
I0204 20:20:13.985211  9437 net.cpp:408] upsample5_0_4 -> upsample5_0_4
I0204 20:20:13.985265  9437 upsample_layer.cpp:27] Params 'pad_out_{}_' are deprecated. Please declare upsample height and width useing the upsample_h, upsample_w parameters.
I0204 20:20:13.985327  9437 net.cpp:150] Setting up upsample5_0_4
I0204 20:20:13.985352  9437 net.cpp:157] Top shape: 16 16 60 60 (921600)
I0204 20:20:13.985363  9437 net.cpp:165] Memory required for data: 422981632
I0204 20:20:13.985371  9437 layer_factory.hpp:77] Creating layer eltwise5_0_4
I0204 20:20:13.985384  9437 net.cpp:100] Creating Layer eltwise5_0_4
I0204 20:20:13.985394  9437 net.cpp:434] eltwise5_0_4 <- upsample5_0_4
I0204 20:20:13.985405  9437 net.cpp:434] eltwise5_0_4 <- conv5_0_2
I0204 20:20:13.985419  9437 net.cpp:408] eltwise5_0_4 -> eltwise5_0_4
I0204 20:20:13.985476  9437 net.cpp:150] Setting up eltwise5_0_4
I0204 20:20:13.985494  9437 net.cpp:157] Top shape: 16 16 60 60 (921600)
I0204 20:20:13.985503  9437 net.cpp:165] Memory required for data: 426668032
I0204 20:20:13.985512  9437 layer_factory.hpp:77] Creating layer prelu5_0_4
I0204 20:20:13.985528  9437 net.cpp:100] Creating Layer prelu5_0_4
I0204 20:20:13.985539  9437 net.cpp:434] prelu5_0_4 <- eltwise5_0_4
I0204 20:20:13.985551  9437 net.cpp:408] prelu5_0_4 -> prelu5_0_4
I0204 20:20:13.985918  9437 net.cpp:150] Setting up prelu5_0_4
I0204 20:20:13.985941  9437 net.cpp:157] Top shape: 16 16 60 60 (921600)
I0204 20:20:13.985950  9437 net.cpp:165] Memory required for data: 430354432
I0204 20:20:13.985960  9437 layer_factory.hpp:77] Creating layer prelu5_0_4_prelu5_0_4_0_split
I0204 20:20:13.985977  9437 net.cpp:100] Creating Layer prelu5_0_4_prelu5_0_4_0_split
I0204 20:20:13.985988  9437 net.cpp:434] prelu5_0_4_prelu5_0_4_0_split <- prelu5_0_4
I0204 20:20:13.986003  9437 net.cpp:408] prelu5_0_4_prelu5_0_4_0_split -> prelu5_0_4_prelu5_0_4_0_split_0
I0204 20:20:13.986019  9437 net.cpp:408] prelu5_0_4_prelu5_0_4_0_split -> prelu5_0_4_prelu5_0_4_0_split_1
I0204 20:20:13.986102  9437 net.cpp:150] Setting up prelu5_0_4_prelu5_0_4_0_split
I0204 20:20:13.986121  9437 net.cpp:157] Top shape: 16 16 60 60 (921600)
I0204 20:20:13.986132  9437 net.cpp:157] Top shape: 16 16 60 60 (921600)
I0204 20:20:13.986141  9437 net.cpp:165] Memory required for data: 437727232
I0204 20:20:13.986150  9437 layer_factory.hpp:77] Creating layer conv5_1_0
I0204 20:20:13.986171  9437 net.cpp:100] Creating Layer conv5_1_0
I0204 20:20:13.986181  9437 net.cpp:434] conv5_1_0 <- prelu5_0_4_prelu5_0_4_0_split_0
I0204 20:20:13.986198  9437 net.cpp:408] conv5_1_0 -> conv5_1_0
I0204 20:20:13.988344  9437 net.cpp:150] Setting up conv5_1_0
I0204 20:20:13.988370  9437 net.cpp:157] Top shape: 16 4 60 60 (230400)
I0204 20:20:13.988380  9437 net.cpp:165] Memory required for data: 438648832
I0204 20:20:13.988394  9437 layer_factory.hpp:77] Creating layer prelu5_1_0
I0204 20:20:13.988412  9437 net.cpp:100] Creating Layer prelu5_1_0
I0204 20:20:13.988423  9437 net.cpp:434] prelu5_1_0 <- conv5_1_0
I0204 20:20:13.988436  9437 net.cpp:408] prelu5_1_0 -> prelu5_1_0
I0204 20:20:13.988803  9437 net.cpp:150] Setting up prelu5_1_0
I0204 20:20:13.988827  9437 net.cpp:157] Top shape: 16 4 60 60 (230400)
I0204 20:20:13.988837  9437 net.cpp:165] Memory required for data: 439570432
I0204 20:20:13.988853  9437 layer_factory.hpp:77] Creating layer conv5_1_1
I0204 20:20:13.988885  9437 net.cpp:100] Creating Layer conv5_1_1
I0204 20:20:13.988898  9437 net.cpp:434] conv5_1_1 <- prelu5_1_0
I0204 20:20:13.988912  9437 net.cpp:408] conv5_1_1 -> conv5_1_1
I0204 20:20:13.991032  9437 net.cpp:150] Setting up conv5_1_1
I0204 20:20:13.991061  9437 net.cpp:157] Top shape: 16 4 60 60 (230400)
I0204 20:20:13.991071  9437 net.cpp:165] Memory required for data: 440492032
I0204 20:20:13.991086  9437 layer_factory.hpp:77] Creating layer prelu5_1_1
I0204 20:20:13.991101  9437 net.cpp:100] Creating Layer prelu5_1_1
I0204 20:20:13.991111  9437 net.cpp:434] prelu5_1_1 <- conv5_1_1
I0204 20:20:13.991123  9437 net.cpp:408] prelu5_1_1 -> prelu5_1_1
I0204 20:20:13.992161  9437 net.cpp:150] Setting up prelu5_1_1
I0204 20:20:13.992185  9437 net.cpp:157] Top shape: 16 4 60 60 (230400)
I0204 20:20:13.992195  9437 net.cpp:165] Memory required for data: 441413632
I0204 20:20:13.992205  9437 layer_factory.hpp:77] Creating layer conv5_1_2
I0204 20:20:13.992228  9437 net.cpp:100] Creating Layer conv5_1_2
I0204 20:20:13.992239  9437 net.cpp:434] conv5_1_2 <- prelu5_1_1
I0204 20:20:13.992254  9437 net.cpp:408] conv5_1_2 -> conv5_1_2
I0204 20:20:13.993759  9437 net.cpp:150] Setting up conv5_1_2
I0204 20:20:13.993790  9437 net.cpp:157] Top shape: 16 16 60 60 (921600)
I0204 20:20:13.993800  9437 net.cpp:165] Memory required for data: 445100032
I0204 20:20:13.993814  9437 layer_factory.hpp:77] Creating layer eltwise5_1_4
I0204 20:20:13.993827  9437 net.cpp:100] Creating Layer eltwise5_1_4
I0204 20:20:13.993842  9437 net.cpp:434] eltwise5_1_4 <- prelu5_0_4_prelu5_0_4_0_split_1
I0204 20:20:13.993854  9437 net.cpp:434] eltwise5_1_4 <- conv5_1_2
I0204 20:20:13.993866  9437 net.cpp:408] eltwise5_1_4 -> eltwise5_1_4
I0204 20:20:13.993927  9437 net.cpp:150] Setting up eltwise5_1_4
I0204 20:20:13.993945  9437 net.cpp:157] Top shape: 16 16 60 60 (921600)
I0204 20:20:13.993954  9437 net.cpp:165] Memory required for data: 448786432
I0204 20:20:13.993963  9437 layer_factory.hpp:77] Creating layer prelu5_1_4
I0204 20:20:13.993979  9437 net.cpp:100] Creating Layer prelu5_1_4
I0204 20:20:13.993990  9437 net.cpp:434] prelu5_1_4 <- eltwise5_1_4
I0204 20:20:13.994004  9437 net.cpp:408] prelu5_1_4 -> prelu5_1_4
I0204 20:20:13.994997  9437 net.cpp:150] Setting up prelu5_1_4
I0204 20:20:13.995025  9437 net.cpp:157] Top shape: 16 16 60 60 (921600)
I0204 20:20:13.995035  9437 net.cpp:165] Memory required for data: 452472832
I0204 20:20:13.995045  9437 layer_factory.hpp:77] Creating layer deconv6_0_0
I0204 20:20:13.995059  9437 net.cpp:100] Creating Layer deconv6_0_0
I0204 20:20:13.995069  9437 net.cpp:434] deconv6_0_0 <- prelu5_1_4
I0204 20:20:13.995085  9437 net.cpp:408] deconv6_0_0 -> deconv6_0_0
I0204 20:20:13.995604  9437 net.cpp:150] Setting up deconv6_0_0
I0204 20:20:13.995627  9437 net.cpp:157] Top shape: 16 17 120 120 (3916800)
I0204 20:20:13.995636  9437 net.cpp:165] Memory required for data: 468140032
I0204 20:20:13.995651  9437 layer_factory.hpp:77] Creating layer accuracy
I0204 20:20:13.995672  9437 net.cpp:100] Creating Layer accuracy
I0204 20:20:13.995683  9437 net.cpp:434] accuracy <- deconv6_0_0
I0204 20:20:13.995694  9437 net.cpp:434] accuracy <- label
I0204 20:20:13.995713  9437 net.cpp:408] accuracy -> accuracy
I0204 20:20:13.995728  9437 net.cpp:408] accuracy -> per_class_accuracy
I0204 20:20:13.995826  9437 net.cpp:150] Setting up accuracy
I0204 20:20:13.995844  9437 net.cpp:157] Top shape: (1)
I0204 20:20:13.995856  9437 net.cpp:157] Top shape: 17 (17)
I0204 20:20:13.995863  9437 net.cpp:165] Memory required for data: 468140104
I0204 20:20:13.995873  9437 net.cpp:228] accuracy does not need backward computation.
I0204 20:20:13.995882  9437 net.cpp:228] deconv6_0_0 does not need backward computation.
I0204 20:20:13.995892  9437 net.cpp:228] prelu5_1_4 does not need backward computation.
I0204 20:20:13.995900  9437 net.cpp:228] eltwise5_1_4 does not need backward computation.
…
